trained_models/binaries/model_up_test.pth (torch, 26043 bytes, 51 tensors)

l1_1.weight f4 [8, 6]
00000000: 7d63 943c 4b34 a33e 9cb4 0fbe a9e3 4c3e
00000010: 8adb c3bf 9c2f 58bd aaca 24be 4ec3 073f
00000020: 272b 1a3d f031 34be 8154 87bf 0777 c5be
00000030: ba80 7b3e 743d 8e3e 807a a0bd 27b3 5cbe
00000040: 9dee 7dbf e50e 05be d2b3 2bbe cbe1 53be
00000050: e148 b83d 07fa 06bc f6af 523f 5b4c f63d
00000060: e54e 96bd ad28 12bf ff36 8d3e 55d1 b13c
00000070: 4b2e ab3f 5b9f d03d bc25 4a3e 54d9 953e
00000080: e84c ba3d 9e2e 6abf 71b1 86be f69f a0bd
00000090: da68 693e 6210 8bbe bfb9 85be 6edf 3a3e
000000a0: 9a29 ad3f 9ba4 983d aa7b d73c ff53 b63e
000000b0: 0e9a 513e 2433 0a3f 3e68 a6be f1f7 993a
0.018113846 0.31875834 -0.14033741 0.2000872 -1.5301373 -0.05277978 -0.16092935 0.53032386
0.03763881 -0.17597175 -1.0572664 -0.38567373 0.24560824 0.2778126 -0.07835865 -0.21552716
-0.9919222 -0.12993963 -0.16767815 -0.20691602 0.089982755 -0.008238322 0.82299745 0.120262824
-0.07339267 -0.57093316 0.2758102 0.021706263 1.3373502 0.10186645 0.19740957 0.2926737
0.090967 -0.9147738 -0.26307252 -0.0784301 0.22793904 -0.27160937 -0.26118276 0.18249294
1.3528321 0.07453271 0.026304085 0.3561096 0.20468923 0.53984284 -0.32501405 0.0011746866

l1_1.bias f4 [8]
00000000: 313a 18bf 2d57 e7bd e47b a3be 13a8 553e
00000010: 8dcf da3d b346 13bf 9bca 033f 4f76 223d
-0.59463793 -0.11295924 -0.3193046 0.20864896 0.106841184 -0.57529753 0.51481026 0.03966361

l1_2.weight f4 [8, 8]
00000000: 9d33 c9be 5615 64be c976 c6be 56c4 00be
00000010: a80e 323f 0564 10be ba77 523f dfff 5fbe
00000020: e2bb b8be 5a1b e03d d5a0 08bd e538 023d
00000030: 9507 193e dfa2 edbe 7770 f83e e3a9 593e
00000040: c05b d43e a90d 9c3d 6f78 8ebe f892 203e
00000050: d72f 4b3d 944e e73d a618 a83e 98e1 983e
00000060: 3b72 f23e 9b79 bc3e 5aea 033f 02b1 51be
00000070: b385 a3be 5b8a 763e c19c 6fbe 28aa f83d
00000080: d96c 2abe 2ff0 12be bc0c 50be 8b39 ab3e
00000090: db91 2d3f 06b1 28be 903c 393f 65ad 3c3e
000000a0: d916 c8be 1a42 9bbe f0de 3bbf 14bb 733e
000000b0: 9bb0 5b3e a8b3 e13d 2cb0 3c3f 8182 683d
000000c0: efde 25be c886 a5be 35b0 b1be 3a89 063e
000000d0: 705b 973e a7cf 853e 02b7 683e 1146 8abd
000000e0: 5da2 da3e 6816 b43e df63 3f3f 9184 883e
000000f0: d03e 1abf 1b1b c33e e291 fabe 6a96 b9bc
-0.3929719 -0.22273764 -0.387625 -0.12574896 0.69553614 -0.14100654 0.8221394 -0.21874951
-0.36080843 0.10942717 -0.033356506 0.03179254 0.14944299 -0.46413323 0.48523304 0.21256213
0.4147625 0.07619793 -0.2782626 0.15681064 0.04960617 0.112942845 0.32831305 0.29859614
0.47352776 0.36811528 0.5152947 -0.2047768 -0.31937942 0.24076216 -0.2339964 0.1214183
-0.16643085 -0.14349435 -0.20317358 0.3344234 0.6780068 -0.16473779 0.72358036 0.1842552
-0.3907993 -0.3032387 -0.7338705 0.23801833 0.21454088 0.11020595 0.73706317 0.056765083
-0.16198324 -0.32329392 -0.34704748 0.13138285 0.2956195 0.2613499 0.22726062 -0.06751645
0.42701998 0.35173345 0.74761766 0.2666364 -0.60252094 0.38106617 -0.48939425 -0.02265473

l1_2.bias f4 [8]
00000000: 2d45 a73e 152d 4e3e a50a 543e 6c3b 1cbe
00000010: 099a 273f 8352 863e e4be b33d aeaf 25bf
0.32669964 0.20134385 0.20707186 -0.15257043 0.65469414 0.26234826 0.08776644 -0.6472119

l1_3.weight f4 [8, 8]
00000000: 78c1 80be 1ec3 8dbe df4f ad3e cc21 a3be
00000010: 5839 093e fe22 f1bd 425d 3abe 955f 7abe
00000020: 9448 89bd c868 643d ded3 a2be 544a febd
00000030: 2429 91be c832 a9be 1611 4a3e fde2 993e
00000040: d85f 6abe f859 413d b185 883e c205 773e
00000050: c3a8 af3e 7689 6e3e ec02 8abd 179d 54be
00000060: 14f2 c03d db07 883e 92bc 0e3e ef28 afbe
00000070: 0092 d5bc 3987 863e cd84 9a3e df01 883e
00000080: 00cd 5abe e071 1fbc 986a 083d 2c30 92be
00000090: 946c 063e 5c70 18be 180c b53d 3200 a4be
000000a0: 188e a4be e673 293e a025 1b3d a7ec 883e
000000b0: e604 78be d0bc d2bc 7cd7 a4be 6e06 173e
000000c0: 87c1 8e3e adee 23be 0029 84bd e903 0dbe
000000d0: 6b93 84be 3856 673d 4a78 3c3e f0d8 edbc
000000e0: 3611 2d3e 3289 2c3e 8498 f3bd a027 5a3c
000000f0: 9895 00bd 9c7c eb3d e8aa 14be cba4 963e
-0.25147605 -0.27687925 0.3385 -0.31861722 0.13400781 -0.11774252 -0.18199638 -0.24450524
-0.06703296 0.05576399 -0.31802267 -0.12416521 -0.283517 -0.33046556 0.1973308 0.3005599
-0.22888124 0.04720494 0.26664498 0.2412329 0.34308442 0.23294625 -0.067388386 -0.2076305
0.09421173 0.26568493 0.13939121 -0.34210917 -0.026070595 0.26275042 0.30179444 0.26563928
-0.21367264 -0.00973174 0.03330478 -0.28552377 0.13127357 -0.14886612 0.08840197 -0.320314
-0.3213966 0.16548118 0.03787768 0.2674305 -0.24220619 -0.025724798 -0.32195652 0.14748546
0.27882025 -0.16009016 -0.06453133 -0.13771023 -0.2589372 0.05647871 0.18405262 -0.029034108
0.16901097 0.16849211 -0.118943244 0.013315111 -0.031392664 0.11498377 -0.1451832 0.29422602

l1_3.bias f4 [8]
00000000: 31fc b4be 03b7 953e 86e7 693e 2eb1 383e
00000010: c97b 8d3e e442 97bd f5f9 9d3e 0aee 6d3e
-0.35348657 0.2924119 0.22842225 0.18036339 0.27633503 -0.07385805 0.30854765 0.23235336

l1_4.weight f4 [1, 8]
00000000: 66d7 b83e c1f2 2fbd ece7 aa3b 3ce5 95be
00000010: 26ff d13e f9aa 133f 0002 1c3e b894 89be
0.36101836 -0.042956118 0.0052156355 -0.29276454 0.41014975 0.5768276 0.15235138 -0.26871276

l2_1.weight f4 [8, 6]
00000000: 538a 693c f2f8 a6be 9c15 0abf f888 353f
00000010: f4d2 00bf 8e7c f0bc efd9 bbbe 1e44 ae3e
00000020: 1592 423e 21dd 4cbf ccb0 603f cd2a 823e
00000030: 8b10 91bd 8125 4c3e c13c 98be ef2e 583f
00000040: e1b0 99be 4a40 eb3e afa5 9dbc 864a ad3d
00000050: b0c6 9dbd 0842 623d 39d9 2bbe 04bd 9bbb
00000060: 8949 afbd 9f4e 4dbe d947 683e 4255 96bf
00000070: 054b 803f a90f c43e d2e7 993e d2a8 c8bd
00000080: 4c4f fcbd 74af b4bf b30b 563f e7f4 b03e
00000090: ed0d 55bd cf8e 633d 98d6 203e 49a2 703f
000000a0: 6854 d9be 34b4 97be b073 313d 8e6b a83d
000000b0: 12d6 c13e 41cd 94bf aed7 403f 877d 103e
0.0142541705 -0.32611805 -0.53939223 0.7091212 -0.5032189 -0.029356267 -0.36689708 0.34036344
0.19001038 -0.80024916 0.8776977 0.2542328 -0.070832334 0.19936182 -0.29733852 0.84446615
-0.3001776 0.45947486 -0.019244043 0.0846148 -0.07703912 0.055238754 -0.16782083 -0.004752757
-0.085589476 -0.20049523 0.22683658 -1.1744769 1.0022894 0.38293198 0.30059677 -0.09797825
-0.12319812 -1.4116044 0.836116 0.34561846 -0.052015234 0.055556115 0.15706861 0.9399763
-0.4244721 -0.29629672 0.04332322 0.082236394 0.37858635 -1.1625139 0.753291 0.14110385

l2_1.bias f4 [8]
00000000: 07b2 323e a026 fa3d 818f ec3e bd2e 5fbd
00000010: f292 92be 1a44 c1be d07f b93d cb98 afbe
0.17450725 0.122143984 0.46203235 -0.054487932 -0.28627735 -0.3774727 0.090575814 -0.3429626

l2_2.weight f4 [8, 8]
00000000: afb3 70be 4d6c d7be 3a5e 413e 73f0 17be
00000010: af7f 77be fde2 d5bd 6c5d 0dbe 5024 63bf
00000020: 2968 3a3c 4e8c a3be 82f8 213e dac9 bb3c
00000030: d2f8 90be 4aec 14bf a52f 2b3e d352 bfbe
00000040: bc5a 94be 332e b53a 9a49 0cbf 59f7 6abe
00000050: e6f8 67bd 6336 d7be 2b58 cf3d 2dde b9be
00000060: 395d 02be da22 473e 7de1 84bf c16b 82bd
00000070: e933 00be b218 e3bd a099 82be 4364 39be
00000080: fccf 813e ec5b 8fbd 9f14 183e 8ab3 9e3e
00000090: 28ba 68be 6945 97be 84e9 f6bc 274f 6dbf
000000a0: 2c5b 1a3d 45fd dabe 3e47 803c a8b2 7d3e
000000b0: a1c5 bebe 1be1 8ebe 44fb adbe dd16 69bf
000000c0: c715 8abd b165 08bf 4d00 603e b264 a6bc
000000d0: e10f 16bf e7cf f2be 406b f3be 19d6 6ebf
000000e0: 70b9 f53d 6aba fb3e dca2 523d ceef 623e
000000f0: c066 953e 4e87 d33e 7e7f 543e 8b64 bb3e
-0.23506044 -0.42074814 0.18883601 -0.14837818 -0.24169801 -0.10443685 -0.13805169 -0.88727283
0.011377373 -0.3194298 0.15817454 0.022923399 -0.28314835 -0.5817305 0.16717394 -0.37367877
-0.28975475 0.0013822973 -0.5479981 -0.22945918 -0.056633852 -0.4203368 0.101242386 -0.3630232
-0.12730874 0.19446889 -1.0381314 -0.06368209 -0.12519802 -0.11088695 -0.25507832 -0.18104653
0.25353992 -0.069999546 0.14851616 0.30996352 -0.22727263 -0.29545143 -0.030140646 -0.926989
0.037684605 -0.42771354 0.01565897 0.24775183 -0.37260154 -0.27906117 -0.33980763 -0.9105051
-0.06742435 -0.5328017 0.21875115 -0.020311687 -0.5861798 -0.47424242 -0.47542763 -0.9329544
0.1199826 0.4916566 0.051424846 0.2216179 0.29179955 0.41314167 0.2075176 0.36600146

l2_2.bias f4 [8]
00000000: 42ff 02bc 4366 a8bd 504a 9e3d 7c4f e63d
00000010: 1d16 ce3e 50cf b63e 2d8c 47be 03cf dc3a
-0.0079954285 -0.0822263 0.07729018 0.11245629 0.40251246 0.35705042 -0.19487067 0.0016846362

l2_3.weight f4 [8, 8]
00000000: ee6c 2ebe 927a 7f3e 640c 92be 6943 823e
00000010: bcc3 97be f814 c6bd 2045 85bd cb98 abbe
00000020: 45ad 8fbe a3fe 973e b65f 5a3e 90a0 a43c
00000030: d060 ddbc 3056 a9be 2da1 893e aac6 5a3e
00000040: 870d 67be 08fe 473d 00e3 aa3d e990 82be
00000050: 3200 dbbd d475 a1be 8cee 74be eb80 983e
00000060: 4009 c43c 39e3 16be 607c 56be 2c4a 80bd
00000070: be1b 2d3e 5d38 9ebe c81e 133e bf41 af3e
00000080: 08ad a8be 6085 d03d b5ea ad3e a137 b03e
00000090: a25b f9bd a1c0 b0be b092 a1be 46f0 7f3e
000000a0: 48a3 9cbe 80d4 113b 1c3d 89be 401e 733c
000000b0: f048 f2bc 66c0 6d3e 08d3 8d3d baaf 753e
000000c0: 46d6 35be 35ea 9fbe ce91 6f3e d0f1 abbe
000000d0: 4e28 6cbe e022 a3be 69b6 973e ac7b c4bd
000000e0: 42e5 83be eb92 92be a411 9bbd 4a69 553e
000000f0: 0bf5 a63e ba54 7f3e 80b9 ba3b d0a6 7a3d
-0.17033741 0.249491 -0.28525078 0.25442055 -0.2964152 -0.09671968 -0.06507325 -0.3351501
-0.28061882 0.2968646 0.21325573 0.020096093 -0.027023703 -0.33073568 0.2688078 0.21364847
-0.22563754 0.048826247 0.08344078 -0.25501183 -0.10693397 -0.31535208 -0.23919123 0.29785857
0.023930192 -0.14735116 -0.20945883 -0.06264147 0.16905114 -0.30902377 0.14367211 0.34229848
-0.32944512 0.10181689 0.3396813 0.3441744 -0.12175681 -0.34521964 -0.31557226 0.24994001
-0.30593324 0.0022251904 -0.26804435 0.014838755 -0.029575795 0.23217925 0.06925017 0.23992816
-0.1775752 -0.31233373 0.23395464 -0.33582926 -0.2306225 -0.31862545 0.29631355 -0.09593901
-0.25760847 -0.28627715 -0.07571724 0.20840946 0.32608828 0.24934664 0.005698383 0.06119424

l2_3.bias f4 [8]
00000000: fe51 753e 3297 1a3e 20e1 8fbd d742 943e
00000010: d343 03be aef9 afbe 5b74 aa3e 2726 22be
0.23957059 0.15096739 -0.07025361 0.28957245 -0.12818842 -0.34370178 0.33291897 -0.15834866

l2_4.weight f4 [1, 8]
00000000: a729 2e3e d012 e83e 6ebc 113e 1348 27be
00000010: b0b5 363e 64b0 5c3e 3957 d83e cda4 d9be
0.17008077 0.45326853 0.14232036 -0.16336088 0.17842746 0.21551663 0.42254046 -0.42508546

l3_1.weight f4 [8, 6]
00000000: 8633 a93c ca45 a23d b942 b9be f510 3ebf
00000010: cd31 9c3d 5459 623e 771a 3b3c b9a5 65bd
00000020: 323e b03e 175d 95be 225c 883d 32e6 1dbd
00000030: c1a3 b4be ce24 193e 94ae af3d 2f74 80bf
00000040: 55cd d7be f4a6 743e 4e56 053c e37d 2dbe
00000050: 5a96 883e 234e 723f 95e7 a73e d58e 773c
00000060: 04c5 3b3e 8306 b53e ced5 ddbe 3cb5 86bf
00000070: 7784 4bbf 6097 d23e 28ed 4ebd c0ac 3ebd
00000080: b4f2 5cbd b5bf edb9 3246 7bbd 6c09 673c
00000090: f043 3cbe fabf ff3d 2e40 99be 0262 3abf
000000a0: 92f6 0bbf 1b8d 0c3e 8172 0ebd 59c8 fd3d
000000b0: 5bff 91be b2da 673d 81b6 55bd efc6 d33d
0.020654451 0.079234675 -0.36183718 -0.74244624 0.07626686 0.22104388 0.011419884 -0.05606625
0.3442245 -0.29172584 0.06658198 -0.03854961 -0.35281184 0.14955446 0.0857822 -1.0035456
-0.42148843 0.23891813 0.008138252 -0.16942553 0.2667721 0.9465048 0.3279387 0.015109737
0.18336874 0.3535653 -0.43327183 -1.0524058 -0.79499 0.41131115 -0.05051914 -0.046551466
-0.053942397 -0.00045346995 -0.06134624 0.014101367 -0.18385291 0.124877885 -0.29931778 -0.728058
-0.5467311 0.13725702 -0.03477717 0.12391729 -0.28515133 0.05660505 -0.052176002 0.10340678

l3_1.bias f4 [8]
00000000: 1f5f bcbd bfe3 82be b5a9 b3be f81e 033f
00000010: db6e b3bc f85b ffbd 108f 39bf 85ca 443e
-0.091978304 -0.2556438 -0.35090414 0.5121913 -0.021903446 -0.124687135 -0.7248392 0.1921788

l3_2.weight f4 [8, 8]
00000000: 83e2 15be b2e6 1ebe 718f 083d 8e81 cc3e
00000010: 0b43 98bd bf1c 49be 1d3a 21be 40a5 863e
00000020: 3468 8bbe fbb0 633e e2cb 2cbe ee9b 2d3c
00000030: 8673 42be 55e7 6cbe baf8 c3bc 501e 343d
00000040: 2ac2 c73e 8e8a 243d 2fb3 1f3d 7205 f3bd
00000050: bfcf a9bc 9e6d b8be 1dc4 de3e 4da4 123e
00000060: 2272 0c3c fb7c 83be 4324 1bbc 1351 57bc
00000070: 9fed eabd 0536 e3be 30bb a23c fe26 7dbe
00000080: dd9f a33e df47 1dbe 39e7 a83c 05fa 58be
00000090: 5d8d a73e 358b b2be f767 63be e8f4 9c3e
000000a0: 07cf aabe 7f46 e83d bdc1 403d 924f a03d
000000b0: 0e1c 6cbd f43f 2a3d b4e3 2cbe 1e3d 8f3d
000000c0: 2985 7b3e 541b d0bd 02d9 2cbe bef7 f1bd
000000d0: 5704 b8be b8c5 6bbe c18b 4abd 6a8f 133d
000000e0: 0584 043d 5a56 45be d5dc 41be 52fa 5abe
000000f0: 957c 8dbe 4377 86be 8230 fabd 1106 b93e
-0.14637189 -0.15517691 0.03333992 0.39942592 -0.074346624 -0.19639872 -0.15744825 0.2629795
-0.27227938 0.22235481 -0.1687465 0.010596259 -0.18989381 -0.23135121 -0.023922313 0.04397422
0.39015323 0.0401712 0.038989242 -0.11866273 -0.020728944 -0.3602113 0.43508998 0.14320488
0.008572133 -0.2568129 -0.009469095 -0.013141888 -0.11471104 -0.4437715 0.019864649 -0.24721906
0.31957904 -0.15359448 0.020618068 -0.21189125 0.3272504 -0.34871832 -0.22207628 0.306556
-0.33361074 0.11341571 0.047059763 0.07827677 -0.057643943 0.041564897 -0.16883737 0.06994079
0.24562515 -0.101614624 -0.16879657 -0.11814831 -0.3594081 -0.23024642 -0.049449686 0.036025442
0.032352466 -0.19271222 -0.18931897 -0.21384552 -0.2763411 -0.26262864 -0.122162834 0.3613744

l3_2.bias f4 [8]
00000000: 6f54 00bd 179f 783d d2d0 3d3e dcef 063c
00000010: 6d71 5ebe 5007 80bd ef1b 8c3e f345 4abd
-0.031330522 0.060698595 0.1853669 0.008235898 -0.21722956 -0.06251395 0.27365062 -0.049383115

l3_3.weight f4 [8, 8]
00000000: 9c5b cabd f046 e1bc f294 92be e0b9 5cbd
00000010: 7d27 96be 1347 5bbe a457 3fbe 3122 873e
00000020: df56 a03e 42bf 213e 3e59 84be 14b1 9ebe
00000030: 509e 40bd fc61 c93d 00b9 78bc 3b3d b03e
00000040: 40a6 963d d8f5 02be 5cf2 e43d 47f1 8d3e
00000050: 48c3 8dbe 18f1 69be 8a84 4ebe 4d88 9c3e
00000060: dea9 abbe b449 d23d d828 da3d 225e 353e
00000070: 6639 643e d09d 3c3d fc68 a13d 8ea7 e4bd
00000080: 5bd5 953e 0074 f0ba 24c5 9abd 00e6 b8bc
00000090: 16b8 abbe 08f3 af3d 5196 ad3e e85b 98be
000000a0: 4465 62be a148 2bbe 34ca 96bd 027c 343e
000000b0: 2734 8d3e 31ae 31be 2091 4dbc 4506 b4be
000000c0: 251c ae3e 64c1 a53d 2265 143e a159 17be
000000d0: 4012 cb3c 7049 ae3c 8c2d 75be fd8f 9dbe
000000e0: 836c 4bbe d55c 9f3e fd7f 08be bc85 dfbd
000000f0: d2be 733e 7ef7 0a3e 0abe 97be 589e 53be
-0.09880754 -0.027499646 -0.2862926 -0.0538882 -0.29327002 -0.21413831 -0.18685776 0.26393273
0.31316277 0.15795615 -0.25849336 -0.30994475 -0.04702598 0.09833142 -0.015180826 0.34421715
0.073559284 -0.12789094 0.11179039 0.27723143 -0.2768805 -0.22845876 -0.20167747 0.3057274
-0.33528036 0.10267964 0.106523216 0.1771169 0.22287521 0.04604894 0.07881352 -0.11164771
0.2926434 -0.0018345118 -0.07557133 -0.02257061 -0.33538884 0.085912764 0.33903745 -0.2975762
-0.22108942 -0.16726924 -0.07362786 0.1762543 0.27578852 -0.17351605 -0.0125468075 -0.35161033
0.34005848 0.08093527 0.14491704 -0.14780284 0.024788976 0.021275252 -0.23943156 -0.30773917
-0.19865613 0.31125513 -0.13330074 -0.1091418 0.23803261 0.13570973 -0.29637176 -0.20665872

l3_3.bias f4 [8]
00000000: 78b3 513d d2be 083e bd02 943e 587d 1abe
00000010: 20cd 7bbc 17e4 9e3e 8ed5 053e 1292 53be
0.051196545 0.13354042 0.2890834 -0.15086877 -0.01536873 0.31033394 0.13069746 -0.2066119

l3_4.weight f4 [1, 8]
00000000: 3fbb e3bc 5b66 e2bd a8a6 393e 7513 0fbd
00000010: dcc2 6e3e aaa4 fdbc 6632 aebe c6a5 17be
-0.027799247 -0.11054679 0.1812998 -0.034930665 0.2331652 -0.030962307 -0.34022826 -0.14809331

exp_avg f4 [8, 6]
00000000: c0e4 03bd fd6b 4cbc 782b a23c f863 20bc
00000010: e602 60bc 1143 efbc 7e6d d8bc c860 27bc
00000020: 8bc2 843c 4253 03bc 5a65 37bc cbfe c3bc
00000030: dceb 44bd 6609 9bbc 7d46 f63c ae69 73bc
00000040: f1eb a9bc 96b0 34bd c8f3 2c3c 4913 8d3b
00000050: 18ad e0bb 26b8 5d3b 59b8 9a3b 6ce5 223c
00000060: 8384 323d ec6e 8b3c 8f5a ddbc bfdc 5a3c
00000070: 71ce 983c 5fd6 223d d0a7 e8bb 164d 4abb
00000080: 89d9 a13b 8b42 1fbb 100b 5ebb fa0e e6bb
00000090: 1d2c 6b3d b017 b53c 1496 0fbd 0812 8e3c
000000a0: 4b6c c63c f842 543d b598 31ba 9962 b3b9
000000b0: 4ded 103a 788f 8db9 a36a c5b9 3ab3 45ba
-0.032200575 -0.012476918 0.019796118 -0.009789459 -0.013672566 -0.029206784 -0.026419397 -0.010215946
0.016206047 -0.008015456 -0.011193598 -0.023925206 -0.048076496 -0.01892538 0.030062908 -0.014856739
-0.020742388 -0.044113718 0.010556169 0.0043052775 -0.006856572 0.0033831685 0.004721683 0.009942394
0.043583404 0.017020665 -0.02702072 0.013358294 0.018653126 0.03975522 -0.007100083 -0.00308687
0.0049392623 -0.0024301137 -0.0033881105 -0.0070208283 0.057415117 0.022106022 -0.035055235 0.017342582
0.02422156 0.05182168 -0.0006774769 -0.00034215002 0.00055285246 -0.00027000508 -0.0003765422 -0.00075416605

exp_avg_sq f4 [8, 6]
00000000: be18 543f 8abf 173d cf93 e53d c83d 043d
00000010: aadf 4a3d 88a0 5841 b559 f43e 2fe6 b23c
00000020: e9d5 863d a191 9a3c 64d9 ef3c 594c eb40
00000030: 6103 d73f c05d 9a3d d023 693e 3117 863d
00000040: b689 ce3d 44fd d541 63dd a53d a483 753b
00000050: 2a06 383c 2f9c 503b efa6 a53b f189 833f
00000060: ffc1 b33f 6326 813d 431d 433e ea60 603d
00000070: 73d0 ac3d 4497 b241 ff99 163d 682d e33a
00000080: 35f3 a83b a19d bd3a d644 1a3b 17a0 bf3e
00000090: 3c09 1840 87eb db3d f433 a63e b7a6 bf3d
000000a0: 43f1 123e a286 1e42 72e0 993a 38a2 7f38
000000b0: 36d0 3639 05ec 4938 8d8d b038 d337 b93b
0.82850254 0.0370479 0.11209833 0.03228548 0.04952971 13.539192 0.4772469 0.021838276
0.06583769 0.01886827 0.029278465 7.35307 1.6797906 0.07537413 0.22767568 0.06547392
0.1008486 26.748665 0.08098867 0.0037462497 0.011231938 0.0031831374 0.0050553004 1.0276471
1.4043578 0.0630615 0.19054131 0.054779924 0.08438196 22.32386 0.036767956 0.0017332258
0.0051559457 0.0014466533 0.0023539565 0.37426826 2.3755636 0.10738283 0.32461512 0.0935797
0.14349847 39.631477 0.0011739864 6.0947816e-05 0.00017434437 4.8141945e-05 8.4187e-05 0.0056524067

exp_avg f4 [8]
00000000: e8cd bb3c 9ac5 993c 0a6f 0e3d 789b 01bc
00000010: 4819 00bd 27db b93b 1c5f 26bd 8ccd 243a
0.022925332 0.018770982 0.034773864 -0.007910602 -0.03127411 0.005671877 -0.040618047 0.00062867324

exp_avg_sq f4 [8]
00000000: 6614 003e 07ff 963d 244a 823e 8638 4f3c
00000010: 1d03 5a3e 8abe bf3b 789e b93e 27c3 5739
0.12507781 0.07372861 0.2544719 0.012647754 0.2129025 0.0058515714 0.36253715 0.00020576698

exp_avg f4 [8, 8]
00000000: f3af e5b7 ac21 52bc 31bc 0339 526a ba39
00000010: d8dc 1c3b f3a9 4b3b 58c2 2c3c c481 f039
00000020: 5afc 2a36 ccf9 c73a e564 edb7 2b06 0cb8
00000030: 8c48 92b9 c1ea c5b9 1d90 a4ba 24ae 6ab8
00000040: da47 07b5 795f 43b9 74c3 87b6 42cd 1737
00000050: 011d 1c38 0ad5 2e38 6e1f 2039 183a ce36
00000060: e9af b837 2053 2a3c 68a0 b1b8 5a0d 9db9
00000070: 892f ffba fc6b 24bb 74ff 0bbc b821 c2b9
00000080: f961 01b8 46b2 6ebc 5539 1d39 d93f d139
00000090: b3fa 313b 999d 673b 1240 443c 52c4 083a
000000a0: 4f62 35b8 d8d4 a7bc 1b22 4b39 c116 163a
000000b0: d1bc 7a3b 9587 a23b 1ff9 893c 4cf2 3f3a
000000c0: 42a8 45b7 b465 b1bb 9a77 4538 be84 2139
000000d0: 62c3 843a 2b7e ab3a 1cd5 913b 2075 4a39
000000e0: dd99 a937 7a5a 1c3c b67c bcb8 84f7 8bb9
000000f0: 619a e9ba b764 17bb a188 00bc 38c3 b2b9
-2.738086e-05 -0.012825411 0.0001256324 0.000355559 0.0023935344 0.003107664 0.010544382 0.0004587305
2.5478862e-06 0.001525694 -2.8299584e-05 -3.3384345e-05 -0.00027901342 -0.00037749673 -0.0012555156 -5.595213e-05
-5.0395977e-07 -0.00018632216 -4.0460673e-06 9.048092e-06 3.722031e-05 4.168324e-05 0.00015270498 6.1460414e-06
2.2016424e-05 0.010395795 -8.469896e-05 -0.0002995532 -0.0019469123 -0.0025088778 -0.0085447915 -0.00037027686
-3.084724e-05 -0.014568871 0.00014994045 0.00039911157 0.0027157485 0.0035341738 0.011978166 0.0005217242
-4.324532e-05 -0.020487234 0.00019372294 0.00057254365 0.0038259516 0.0049600103 0.016842423 0.0007322177
-1.1781291e-05 -0.0054137353 4.7079848e-05 0.00015403607 0.0010129029 0.0013083866 0.0044504534 0.00019307854
2.0218018e-05 0.009543056 -8.987768e-05 -0.0002669656 -0.0017822498 -0.0023100802 -0.007845075 -0.00034096255

exp_avg_sq f4 [8, 8]
00000000: ac9f aa3b ec98 ed3e 94ae 293d 585c 093d
00000010: fd5d b03c 37d2 5c3c 274c 8b3c ac3a a43b
00000020: f6c5 e938 2fc4 363c e814 5f3a 1ffd 413a
00000030: c284 f939 1416 8c39 8536 ac39 0f9b dd38
00000040: 9c71 2837 a5b3 ae3a 0bce aa38 32e4 a438
00000050: e369 4e38 7664 c737 e8a8 e737 430b d636
00000060: 1629 583b 0487 953e c41a d83c 790a ae3c
00000070: b52b 5f3c 5c37 0d3c 3c35 323c 3836 4f3b
00000080: db1f de3b e009 1b3f 73cf 5c3d b9f9 323d
00000090: 0ec2 e53c 68ac 8f3c e21e b53c a2d2 d53b
000000a0: 0a11 5d3c a3d6 9a3f 1647 db3d d52a b23d
000000b0: 9ad4 643d 926c 0e3d 1f7f 333d ae54 553c
000000c0: 769b 573a 2768 913d d5da d93b 48c6 ac3b
000000d0: ce48 5d3b b266 0f3b bcb8 353b 6801 4d3a
000000e0: eae0 353b ea4c 7b3e a8e0 b53c 1962 923c
000000f0: 54b9 3b3c c7b3 ed3b 4607 163c 0f5c 2e3b
0.0052070227 0.46405733 0.041426256 0.03353533 0.021529192 0.0134778535 0.017004086 0.005011877
0.00011147179 0.011155172 0.000850989 0.00074000837 0.00047591893 0.0002671933 0.00032847017 0.00010566983
1.0040032e-05 0.0013328685 8.14461e-05 7.862634e-05 4.9212842e-05 2.376943e-05 2.7615999e-05 6.379008e-06
0.0032983474 0.2920457 0.02637995 0.021245228 0.01362126 0.008619156 0.01087695 0.003161801
0.0067787 0.60561943 0.053908776 0.043695185 0.028046634 0.017538264 0.022109453 0.0065253535
0.013492832 1.2096752 0.10706918 0.08699576 0.055866815 0.03477151 0.043822404 0.0130206775
0.00082247646 0.070999436 0.0066484013 0.0052726604 0.0033765319 0.002188128 0.0027728518 0.0007820339
0.0027752467 0.24541059 0.022201851 0.017869042 0.01145776 0.007254097 0.009157008 0.0026605164

exp_avg f4 [8]
00000000: 20bb 42bc 5478 b73a da04 3cb9 de28 1e3c
00000010: 3810 5dbc 4d99 9bbc d99d a4bb 8ff4 103c
-0.011885434 0.0013997653 -0.00017930884 0.009653298 -0.013492636 -0.018993998 -0.0050236997 0.00884737

exp_avg_sq f4 [8]
00000000: 57d1 fc3c 7094 eb39 1346 f937 9800 a43c
00000010: ba57 233d 1a77 a03d 5283 b03b c57b 8a3c
0.03086154 0.00044933287 2.9715744e-05 0.020019814 0.039878584 0.07835217 0.0053867484 0.016904721

exp_avg f4 [1, 8]
00000000: 5b89 c73c 0898 353a a0d9 f63a 8309 78bc
00000010: 3452 0c3c 5a56 d83c 704e a13c 4200 c6bb
0.024357488 0.00069272565 0.0018833168 -0.0151389865 0.008564521 0.026408363 0.019690722 -0.006042511

exp_avg_sq f4 [1, 8]
00000000: e434 b73f d031 a53d 0022 023d 2087 f63f
00000010: 0e53 963f 9944 ec3f a2fd 713f 7ab1 0f40
1.4313016 0.080661416 0.031770706 1.9259987 1.1744096 1.8458434 0.9452764 2.2452073

exp_avg f4 [8, 6]
00000000: 3aa4 d1bc 2902 d73b 1cba 3abc 28ff ad3b
00000010: 5017 d83b 003a 373c eaed 76be e3ce 7c3d
00000020: 9637 dbbd 135f 4c3d 3985 7d3d d9ed db3d
00000030: 0e1e b93d f9a6 bdbc 6e6b 243d 6851 99bc
00000040: a829 bebc 5308 25bd d7b3 22bc 8c62 263b
00000050: f49c 90bb 6a9c 063b 7755 273b f98c 8d3b
00000060: 76ac 4bbe 9794 503d 2fd9 b4bd e09d 283d
00000070: a127 513d 068b b53d 035e 7ebe 104a 823d
00000080: a5ea e1bd 92a7 523d 38a5 823d c5d1 e23d
00000090: 5195 a2bd 6885 a63c ea61 10bd cd9e 863c
000000a0: f3fb a63c 42d7 103d 4372 c4be d835 c93d
000000b0: 6c73 2ebe 9aa8 a23d 07c3 c93d 8a25 2f3e
-0.025591005 0.006561537 -0.011396911 0.005309958 0.006594576 0.011183262 -0.24114195 0.06172074
-0.107039616 0.049895357 0.06189463 0.10738725 0.090389356 -0.023150908 0.040141515 -0.018715575
-0.023213223 -0.04029114 -0.0099305725 0.0025388328 -0.0044132415 0.0020540007 0.0025533119 0.0043197838
-0.19890007 0.050922956 -0.08830487 0.041166186 0.051063184 0.08864407 -0.2484055 0.063617826
-0.11031083 0.05142934 0.06379169 0.110751666 -0.07938636 0.020327285 -0.035249628 0.016433144
0.02038381 0.035361536 -0.38368425 0.09824723 -0.17036217 0.079423144 0.09851652 0.17104164

exp_avg_sq f4 [8, 6]
00000000: eb59 a43b d63f 073a f5c3 bb3a 213a db39
00000010: 9285 2a3a 46b5 803d 0275 ed3f 36da 2b3e
00000020: 85d8 f63e f3da 113e cc3f 573e 6549 7f42
00000030: e24b a33e 5ce1 e93c 7168 aa3d 1458 d13c
00000040: 03a5 0f3d 2469 8741 b0ad 3c3b fb93 8739
00000050: 0570 443a a0a1 6c39 3230 a839 4534 023e
00000060: 1427 9f3f 9490 e63d 3663 a53e d5d6 c23d
00000070: b39a 103e ca95 2342 f4d4 f63f a1e5 323e
00000080: a963 003f 5b8f 173e 9e2a 603e 7435 8242
00000090: 2b1a 673e ac1c a63c 217d 703d b356 913c
000000a0: d6bf cd3c f040 2241 d8d0 9740 d68d db3e
000000b0: 0fab 9d3f 704b ba3e d380 093f 9bb9 2243
0.005015602 0.00051593536 0.0014325368 0.00041814244 0.0006504889 0.06284575 1.8551333 0.1678246
0.48212066 0.14243679 0.2102043 63.821674 0.31893831 0.028549843 0.08320702 0.025554694
0.035069477 16.926338 0.002879005 0.0002585946 0.0007493499 0.00022566924 0.00032079365 0.12715252
1.2433801 0.11258045 0.32302254 0.09513632 0.14121513 40.89628 1.9283738 0.17470409
0.5015207 0.1480078 0.21891257 65.1044 0.22568576 0.020277344 0.058713082 0.017741537
0.025115889 10.140854 4.7442436 0.4288165 1.2317828 0.3638568 0.53712195 162.72502

exp_avg f4 [8]
00000000: c987 45bc e241 e8bd 443c 2e3d 09dc 98bb
00000010: f89f bfbd 6e65 efbd 0dfc 18bd 9cda 38be
-0.0120562995 -0.11340691 0.042537943 -0.004664902 -0.093566835 -0.11689268 -0.03734975 -0.18052143

exp_avg_sq f4 [8]
00000000: ee4e e43a 550c 113f da66 c53d 22dd 643a
00000010: 739a c23e 80fe 163f 1834 8c3d 484f b93f
0.0017418542 0.5665944 0.09638758 0.0008730461 0.3800846 0.58982086 0.068458736 1.447732

exp_avg f4 [8, 8]
00000000: 4ba6 79bb f211 d1bc 04e1 8ebc 6590 74bb
00000010: 7d09 5cbc 310b 273a 6188 963b 4410 ee39
00000020: 4926 26bc ea1c 8bbd 492e 3ebd 83c2 22bc
00000030: ad6d 12bd ece4 dc3a 1063 483c e837 9e3a
00000040: edc6 50bb 7bcc aebc aaf7 6ebc 4d83 4cbb
00000050: 36fe 37bc 11a4 0a3a 08cd 7b3b 0ac5 c639
00000060: fc60 6f3b 5968 c83c 85fc 883c 677d 6a3b
00000070: 08ef 523c 4a57 1fba 1351 90bb 5e42 e4b9
00000080: e9e6 82bb 852a dbbc f8ce 95bc 5d3a 80bb
00000090: 3eb3 66bc cbec 2c3a ffdd 9d3b d70e f939
000000a0: c632 9ebb e370 04bd d504 b5bc f0f4 9abb
000000b0: 7960 8bbc 1269 533a f8ad be3b 532c 173a
000000c0: e0e5 1abc 6ab3 81bd 1f4f 31bd 92bd 17bc
000000d0: 2b85 08bd ff2d ce3a 35d3 3a3c ac80 933a
000000e0: cee0 1b3c 3182 823d f066 323d 23b1 183c
000000f0: c55b 093d d5e6 cfba c4f2 3bbc 70b1 94ba
-0.0038093503 -0.025521252 -0.01744128 -0.003731751 -0.013429997 0.0006372212 0.0045938944 0.00045407016
-0.010140964 -0.06792624 -0.04643086 -0.0099340705 -0.035749126 0.0016852892 0.01223065 0.0012071105
-0.003185685 -0.021337738 -0.014585415 -0.003120619 -0.011230042 0.000528873 0.0038421769 0.00037912308
0.0036526313 0.02446382 0.016721973 0.0035780312 0.012874372 -0.0006078376 -0.004404196 -0.00043536996
-0.003994812 -0.026753673 -0.018287167 -0.0039132074 -0.014080821 0.0006596564 0.0048177238 0.00047504038
-0.00482783 -0.03233422 -0.02209703 -0.004728906 -0.017013775 0.0008064668 0.0058190785 0.00057667977
-0.0094542205 -0.06333049 -0.043288346 -0.009261506 -0.033330124 0.0015730261 0.011402895 0.0011253557
0.009514047 0.06372488 0.0435552 0.009319576 0.033534784 -0.001586164 -0.011471454 -0.0011344384

exp_avg_sq f4 [8, 8]
00000000: 9377 ac3a 289e 223e 8448 303f 73a4 3f3b
00000010: 596d d63e 0dd9 bd3e e457 ad3e d982 673d
00000020: 95fa 173c 37cc 963f f5d7 a440 e1c2 b13c
00000030: 4ebe 4840 b6a5 3140 b815 2240 fcc5 d83e
00000040: dafd 503a 65b1 be3d cf5f cc3e 8c0b e33a
00000050: d47a 793e 33ea 5c3e 44d8 483e ee10 073d
00000060: bee5 c63a 9c34 5a3e d314 743f b4e2 7d3b
00000070: f81c 143f 38fb 023f e029 f03e a560 9f3d
00000080: 3db7 ba3a 59a4 313e df8b 403f bfcb 513b
00000090: a37d ea3e ee97 cf3e a04d bd3e a75a 7d3d
000000a0: b7d8 063b b14e 813e 845c 8c3f 3ec1 983b
000000b0: c3f7 2a3f b557 173f 2bff 093f c3b9 b83d
000000c0: 79ec 053c 63ad 843f df10 9140 cf43 9c3c
000000d0: fa97 3040 cb47 1c40 2ea5 0e40 ada6 be3e
000000e0: 4675 053c 6ffc 833f bd35 9040 4594 9b3c
000000f0: cb99 2f40 c866 1b40 facb 0d40 769e bd3e
0.0013158194 0.15880644 0.6886065 0.0029242306 0.418803 0.3707966 0.33856118 0.05652127
0.009276052 1.1781071 5.151362 0.02169937 3.1366153 2.7757392 2.5325756 0.4233855
0.0007972397 0.09311179 0.39916846 0.0017322167 0.24363261 0.21573715 0.19613749 0.03297513
0.001517467 0.21309131 0.95344275 0.0038739862 0.578567 0.5116458 0.46906948 0.07782105
0.0014245283 0.1734785 0.75213426 0.0032012311 0.45798978 0.405456 0.36973286 0.06185403
0.002057595 0.2525535 1.0965734 0.004661708 0.66784304 0.59118205 0.5390498 0.09019806
0.008174055 1.0365413 4.5333095 0.019075302 2.759276 2.441882 2.2288318 0.3723654
0.008145636 1.0311412 4.50656 0.018991599 2.7437618 2.4281483 2.2155747 0.3703496

exp_avg f4 [8]
00000000: e6bd c83c 889b 853d 1de3 a73c 8c7e c0bc
00000010: 0494 d23c 966d fe3c 451d 793d 74af 7abd
0.024504613 0.06523806 0.020494038 -0.023497842 0.025705345 0.031058114 0.06081893 -0.06120248

exp_avg_sq f4 [8]
00000000: 8255 e33c bd7b 3f3e 3164 8e3c 1eef dd3c
00000010: bbf5 f43c 3195 2f3d 8cdb 283e 6aa5 283e
0.027750734 0.18699546 0.01738176 0.027091559 0.02990233 0.04286689 0.1649 0.1646935

exp_avg f4 [1, 8]
00000000: 0b20 833d c8a8 303d 9e43 ab3d 0280 cb3d
00000010: a4e4 5f3d d374 ff3d a04c 793d c7e8 cfbd
0.06402596 0.043129712 0.08362506 0.09936525 0.054661408 0.12473454 0.06086409 -0.10151821

exp_avg_sq f4 [1, 8]
00000000: 1efe 6540 b743 8441 455f db41 712a 0042
00000010: f119 8b40 1660 1641 b110 5441 dd0f 5341
3.593635 16.533064 27.421518 32.041447 4.3469167 9.3984585 13.254075 13.191373

exp_avg f4 [8, 6]
00000000: ba74 a23a 4e84 f4ba 45d0 3f3b b7c1 d0ba
00000010: 5306 ddba 35dc 6fbb 2cb8 8839 9998 c4b9
00000020: 3574 1a3a b4f3 a7b9 ad09 b2b9 d902 40ba
00000030: ebd3 b63a d6fa 09bb 6d74 583b 979d ebba
00000040: 0f74 f9ba 305f 87bb f1e6 05b9 906b 7039
00000050: 4895 bbb9 e117 4d39 612a 5839 759f ef39
00000060: a475 553b fe3d a0bb ba6c fb3b 34cf 88bb
00000070: bcdb 90bb ae2d 1dbc fa7c 3f39 1262 97b9
00000080: 951f ed39 c73a 81b9 e7ad 88b9 2b0d 15ba
00000090: 23f9 683a 626e b1ba b421 0b3b 257b 97ba
000000a0: 9957 a0ba d834 2ebb 8331 a539 5655 fab9
000000b0: 0555 443a eab3 d5b9 db38 e2b9 50bb 75ba
0.0012394406 -0.0018655153 0.0029268425 -0.0015926872 -0.0016862847 -0.003659976 0.0002607716 -0.00037497727
0.000589195 -0.00032034295 -0.00033958015 -0.0007324643 0.0013948655 -0.002105405 0.003302838 -0.0017976043
-0.001903178 -0.0041312203 -0.00012769901 0.00022928254 -0.00035778643 0.00019559219 0.00020615153 0.00045704437
0.003257134 -0.0048902025 0.0076728733 -0.004175091 -0.0044207256 -0.00959341 0.00018261737 -0.00028874032
0.00045227693 -0.0002464859 -0.0002606951 -0.0005685861 0.0008887222 -0.0013536925 0.0021229805 -0.0011557086
-0.0012233137 -0.002658179 0.00031508142 -0.00047747296 0.00074894755 -0.00040760572 -0.0004314844 -0.000937392

exp_avg_sq f4 [8, 6]
00000000: 775f 783b d38b 9139 9e1e 813a 204c b239
00000010: 1679 9a39 0588 c43e f4ac cf38 1eb5 fa36
00000020: 08a4 d537 900e 1337 7fc8 0637 66fc 133c
00000030: 098b 803b 073f 9439 264c 833a cb89 b239
00000040: c72d 9e39 d7a2 b43e 3701 9337 1f55 bd35
00000050: 6da5 a136 4074 e935 7e42 c835 ed36 153b
00000060: 21cc 9e3c 8d36 b53a 5b33 a03b 9db4 d73a
00000070: 070a c23a 6470 cd3f 9fe5 ce39 f49d fe37
00000080: 4156 e238 c74a 2438 6fc9 0438 2957 633d
00000090: 29e6 033b 9e8b 1b39 b1e5 093a bf79 3f39
000000a0: 27d2 2439 40cb 583e 67b3 df39 d2f5 0638
000000b0: 1435 f038 55b4 2938 ac15 0e38 627f 513d
0.0037898698 0.00027760732 0.0009851044 0.00034007523 0.00029463385 0.38385025 9.902744e-05 7.4716654e-06
2.5467962e-05 8.765273e-06 8.033704e-06 0.009032344 0.0039228243 0.0002827572 0.0010017201 0.0003405347
0.00030170215 0.35280487 1.7524331e-05 1.4106371e-06 4.817432e-06 1.7393686e-06 1.4920513e-06 0.0022768334
0.019384446 0.0013825462 0.0048889345 0.0016457025 0.0014804014 1.6049924 0.00039462463 3.0352712e-05
0.00010792586 3.917029e-05 3.1658852e-05 0.055503044 0.00201262 0.00014833963 0.0005260362 0.00018260533
0.00015718547 0.21171284 0.0004266754 3.2177028e-05 0.000114539784 4.0460687e-05 3.387562e-05 0.051146872

exp_avg f4 [8]
00000000: d8a3 603b 629d 343a e286 7d3b 5de0 dcb9
00000010: 4e37 133c c113 0b3a ff01 233b d4fb 653a
0.0034277346 0.0006889907 0.0038685133 -0.00042128834 0.008985354 0.0005305373 0.0024873016 0.0008773182

exp_avg_sq f4 [8]
00000000: c4b0 753a 649a d337 813f 7a3a 6acd 9f36
00000010: eff2 983b 6be7 d638 d648 033a d8d1 e338
0.00093723484 2.5225054e-05 0.0009546206 4.7624826e-06 0.004667632 0.0001024742 0.0005008107 0.0001086329

exp_avg f4 [8, 8]
00000000: c039 b239 78c9 5ab9 f3b4 7938 c03e 50b9
00000010: bb9f 8f38 d07b 1039 e356 203a af2a 6c39
00000020: 1fac b13a 5d2d 5aba c8fe 7a39 f99e 4fba
00000030: 907f 8e39 1120 103a f9eb 1f3b d284 6b3a
00000040: bdb9 11bb a3f0 b23a c4c8 cdb9 9546 aa3a
00000050: 7be8 e9b9 2467 6cba a528 83bb f429 c1ba
00000060: f37c e039 c6d9 89b9 5a7e 9e38 bc2f 83b9
00000070: 17b8 b338 a921 3639 4615 4a3a adcc 9439
00000080: 9e6f 3bbb b72f e63a 6fc4 04ba ae0b db3a
00000090: 941f 16ba 4613 98ba cdbc a8bb 417d f8ba
000000a0: 01b6 c639 2f00 74b9 69fd 8b38 1d3e 68b9
000000b0: c775 9f38 5c2d 2139 90d8 323a 97b1 8339
000000c0: 9ac2 883b b2f1 27bb f38a 413a f7cf 1fbb
000000d0: db3d 5b3a 82e5 dd3a a136 f63b 0a4c 353b
000000e0: 9133 ee3a 7e46 92ba 6988 a839 7f2f 8bba
000000f0: 9ca5 be39 1a45 413a 9970 563b e5e5 9d3a
0.00033993833 -0.00020865153 5.953475e-05 -0.00019859802 6.8485235e-05 0.00013779034 0.0006116463 0.00022522615
0.0013555324 -0.00083227997 0.00023936771 -0.0007920112 0.00027179392 0.00054979423 0.0024402125 0.00089843303
-0.0022235953 0.0013652038 -0.0003925023 0.0012991006 -0.00044614435 -0.00090180547 -0.004002648 -0.0014737234
0.00042817704 -0.0002629293 7.557562e-05 -0.00025021832 8.5696745e-05 0.00017369412 0.00077088585 0.00028381255
-0.0028600465 0.0017561828 -0.0005064671 0.0016711855 -0.00057267514 -0.0011602424 -0.00514946 -0.0018958227
0.00037901106 -0.00023269722 6.675238e-05 -0.00022148383 7.6036486e-05 0.00015371054 0.00068224315 0.00025118582
0.004173589 -0.002562624 0.0007383071 -0.0024385431 0.0008363404 0.001692936 0.0075138365 0.002766373
0.0018173327 -0.0011159924 0.0003214509 -0.0010619013 0.00036363013 0.00073726627 0.0032720922 0.0012046663

exp_avg_sq f4 [8, 8]
00000000: e093 0b3b efaf e836 586f 1c3b 0acf 4f36
00000010: ada7 f83b f680 5e38 c975 373a 19b3 083a
00000020: f719 8b3c c5ee 8539 118a 9b3c 05ca 8538
00000030: 3561 763d 7cce ff39 192d ba3b e0f0 8d3b
00000040: 6e8f 213d 46ad 183a c6cc 343d b4b7 1f39
00000050: 8066 0f3e e4b3 933a dd3f 583c f974 243c
00000060: da13 363b 4c4d 1037 bb26 4c3b 53dc 8736
00000070: f161 223c 7e66 9038 be53 6f3a 7513 323a
00000080: 1c31 803d eaa7 6e3a 9480 8f3d e91a 7e39
00000090: 3dbf 633e e693 e93a d392 ab3c 3652 823c
000000a0: 11dc 3e3b 16e2 4f38 78d6 543b 586f 2f37
000000b0: 888f 273c 5462 b538 f404 803a eb40 453a
000000c0: 244f 003e 056f ed3a 84ae 0f3e 7816 013a
000000d0: ba2e e43e 5a47 693b 0dbd 2b3d 884d 023d
000000e0: e213 e13c c5c6 d239 5cd9 fb3c 7cda d938
000000f0: f0ac c73d 348f 4d3a 5e9a 163c 2e1f e53b
0.0021297857 6.93462e-06 0.0023870077 3.0965916e-06 0.007588348 5.304903e-05 0.00069984474 0.0005214676
0.016980154 0.00025545634 0.018986734 6.379563e-05 0.060151298 0.00048791233 0.0056816456 0.004331693
0.039443426 0.00058241596 0.0441406 0.00015231856 0.14003944 0.0011268822 0.01319882 0.010037654
0.0027782829 8.601066e-06 0.0031151015 4.0489626e-06 0.009911046 6.885546e-05 0.0009129605 0.00067930605
0.06259367 0.00091040006 0.07006946 0.00024233352 0.2224092 0.0017820566 0.020944035 0.015908342
0.002912287 4.9563205e-05 0.0032476466 1.0456737e-05 0.010227092 8.6490676e-05 0.0009767101 0.0007524627
0.1253019 0.0018114751 0.14031416 0.00049243076 0.445669 0.0035595507 0.04192834 0.03181222
0.027475301 0.00040202416 0.030743293 0.00010388062 0.09749782 0.00078414683 0.009192077 0.0069922423

exp_avg f4 [8]
00000000: 68aa 76ba 73ea 75bb e7b0 c93b 2461 9bba
00000010: 19b7 013c a186 89ba 1849 3dbc afdc a4bb
-0.0009409548 -0.0037523776 0.0061551216 -0.0011854512 0.007917189 -0.0010492393 -0.011553071 -0.0050311903

exp_avg_sq f4 [8]
00000000: 0958 9138 8805 553a ce60 033b a8af c738
00000010: 3556 543b 478e e738 4b8c da3b fb3a b33a
6.9305366e-05 0.00081261294 0.0020046714 9.521778e-05 0.0032400016 0.000110414396 0.0066695563 0.0013674194

exp_avg f4 [1, 8]
00000000: ff6e 9d3b 709f 173c 6e0a 03bc 2d91 0e3b
00000010: d3f6 2dbc ffbb cf3b cab3 ff3b 84e9 41bb
0.0048044915 0.009254321 -0.007998092 0.0021754012 -0.0106179295 0.0063395496 0.007803415 -0.002958865

exp_avg_sq f4 [1, 8]
00000000: 1d55 cf3d 755b 643f cdd5 1a3f fce9 4c3e
00000010: 0c19 7f3f 41a9 b03e ef02 ff3e 3686 033f
0.10123656 0.8920205 0.60482484 0.20011133 0.99647593 0.3450413 0.49806926 0.51376665
