trained_models/binaries/model_up.pth (torch, 26043 bytes, 51 tensors)

l1_1.weight f4 [8, 6]
00000000: 922c d2bd 2798 29bc 5773 df3d 13a1 283d
00000010: 162a bc3f db80 78bd cada 0f3d e4cf db3d
00000020: eb0d 823e ad2e 963d 21cc f0be 3a75 e23d
00000030: e92c cdbc f95f fd3e 4fb4 86be bb1f fabe
00000040: 83ed 05bf f1bd 4f3c a5db 433c d2d1 c0bd
00000050: bdbf c03d 2bb3 8fbe 96e3 973f d7c0 85bd
00000060: f1b4 383b 3704 4d3f 3d7c 843d 2aca c43e
00000070: 15f4 a5bf f040 db3d 6e41 1dbc abf6 073f
00000080: 08fa 14be d3c4 18be b8dc 8cbf 05e7 1ab8
00000090: 4b38 2b3d f02f 46bd 5a93 9ebd 04ce 4dbd
000000a0: 68ca d43f 7c5c 2c3c 395c 8dbc d2e6 bdbe
000000b0: 88aa 823e b6b6 fdbd 0e15 bb3f 34f2 59be
-0.10262407 -0.010351217 0.10910671 0.041169237 1.4700344 -0.06066976 0.035120763 0.10733011
0.25401244 0.073331214 -0.47030738 0.110575154 -0.025045829 0.49487284 -0.2630944 -0.48852333
-0.5231554 0.012679563 0.011954223 -0.0941502 0.09411571 -0.28066382 1.1866329 -0.06530922
0.0028184021 0.80084556 0.06469009 0.3843549 -1.2965113 0.10705745 -0.009598119 0.5311076
-0.14548504 -0.14918832 -1.1004858 -3.6931615e-05 0.041801732 -0.04838556 -0.07742949 -0.0502453
1.662427 0.010520097 -0.01725589 -0.37090164 0.2552073 -0.12388365 1.46158 -0.212838

l1_1.bias f4 [8]
00000000: 6950 4b3f ec7f 05bf c656 8abd eff0 e93e
00000010: 61c5 26be 2bc5 b1be b51a ed3e 6909 d93e
0.7941957 -0.5214832 -0.06754832 0.4569163 -0.16286232 -0.3472074 0.46309438 0.42389992

l1_2.weight f4 [8, 8]
00000000: 8a56 32be deee 8abe c196 e3bd 5704 8b3e
00000010: 61e1 99be 0eec 23bf 8971 27bf cfed 2ebe
00000020: 789e a3bd 1603 8b3d f4fe 903c 107d 87bd
00000030: 3b68 f3bc c3b9 9fbe a4a5 13be b339 8abd
00000040: a5b1 373f 3694 8b3e 4a2d d53d ba8f 8c3e
00000050: 9631 403d ea62 4ebd aade 493f b388 603e
00000060: c8cd a2be 37d3 b6be 1db1 453e 3ab2 c7bc
00000070: cfb1 d8bd 2274 d4be 46b2 28bf 6556 9b3d
00000080: 571c 713c 1c44 dfbd 4537 9fbe c7d7 66bd
00000090: 18fd a9be d00d 8fbc 9c93 3bbe fec6 e2bd
000000a0: 8010 f63e 7f0d e1bd ca74 bebd 6ee5 69be
000000b0: 5acc 063e 4dfb 53be b58e 6c3f 254f 393e
000000c0: 85f8 27bf 80fb 1e3e 6a4b 5fbe 8193 14be
000000d0: 4988 dc3e 0455 163e 03bf 8ebf 23cc dcbe
000000e0: 747c b7be 9343 04bd f727 833e 3ee3 313e
000000f0: d36c cd3e a0e5 4bbe 11f0 72bf 23aa f33d
-0.17415825 -0.27135366 -0.111127384 0.2715175 -0.30054763 -0.64032066 -0.65407616 -0.17082904
-0.0798921 0.06787698 0.017699696 -0.06615651 -0.029712787 -0.31196412 -0.14418656 -0.067492865
0.7175544 0.27261513 0.10409029 0.27453405 0.04692229 -0.0503873 0.78855383 0.21927147
-0.31797624 -0.3570802 0.19305845 -0.024376977 -0.10580789 -0.41494852 -0.65897024 0.07584838
0.014716229 -0.10901663 -0.31096855 -0.056358125 -0.33200908 -0.017462641 -0.18318027 -0.11073111
0.48059464 -0.10988902 -0.092996195 -0.22841427 0.13163891 -0.20701332 0.92405254 0.18096597
-0.65613586 0.15525627 -0.21806112 -0.14509393 0.43072727 0.14680868 -1.1152042 -0.43124494
-0.35837138 -0.032291006 0.25616428 0.17371842 0.4012209 -0.19911814 -0.9489756 0.118976854

l1_2.bias f4 [8]
00000000: ce29 b6be ab73 8dbd 337d fc3e 24dd cebe
00000010: 25ae 27bd 6fa5 893e 7145 97be 810a ecbe
-0.3557877 -0.069068275 0.4931427 -0.40403092 -0.04093756 0.26884028 -0.29545167 -0.46101764

l1_3.weight f4 [8, 8]
00000000: 91df b23e da50 9fbe d88f adbd 2a4e 77be
00000010: f40b b0bd 30bf a7bd c0d4 95bb a289 263e
00000020: 82d2 193e 1432 f63d 1a4e 6b3e 91f3 a23e
00000030: 9061 36be a0d9 c4bc d63c 4c3e dcc5 d3bd
00000040: 20e5 c13c c598 883e aca8 de3d fa5f 53be
00000050: f9c7 60be 62e7 413e 980f 6dbe 84b0 133e
00000060: 000f 653b b229 abbe a9d8 8dbe 20a2 c5bd
00000070: 822d 83be fbbb 48be be66 e9bd c375 a23e
00000080: 8472 82be 0063 313b 8ced 8cbe 91c1 64be
00000090: ec12 99be 10f1 793d 7e9d 393e 18cf 3abd
000000a0: 52f4 9fbe 315c 983e 7cb4 c63d 1ac7 aabe
000000b0: b555 b43e b0c0 22be d07d aabc 2d52 12be
000000c0: c6db 193e 8b84 a0be 2237 583e a644 41be
000000d0: 506d 5b3d fa5f 1f3e f0e7 dcbc 0386 903e
000000e0: 1b36 973e d098 7dbd 07cd a63e 183b a0bd
000000f0: abe6 acbe b821 133e a0e6 9dbe 8071 84bd
0.34936193 -0.31116372 -0.08474702 -0.24150911 -0.0859603 -0.08190763 -0.004572481 0.1626344
0.15021709 0.120212704 0.22979012 0.3182645 -0.17810655 -0.024029553 0.19945082 -0.10340473
0.023668826 0.26679054 0.10872015 -0.20642081 -0.21951284 0.18935922 -0.2315048 0.14422804
0.0034951568 -0.33430248 -0.2770436 -0.096500635 -0.25620657 -0.19602959 -0.1139655 0.3173047
-0.25477993 0.0027067065 -0.27524984 -0.22339465 -0.2989725 0.06102091 0.18126485 -0.045607656
-0.3124109 0.29757836 0.097023934 -0.33355027 0.3522164 -0.15893817 -0.020811945 -0.1428916
0.15025243 -0.31351122 0.21114781 -0.18873844 0.053571045 0.15563956 -0.026966065 0.28227243
0.29533467 -0.06191331 0.32578298 -0.07823771 -0.33769736 0.14368331 -0.30840015 -0.06466961

l1_3.bias f4 [8]
00000000: 1436 6dbe b0dd cb3c ba73 49be f522 a63e
00000010: 871c 973e ee8d 74be 6915 0bbe 9f6b b3be
-0.2316516 0.024885982 -0.19673052 0.32448545 0.29513952 -0.23882267 -0.13582386 -0.35043046

l1_4.weight f4 [1, 8]
00000000: d90e 47bc c991 6fbc acc7 8c3e 908d 80bd
00000010: 18bf 55ba 76c3 893e e414 2dbf c34b e5be
-0.012149536 -0.01462216 0.27496088 -0.06277001 -0.00081537804 0.26906937 -0.6761 -0.44784364

l2_1.weight f4 [8, 6]
00000000: 23b1 5a3c 3b18 04bf d4c4 1abe b1a8 e13f
00000010: 0ec2 8c3d 5b36 123f 0c7f 2ebe 1b4e a13d
00000020: f3b3 ce3e c52a fabf 8ce6 2d3f edbb 40bf
00000030: f33f c2bb c1fa c53d f0b9 de3e f79c 79be
00000040: b11d 223f afde 8bbd 054d 65be d57d 0cbf
00000050: f232 883c 236a f23f 53be aabe c216 d33e
00000060: 1922 563d 283b edbb a382 af3e d9b0 6ebd
00000070: 8749 8bbe b60b 70bd e2a1 b13d cb00 70bd
00000080: d89b 4b3d 46b9 ebbf 84e1 3a3f a1d8 2cbe
00000090: bf34 a23d bf22 24bf 6ac0 40be 8b4c ee3f
000000a0: 6ab0 b8be 998d 4a3e ea09 033d 2755 d53d
000000b0: b099 af3d c133 4cbf 119a ef3c 2b10 96bd
0.013347897 -0.5159947 -0.15114146 1.7629606 0.068729505 0.5711419 -0.17040652 0.078762256
0.40371665 -1.9544302 0.6792991 -0.7528675 -0.0059280335 0.09666968 0.43501234 -0.24376284
0.63326555 -0.06829583 -0.22392662 -0.54879504 0.016625855 1.893864 -0.3334833 0.412283
0.05227861 -0.007239718 0.34279355 -0.058274124 -0.27204534 -0.05860492 0.08673455 -0.058594506
0.04970917 -1.8415916 0.7300036 -0.16879512 0.07920217 -0.6411552 -0.188234 1.8617109
-0.36072093 0.19780578 0.031991877 0.10416632 0.085742354 -0.7976647 0.02924827 -0.073273025

l2_1.bias f4 [8]
00000000: 84ea c83e df8f 2ebf 88d7 b4bd e947 9c3e
00000010: 4b0f 02bf 9140 bbbe 5793 773e 32b8 cfbe
0.3924142 -0.6818828 -0.08830172 0.30523613 -0.50804585 -0.36572698 0.241773 -0.40570217

l2_2.weight f4 [8, 8]
00000000: 24db b7be d472 a73e 8c70 85be e6e4 e4be
00000010: fb1e 85bd 1395 98bd edcf 1cbf 4774 a23d
00000020: 2ad7 bb3e a281 aabe 7e8d ecbd 647b 813d
00000030: ad71 1a3e cac3 8b3e 5e7a d03d 6ebf 0a3e
00000040: 9e47 373e 2c0e d7be dcb4 c43d 0c1d b03e
00000050: 711e e2bd eff9 e2bd c725 e63d 6a63 3ebd
00000060: c131 193d 113a 79bd ef58 29be 7a06 0abe
00000070: 420e 9b3c 8eaa a03e 850e 6bbe 47c9 3c3b
00000080: 38d3 083e 34d2 1c3f 1ef3 613e 4de6 93be
00000090: 0f76 28bd fd2b f83e c454 80be 8af2 7dbc
000000a0: 612c 99be 5cd4 ed3d dec6 3d3e 06ed cfbe
000000b0: 2fbd 943d 4bee ae3d ec6d 25bf e3a9 66bd
000000c0: 8b5b d5be 0391 043f 4ef8 73be 7de0 54be
000000d0: ba81 adbe b87b 2c3e 2b81 1abd b11b c7bd
000000e0: 0335 34be c412 b03e ff8e d3bc 720b ff3d
000000f0: 4773 69bc a93d 8b3c 0b1c d2be eb5c 8abd
-0.3590938 0.32704794 -0.2606243 -0.44705886 -0.0650005 -0.07450309 -0.6125477 0.079323344
0.36687595 -0.33302027 -0.11550425 0.06322363 0.15082426 0.27297813 0.1017959 0.13549587
0.17898414 -0.42003 0.09604809 0.3439716 -0.110409625 -0.11082827 0.11237674 -0.046481527
0.037400965 -0.060846392 -0.16537832 -0.13479033 0.018927697 0.31380123 -0.22954758 0.0028806494
0.13361824 0.61258245 0.22065398 -0.28886643 -0.041128214 0.4847106 -0.2506467 -0.01549972
-0.2991667 0.1161277 0.18532893 -0.40610522 0.072626464 0.085415445 -0.6462085 -0.05631436
-0.41671404 0.5178377 -0.2382519 -0.2078876 -0.33888036 0.1684407 -0.03772084 -0.097220786
-0.17598347 0.34389317 -0.025825022 0.12453355 -0.014248676 0.016997175 -0.4103702 -0.06756004

l2_2.bias f4 [8]
00000000: f90d 0bbf 837f 953d c899 283f b297 d0bd
00000010: e3c2 28bf 68c7 2dbf 2a36 02bf c876 9cbe
-0.54318196 0.072997116 0.6585965 -0.101851836 -0.65922374 -0.67882395 -0.508639 -0.30559373

l2_3.weight f4 [8, 8]
00000000: 1e10 2b3e dafb 163e e250 143e 31b0 95be
00000010: 0403 143e 225c e1bd a86f c23d 9750 93be
00000020: 1429 82bd 5cdc 1abe 0edf 503e ff21 a03e
00000030: 00ae 0e3d e08f 313c c07f c2bb d08d 993d
00000040: 545e 9b3d d417 d43d 9096 473d c729 1bbe
00000050: 4bc2 a63e 8825 c53d 4680 0dbe 1616 5f3e
00000060: 7283 00be 6896 c03d c754 b0be eede 313e
00000070: d801 c3bd 82f8 71be 9518 943e 9ef3 2f3e
00000080: 032a 863e b0ea a93d a84c c5bd 8a4f 343e
00000090: f289 62be f81a 0e3d c07e 3fbe 7c0d 083e
000000a0: fa04 2c3e 0c73 74be ab7d 83be b4f3 3abe
000000b0: 051e 22be b4f3 8c3d 57fc 39be 489e 0f3e
000000c0: e049 193d a0c8 033d 5ca6 bcbd 71ab af3e
000000d0: 287a 6f3d 13fe aa3e ecc2 cd3d 5cea 92be
000000e0: 3585 933e c6ea 3bbe fb8e 7cbe 10b6 8cbc
000000f0: 35c7 52be a78c 73be faae ffbd b653 a7be
0.16705367 0.14744511 0.1448398 -0.29235986 0.14454275 -0.11003901 0.09493953 -0.28772423
-0.06355491 -0.15123123 0.20397589 0.31275937 0.034833908 0.010837525 -0.005935639 0.07497752
0.07586351 0.10356107 0.048727572 -0.15152656 0.3257011 0.09626299 -0.13818464 0.21785769
-0.12550142 0.09403688 -0.3443968 0.17370197 -0.09521836 -0.23629954 0.28925005 0.17182776
0.26203927 0.08296716 -0.09633762 0.17608467 -0.22122934 0.03469369 -0.18700695 0.13286394
0.16798773 -0.23872012 -0.25681815 -0.18257028 -0.15831764 0.0688242 -0.18162666 0.14025223
0.03742397 0.032173753 -0.09211418 0.34310487 0.058466107 0.33396968 0.10046944 -0.28694427
0.28812566 -0.18351278 -0.24663918 -0.017176658 -0.20583804 -0.23784123 -0.12484546 -0.32681054

l2_3.bias f4 [8]
00000000: ede6 843e e6af 363e cec7 6e3e 528a 04be
00000010: b8c3 8dbe 9a01 003e 28f6 12be 0061 f5bd
0.25957432 0.17840537 0.23318407 -0.1294339 -0.27688384 0.12500611 -0.14351714 -0.11981392

l2_4.weight f4 [1, 8]
00000000: 88d8 d1be e32f 2b3e 7674 a93e 5e35 113d
00000010: 9cb2 a4be d029 febe 6a9f 6ebe 532c 81be
-0.40985513 0.16717486 0.33096665 0.035451286 -0.32167518 -0.49641275 -0.23302999 -0.2522913

l3_1.weight f4 [8, 6]
00000000: 70b3 aebd e0f7 e23c f0b9 51bc 3269 873e
00000010: dced a8be a68e 78bf 7a7a 94bc 17d8 a4be
00000020: 47c1 2b3d 89c0 983e b7c9 9c3e 6bf3 d0bd
00000030: 1f29 543c 24db f63e 06c4 583d 034c 7cbe
00000040: 099a 16be 0f96 1d3e 879d df3c c37e 513e
00000050: 1c90 093e de8b ed3d 219f 5ebd d1bd a6bf
00000060: 677f 493b 743d dbbd 66e9 8abc 553b 953d
00000070: b86a 6c3e 4751 273d a421 d43c 8729 f9bd
00000080: 0866 1f3e ef3d d13d 92cc 793e 7772 94bf
00000090: b139 4b3c 4e31 a3be b310 98be 44e5 cc3d
000000a0: 2f86 d1bd 68bc 393e 6598 c7bd a3a3 0dbe
000000b0: f2ac fe3e b068 9b3d 91de cb3d ea20 2a3f
-0.08530319 0.027706087 -0.012800679 0.26447445 -0.32993972 -0.97092664 -0.018124808 -0.32196113
0.04193237 0.29834393 0.30622646 -0.10202678 0.012949257 0.48214066 0.052921318 -0.24638371
-0.14707197 0.15389274 0.027296795 0.20458512 0.1343388 0.11598943 -0.054350976 -1.3026677
0.0030746104 -0.10705081 -0.016956996 0.07286707 0.23087585 0.040848996 0.025894947 -0.12166124
0.15566266 0.10216891 0.24394444 -1.1597432 0.012403891 -0.31873554 -0.2970024 0.100046664
-0.102306716 0.18138278 -0.09745864 -0.13831954 0.49741322 0.07588327 0.099545605 0.6645647

l3_1.bias f4 [8]
00000000: ba82 813e 525f a83d f6b1 423d d29a 97be
00000010: b39a 183e a0e6 33be bb52 263e bef1 48be
0.2529505 0.08221306 0.047532998 -0.29610306 0.14902763 -0.17568445 0.16242497 -0.19623467

l3_2.weight f4 [8, 8]
00000000: c64e cc3c 3939 85bc 4449 c4bc a818 b2bc
00000010: 482d 273d 6d13 8ebc 469c a7be bd08 adbd
00000020: 538e 08be 21b4 503d a0ef b1be d8fd 19bd
00000030: 2cb9 9abd 6efb 23be f61f 0ebe 4d6b 0d3e
00000040: 21a3 d03d 2a77 913c fab8 993d 5bee dd3d
00000050: 2dd8 3bbe ab75 2dbd a537 ca3d 125d 08be
00000060: 4fdd 963e bce7 4a3e fb36 20bd 31ef 053f
00000070: 0dd4 2c3e 5452 1b3f a579 32be 80a4 d2bd
00000080: 0c5f e5be eba9 af3e 62c3 5dbe 3f61 80be
00000090: 19d6 923d ce5f 1ebe 5ff4 97be 462e 803e
000000a0: 091f 343e fd2a 0b3f b6d2 903e 36f4 96be
000000b0: a08f d63b 6973 3c3e 261c 303e 5724 99be
000000c0: 7475 803d 37a3 cd3d 2670 8cbd 1a3d 6d3d
000000d0: 3459 bebc 6dea 91be 04bd 92be 0dda eabd
000000e0: d113 b2be 8a19 663c d75d 00bc 8f9e 1dbf
000000f0: 43f3 0f3e 12de c3be 246f 89bc db34 3e3c
0.024939906 -0.016262637 -0.023960717 -0.021740273 0.040814668 -0.017343247 -0.32736415 -0.08448932
-0.13335542 0.050953034 -0.34753132 -0.0375956 -0.0755485 -0.16013882 -0.1387938 0.13810463
0.10187364 0.017757017 0.075059846 0.10836478 -0.18344183 -0.042348545 0.098738946 -0.13316754
0.2946572 0.19814962 -0.039114933 0.523181 0.16877766 0.606725 -0.17429216 -0.10285282
-0.44799078 0.34309325 -0.21656564 -0.25074193 0.07169742 -0.15466234 -0.29678628 0.25035304
0.17589964 0.5436247 0.2828576 -0.29483193 0.006547883 0.184034 0.17198238 -0.29910538
0.062724024 0.100408964 -0.06857328 0.0579196 -0.023235895 -0.28499165 -0.28659832 -0.11467371
-0.34780744 0.014044175 -0.007834873 -0.61570066 0.1405764 -0.38255364 -0.016776629 0.011609281

l3_2.bias f4 [8]
00000000: 8766 c93a aac5 1f3d af72 4bbc 53ae 71be
00000010: 125d 453e ee60 c2bd 495a 2e3c 3737 f03d
0.0015365639 0.039006867 -0.012417479 -0.23601656 0.19273785 -0.09491144 0.010641643 0.117292814

l3_3.weight f4 [8, 8]
00000000: 7d9e 8c3e 287e c1bd ba44 1b3e 1643 493e
00000010: 1af4 203e 73f4 09be 4888 a63d 1a36 653e
00000020: 0475 9dbd 2053 fabc 5d00 813e a226 443e
00000030: 3f5d 86be 6e57 92be ac42 153e 9e99 533e
00000040: b07f c93d e063 84bc 0b06 863e c213 a7be
00000050: 00f1 c43d 2311 873e 9ac4 02be 2e49 083e
00000060: c1e4 23be 73e1 89be 0d68 9a3e 7eb4 383e
00000070: 4a61 633e 4c21 98be a057 ce3c bea5 6dbe
00000080: e1f1 4dbe 3015 1abd 558c 983e df4b 893e
00000090: a492 0ebe a8ad d73d 4ef1 1e3e e8e7 75bd
000000a0: 42b4 4ebe b49f de3d dc2b da3d 2890 a53d
000000b0: 66af 043e 1460 33be 9601 2b3e 3842 9a3d
000000c0: 6923 953e f188 9a3e 36aa 2fbe f054 a9be
000000d0: fafa 0f3e 18b4 f83d 4437 d7bd b7e0 933e
000000e0: ea05 623e eced d6bd 5487 a1be 8219 40be
000000f0: 7ee4 fbbd e0a3 543d 55b9 833e a2b1 713e
0.27464667 -0.094478905 0.15162936 0.19654498 0.15718117 -0.13472156 0.08131462 0.2238392
-0.076883346 -0.030557215 0.2519559 0.19155362 -0.26243016 -0.2858233 0.14576215 0.20664069
0.098388076 -0.016160905 0.26176485 -0.32632262 0.096162796 0.26380262 -0.1277031 0.13309166
-0.16005231 -0.26929817 0.3015751 0.18037602 0.22205082 -0.29712903 0.025188267 -0.23207757
-0.201118 -0.037617862 0.29794565 0.26815698 -0.13923126 0.10531169 0.15521738 -0.060035616
-0.2018595 0.10870305 0.10652897 0.08084136 0.12957534 -0.1751712 0.16699824 0.075321615
0.29128578 0.30182603 -0.17154774 -0.33072615 0.14060584 0.12143725 -0.10508588 0.2888238
0.22072569 -0.10494599 -0.3154856 -0.1875973 -0.12299441 0.051914096 0.25727335 0.23602918

l3_3.bias f4 [8]
00000000: 6c93 a5bd d062 633d c03c d1bb d8a9 c5bd
00000010: 1b49 84be e364 b03e 87e5 0abe 6eac 8ebe
-0.08084759 0.055514157 -0.006385416 -0.09651536 -0.25837025 0.3445197 -0.1356412 -0.27865928

l3_4.weight f4 [1, 8]
00000000: afd2 9b3c 9d36 91bd 2880 853c 6554 8fbe
00000010: 123b 583e f480 0b3c 58b2 203b 0843 243e
0.01902136 -0.07090495 0.016296461 -0.27994075 0.21116284 0.008514632 0.0024520364 0.16041195

exp_avg f4 [8, 6]
00000000: 0f55 22bb 3d8c cabc 8074 fb3c 792a 84bc
00000010: 597c 15bd 755f 4ebc 6f02 9fb6 c454 183a
00000020: 9d8e 40ba 7b75 cb39 90d0 5d3a da0f 9939
00000030: 88b0 e6b8 cf1f 2eba b369 563a 664d e4b9
00000040: fc55 81ba 7507 acb9 9f23 0ab8 313f 62ba
00000050: 1776 8d3a a45a 14ba b725 a6ba 7390 e5b9
00000060: c8da 883a 55ba 2e3c eff9 58bc b410 e43b
00000070: baed 803c 0706 b23b 5044 e837 79f8 8d3a
00000080: 84f3 b1ba 1888 3a3a 9f2e d03a a877 103a
00000090: 0180 91bb 4ce8 33bd a14e 5f3d 5bbe eabc
000000a0: 25cc 84bd 9a4a b7bc 68fc 66ba 07aa 12bc
000000b0: 161f 363c 1f58 bfbb 6b6e 58bc 7aaa 95bb
-0.0024769937 -0.024725074 0.0306952 -0.016133534 -0.03649554 -0.012596001 -4.7388526e-06 0.0005810971
-0.000734547 0.00038806707 0.0008461559 0.00029194244 -0.00011000136 -0.0006642313 0.00081792026 -0.00043545215
-0.0009867544 -0.00032811952 -3.293494e-05 -0.0008630632 0.001079264 -0.00056592585 -0.0012676035 -0.00043785907
0.0010441178 0.010664542 -0.013243183 0.006959999 0.015738357 0.0054328474 2.7688366e-05 0.0010831497
-0.0013576602 0.00071156165 0.0015883035 0.0005510994 -0.004440308 -0.043922707 0.054518346 -0.028655222
-0.0648425 -0.02237444 -0.0008811415 -0.0089516705 0.01111581 -0.0058393623 -0.013209919 -0.0045674415

exp_avg_sq f4 [8, 6]
00000000: 1221 ee3f a411 2a3d 95b7 eb3d e400 0a3d
00000010: 8104 673d 4301 603d 8cda 663a 3a73 2538
00000020: db06 e438 9574 0638 00fe 6138 b986 0b38
00000030: e438 b63a aed1 1138 66aa c438 6347 ef37
00000040: 7258 4438 8f19 8638 a9a2 bf3a 39f8 3138
00000050: c9d3 f438 ba29 0f38 8de2 7038 9507 9138
00000060: 4441 a03e 13dd f43b 3f63 a93c cf8c c63b
00000070: aa34 263c 8dda 253c afa4 8f3b 8aa3 e038
00000080: c68f 9939 d3d0 b638 b647 1639 5f19 3839
00000090: 89e0 ba40 4271 073e 6ac2 bb3e c3a3 db3d
000000a0: 193f 383e 2a10 2f3e a163 833e 58c6 be3b
000000b0: 7f02 843c 3e0a 9b3b ab3c 013c 0e61 053c
1.8603842 0.04152073 0.11509625 0.033692256 0.05640078 0.054688703 0.000880637 3.944638e-05
0.00010873164 3.2056665e-05 5.3880736e-05 3.3265653e-05 0.0013902453 3.4765973e-05 9.3777475e-05 2.8524262e-05
4.6812413e-05 6.3943786e-05 0.001462062 4.2431264e-05 0.00011674275 3.4132718e-05 5.743145e-05 6.915551e-05
0.31299794 0.007472643 0.020677207 0.006059266 0.010144392 0.010122907 0.0043836455 0.00010711614
0.00029289554 8.717333e-05 0.00014331829 0.00017557059 5.839909 0.13226798 0.36671764 0.107245944
0.1799282 0.1709601 0.25661948 0.0058219843 0.016114471 0.0047314456 0.0078879995 0.008140815

exp_avg f4 [8]
00000000: 2715 3a3d b8f2 8bba 39f8 9f3a eeda cf3a
00000010: 3686 a0bc 066e 02bb 5e48 a53d e8bd 863c
0.04543033 -0.0010677194 0.0012204713 0.0015858093 -0.019595247 -0.0019902005 0.080704436 0.016447976

exp_avg_sq f4 [8]
00000000: fd8a 0f3e 06a5 0b39 a226 f638 1a36 1639
00000010: ecab ce3c f799 bd39 48a2 e43e f904 a13c
0.14017864 0.00013317549 0.0001173739 0.00014325269 0.025228463 0.00036163602 0.4465506 0.019655691

exp_avg f4 [8, 8]
00000000: 9516 2739 d529 5838 3ba2 4fb8 5b65 1939
00000010: 9492 37b9 43c8 ebb8 3e45 fa39 db91 1e39
00000020: 1928 4939 fdeb 8638 3dfb 72b8 b4f9 3639
00000030: 926d 5cb9 eb19 0cb9 ff8c 183a 73d4 3b39
00000040: ed53 7abb 8a14 a4ba 8549 913a d3e9 5abb
00000050: 0ad3 853b 870b 283b b27f 3cbc 2889 62bb
00000060: bfc8 613a 3dff 9339 b72f 83b9 481e 463a
00000070: b7e7 71ba 76f6 17ba aef7 293b 54de 4c3a
00000080: c77e f335 ffdc 22b5 c084 8cb6 8900 1337
00000090: c848 dfb6 2e32 ebb6 7bfd a435 f1db 1a37
000000a0: 9b82 74bb 243b a0ba 6f4e 8e3a 3448 56bb
000000b0: 28df 823b a07e 243b fe18 38bc 09b5 5dbb
000000c0: 4d25 1a3c 18e6 493b e20c 33bb cdc8 063c
000000d0: ffc8 24bc b6f8 cebb cb15 e83c 2f83 0b3c
000000e0: 6a00 cc3b 9f9f 053b 55fd ecba 6c70 b23b
000000f0: 3421 dabb 3cfe 88bb 7f94 993c 1fae b83b
0.00015934774 5.1537372e-05 -4.9503735e-05 0.00014628975 -0.00017506845 -0.00011242975 0.00047735305 0.0001512239
0.00019183791 6.433574e-05 -5.793128e-05 0.00017449894 -0.00021021653 -0.00013361096 0.000581935 0.00017912853
-0.0038196996 -0.0012518328 0.0011084533 -0.003340353 0.0040839957 0.0025641636 -0.011505054 -0.0034566615
0.00086129823 0.00028228192 -0.00025021817 0.0007557613 -0.00092279486 -0.00057969184 0.0025934982 0.0007815112
1.8141808e-06 -6.0671294e-07 -4.1877793e-06 8.762007e-06 -6.6543907e-06 -7.0093874e-06 1.2292725e-06 9.230324e-06
-0.0037309292 -0.0012224657 0.0010857115 -0.0032696845 0.0039938875 0.0025099888 -0.011236427 -0.003382983
0.009408307 0.0030807313 -0.0027320911 0.008226586 -0.010057687 -0.0063162697 0.028330704 0.008515163
0.0062256353 0.002038933 -0.001808087 0.0054455306 -0.00665679 -0.0041806977 0.018747566 0.005635991

exp_avg_sq f4 [8, 8]
00000000: 0b67 0b37 d839 b035 1c62 8a35 dd39 9835
00000010: 3040 ae35 cd7f 4635 afbd 8537 a9e5 c335
00000020: c59f 4436 a210 0235 6f40 2e35 30a4 cd34
00000030: 81fb f934 23ce 9034 08c0 a636 9d28 4235
00000040: 914e fd3a 1744 aa39 44c7 4139 4d10 8e39
00000050: 5daf ac39 4bfd 2439 dbaa 813b 802b e439
00000060: ae24 ec38 d491 9b37 49d7 2c37 348d 7e37
00000070: b495 9537 06e7 1337 f52d 6339 f274 c137
00000080: 140f 8e36 3fe1 4c35 5860 1735 59a2 4e35
00000090: af65 8535 aaa9 0d35 ac23 5037 add7 8d35
000000a0: 8362 ef3a 7e16 a139 7ad4 3a39 57ab 8739
000000b0: 0e29 a639 1c63 1e39 8b8c 793b 595b da39
000000c0: b54e 3f3c 8ae0 003b 10b6 933a f470 d93a
000000d0: 8e67 053b d301 7e3a a36f c83c b209 2f3b
000000e0: ce81 a43b cf86 5d3a 0853 ff39 8f05 3b3a
000000f0: 6369 653a 9db2 da39 6769 2c3c 6c4c 963a
8.309037e-06 1.3129857e-06 1.0310355e-06 1.1341723e-06 1.2982691e-06 7.394672e-07 1.5943164e-05 1.4595472e-06
2.9299274e-06 4.845298e-07 6.4913814e-07 3.8303688e-07 4.6562857e-07 2.6972074e-07 4.969541e-06 7.232973e-07
0.0019325783 0.00032475658 0.00018480147 0.00027096496 0.00032937052 0.00015734618 0.003957135 0.0004351996
0.00011260189 1.8545346e-05 1.0302124e-05 1.5172456e-05 1.7831895e-05 8.815672e-06 0.00021665527 2.306185e-05
4.233685e-06 7.63237e-07 5.639208e-07 7.6977227e-07 9.938866e-07 5.2773487e-07 1.2406072e-05 1.0568089e-06
0.0018263612 0.0003072507 0.00017817496 0.00025876865 0.00031692575 0.00015104975 0.0038078155 0.0004164826
0.01167648 0.0019665086 0.0011269469 0.0016589449 0.0020355913 0.0009689603 0.024467295 0.002670866
0.0050203567 0.0008450569 0.00048699253 0.0007134312 0.00087513606 0.00041713277 0.010523177 0.0011466867

exp_avg f4 [8]
00000000: e66b 0aba 71f2 2aba 90ff 563c f584 41bb
00000010: 6c96 8b37 68b8 513c 4657 04bd ec1f afbc
-0.00052803603 -0.0006521112 0.013122454 -0.0029528711 1.6640137e-05 0.0128003135 -0.032309793 -0.021377526

exp_avg_sq f4 [8]
00000000: e7cb 3f38 b6ee 6d37 1c29 403c 08b9 273a
00000010: 49b1 1638 deab 383c 7f5d 943d 062c ff3c
4.5727847e-05 1.418188e-05 0.011728551 0.0006398116 3.5927897e-05 0.011271445 0.072443955 0.031148922

exp_avg f4 [1, 8]
00000000: a0ee f53a 7073 d43a 3ed2 d4bc 59bd 103c
00000010: 48a5 e33a d714 02bd 7b54 613d 8a71 c63c
0.0018763132 0.001620872 -0.025979158 0.0088342065 0.0017367983 -0.031758156 0.055012207 0.024224062

exp_avg_sq f4 [1, 8]
00000000: 9ae8 4a3a 5ccc 6e39 af9d 5e3c 3ab6 be3a
00000010: 75e0 593a d9d3 ba3c b946 833d 5828 253c
0.0007740349 0.00022773579 0.013587399 0.0014550157 0.000831134 0.022806095 0.06409974 0.0100804195

exp_avg f4 [8, 6]
00000000: fce7 6abd 2fb5 823c da74 d4bc 381b d83b
00000010: 97f1 a73c 3c2c 84b9 b02f b43d db10 c8bc
00000020: 9394 223d 0ca0 24bc 419a 00bd 6357 d239
00000030: 8558 b6ba 7947 e639 e36b 36ba 85d9 4539
00000040: bdf7 143a 9a52 e136 22e7 8bbd 8ca0 9b3c
00000050: 31ff fcbc 9ab5 003c e4f2 c73c 62be a0b9
00000060: 8f2d 07bc 6349 163b 2d73 73bb b6c3 713a
00000070: 95ba 413b 0cc7 0eb8 9e18 b03c 8373 c6bb
00000080: 967f 213c 812d 29bb edf6 fdbb 3c9b a838
00000090: b695 b8bd 8a7b cd3c 1703 27bd 5a0e 2a3c
000000a0: 54fd 033d 43af d0b9 8a53 aabb daa6 bc3a
000000b0: bda7 18bb ffc4 153a 98cc f33a a33f b5b7
-0.057350144 0.015955536 -0.025934625 0.0065950416 0.020500941 -0.0002520996 0.08798158 -0.0244221
0.039692473 -0.010047924 -0.031397108 0.0004011943 -0.0013911879 0.0004392227 -0.00069588254 0.00018868416
0.0005682668 6.7151386e-06 -0.068311945 0.018997453 -0.030883403 0.007855797 0.024407811 -0.00030659424
-0.008250608 0.0022931925 -0.0037147508 0.00092225836 0.0029560674 -3.4040815e-05 0.021496113 -0.0060562505
0.009857079 -0.0025814476 -0.007750383 8.039779e-05 -0.0901293 0.025083322 -0.04077443 0.010379398
0.032224014 -0.00039803432 -0.005197947 0.0014392987 -0.002329334 0.00057132536 0.0018600402 -2.1606515e-05

exp_avg_sq f4 [8, 6]
00000000: 065a 873f 70ac 863d db4c 673e c097 853d
00000010: e833 a23d 0f83 9740 9998 1540 ab46 163e
00000020: 5553 003f 5559 143e e360 353e 74d0 2441
00000030: 94b5 403c 77d3 353a 0b4d 343b bb4d 4c3a
00000040: f57c 503a d9e3 ae3d 0266 bb3f 88ee bd3d
00000050: 0c94 a23e 35db bb3d 3710 e53d 4690 d240
00000060: b18e 123b 782e 2a39 bbb5 e339 82d6 0e39
00000070: 55b5 5b39 7076 9c3a 56b7 6c3e 743e 7a3c
00000080: 2162 503d c490 703c 3c5d 983c 7b27 6f3f
00000090: 1738 1e40 d325 223e 7c62 083f 15c9 1d3e
000000a0: 53c8 443e 3ef5 2441 c963 b83b 2719 da39
000000b0: bb04 9a3a 5f20 b639 d657 0c3a dffc b93b
1.0574348 0.065758586 0.22587912 0.06523085 0.079200566 4.7347484 2.3374388 0.14675395
0.50127155 0.14487202 0.1771274 10.300892 0.011762042 0.0006936113 0.0027511742 0.0007793565
0.00079531904 0.08539552 1.4640505 0.09274012 0.31753576 0.0917267 0.11184733 6.5801115
0.0022362883 0.00016229774 0.00043432214 0.00013622086 0.00020953019 0.0011937153 0.23116812 0.015273679
0.050874833 0.014682952 0.018599145 0.9341962 2.4721735 0.15834741 0.53275275 0.15408738
0.19217043 10.309874 0.0056271297 0.0004159894 0.0011750677 0.00034737863 0.0005353665 0.0056758965

exp_avg f4 [8]
00000000: 3a2a f0bc 70cd 373d 528f 53ba ebf9 0ebd
00000010: e811 8abb b251 363c 63c7 3cbd fd50 2dbb
-0.02931701 0.044873655 -0.00080703676 -0.03490631 -0.0042135604 0.011127876 -0.046088587 -0.0026445978

exp_avg_sq f4 [8]
00000000: 3556 633e a3ac fd3e 6177 193b d04e a03e
00000010: 54a3 0f3a 7e36 533d 6edb 083f ae14 b83a
0.22200854 0.49545774 0.0023417103 0.3131013 0.0005479355 0.05156564 0.53459823 0.0014044249

exp_avg f4 [8, 8]
00000000: 46b7 273b 9f5a 8abc 6e12 75bb ea7f 19ba
00000010: 58fa 993a b26f 9cbb 0893 173c 6c50 8ebb
00000020: b2e9 87ba c89d e13b 85f0 c73a 6f35 7f39
00000030: 2737 fbb9 66b9 fe3a 8607 77bb a32d e83a
00000040: b137 08bb f581 5f3c bee1 453b f3f7 f239
00000050: fc95 78ba ea27 7d3b 2d07 f5bb e9db 653b
00000060: c739 8fb9 cb4d c23a 48e5 ab39 99b1 9c34
00000070: d753 cdb8 b6fb ee39 6718 5bba 6951 c839
00000080: 6857 043b 5138 59bc 1a50 40bb f086 ecb9
00000090: 6e9c 713a 8bff 75bb cd1f ee3b 7464 5fbb
000000a0: bc96 4b3b 4a98 a7bc 6468 94bb aa9c 38ba
000000b0: cd7b ba3a f29b bdbb bda6 373c 495f acbb
000000c0: 141f bf3a 2e54 1dbc 9054 0bbb 7d09 adb9
000000d0: 5609 2f3a d708 32bb 566a ac3b 17d5 21bb
000000e0: 3c1f cf3a 3855 2abc d3d8 16bb 706c bab9
000000f0: e772 3d3a cad4 40bb 0bb1 ba3b db36 2fbb
0.0025591417 -0.016888915 -0.0037395018 -0.00058555475 0.0011747582 -0.0047740573 0.009251364 -0.004343083
-0.0010369329 0.006885264 0.0015254176 0.000243386 -0.00047915542 0.0019433915 -0.0037693693 0.0017713796
-0.0020785148 0.013641824 0.0030194367 0.00046342573 -0.00094827986 0.0038628527 -0.007477662 0.0035073704
-0.00027318133 0.001482421 0.0003278649 2.9186484e-07 -9.790778e-05 0.00045582437 -0.0008357823 0.00038207628
0.00201937 -0.013258056 -0.002934462 -0.00045113964 0.000921673 -0.0037536349 0.0072669745 -0.0034086974
0.0031065186 -0.02045836 -0.004529046 -0.0007042388 0.0014227569 -0.0057864124 0.011209187 -0.0052603823
0.0014581406 -0.0096025895 -0.002126012 -0.000330042 0.00066771114 -0.0027165913 0.0052616997 -0.0024693662
0.0015802155 -0.010396294 -0.002301742 -0.00035557477 0.00072268996 -0.0029423707 0.0056973747 -0.0026735577

exp_avg_sq f4 [8, 8]
00000000: 1095 263f 12ed aa3f 6184 f739 8481 913e
00000010: 139f e13a 6141 263d b9b2 a23d 5fdf 1d3b
00000020: 8520 033e c3af 863e 1d4b b538 6482 643d
00000030: eef5 a939 fc88 013c 404f 7f3c c346 f539
00000040: 6aca df3e 2dae 653f eafd a239 4245 433e
00000050: 69f2 953a 23ad de3c 9d5e 5a3d cf53 d33a
00000060: 9abe 653a 5e61 e83a fd0f be35 fde5 d539
00000070: a757 6c36 0c7d 8b38 cc19 f238 a2ab 7936
00000080: 7a51 d33e 1bd8 583f e11b 9c39 4c86 383e
00000090: 658e 8e3a 7cad d23c 0952 4e3d 9422 c83a
000000a0: af2d 6f3f 0e5f f53f 2711 343a b303 d13e
000000b0: e75a 233b 4f22 6f3d c7b9 e93d 8241 633b
000000c0: 90d2 6b3e 951f f23e 5fb6 2639 418f cd3d
000000d0: 2414 1b3a 5eb7 693c 61d5 e53c fb7d 5d3a
000000e0: 9248 863e fdd1 093f 360a 4539 5d89 ea3d
000000f0: b441 343a 1fbd 853c b80f 033d 920d 7e3a
0.650712 1.3353598 0.0004721014 0.28419125 0.0017213546 0.040589694 0.07944245 0.0024089438
0.12805374 0.2630597 8.6447435e-05 0.055788413 0.00032417424 0.007906195 0.0155828595 0.00046782763
0.43709117 0.89718896 0.0003108823 0.19069389 0.0011440042 0.027182167 0.053312887 0.0016122999
0.00087640586 0.0017729213 1.4160756e-06 0.0004079788 3.521776e-06 6.651328e-05 0.00011544264 3.7203795e-06
0.412731 0.8470475 0.0002977541 0.1801998 0.0010876177 0.02571749 0.050371204 0.0015269094
0.9342908 1.9169633 0.0006869011 0.40823135 0.0024926008 0.05838233 0.11412387 0.0034676497
0.23029542 0.4728972 0.00015898932 0.10037089 0.0005915782 0.01426491 0.028055849 0.00084492535
0.26227242 0.5383604 0.00018791188 0.11451981 0.00068762456 0.016325532 0.031997412 0.0009691353

exp_avg f4 [8]
00000000: 5d0f be3c 234a 1bbc 713d 99bc 380b f9ba
00000010: eff1 943c 3b11 e63c 1dfb 573c ccc3 693c
0.023200685 -0.009478125 -0.018706055 -0.0019000536 0.01818177 0.028084388 0.013182429 0.014267873

exp_avg_sq f4 [8]
00000000: 879d ee3d 1198 b23c a31c 9e3d b461 7939
00000010: 74dd 963d 83e2 2c3e 564a 233d 45a6 3e3d
0.1165114 0.021801027 0.07720306 0.00023782888 0.073664576 0.16883282 0.039865814 0.046545286

exp_avg f4 [1, 8]
00000000: 3a92 693d 2147 9abc 6c50 6dbd 0f75 333c
00000010: 77ec 973d 1f07 783d 1887 573d 6181 273d
0.05702422 -0.018832745 -0.057938024 0.010953202 0.07418149 0.060553666 0.05261907 0.04089487

exp_avg_sq f4 [1, 8]
00000000: 7de9 0041 33e5 4a40 2b61 c440 988e 683c
00000010: 49c0 d440 a9c7 a640 79db 0241 cfd1 3440
8.057004 3.1702392 6.1368613 0.014194153 6.6484723 5.2118726 8.178582 2.8253057

exp_avg f4 [8, 6]
00000000: 11d3 d43a b2ca 86ba 14b1 ea3a f02e 91ba
00000010: 41a1 0dba 393e 97ba b4eb 31b9 15d9 d038
00000020: 5515 36b9 7496 e038 6f7a 6b38 6faa d738
00000030: 4092 9838 12f8 2db8 230d 9838 4bd4 3ab8
00000040: 8f32 c5b7 dd31 32b8 f3a8 0f3b 0ddd b5ba
00000050: 2254 1e3b 93e7 c3ba 8310 3fba 86f7 cbba
00000060: 48b7 4d38 6145 00b8 4d0c 6038 e411 0ab8
00000070: 5476 84b7 a87e 10b8 4acc f43a f2f7 9aba
00000080: 54eb 063b cdec a6ba 03b6 22ba 78f5 adba
00000090: 416d ae38 8416 56b8 1433 ba38 933c 66b8
000000a0: 6a74 edb7 f796 61b8 81a3 01ba 7351 a439
000000b0: 9a14 0fba 28f4 b039 1fc8 2b39 efb3 b939
0.0016237219 -0.0010283797 0.0017905557 -0.001107661 -0.0005402752 -0.001153893 -0.00016967842 9.9586476e-05
-0.0001736482 0.000107091764 5.614239e-05 0.000102837446 7.275166e-05 -4.1477448e-05 7.250372e-05 -4.454357e-05
-2.3507773e-05 -4.2484946e-05 0.002192077 -0.0013875082 0.0024159034 -0.0014946334 -0.0007288532 -0.0015561439
4.9046503e-05 -3.0582192e-05 5.3417218e-05 -3.2918426e-05 -1.5790727e-05 -3.4450233e-05 0.0018676606 -0.0011823161
0.0020587044 -0.0012735367 -0.00062069314 -0.0013272008 8.317317e-05 -5.1042545e-05 8.878685e-05 -5.4892687e-05
-2.8306811e-05 -5.3784777e-05 -0.00049453235 0.00031341202 -0.0005458087 0.00033751247 0.00016382382 0.0003542001

exp_avg_sq f4 [8, 6]
00000000: f521 993a 6bfa 6e38 9c8c 3639 a6aa 5538
00000010: df0d 9038 8142 8f39 428e 9735 0d89 8233
00000020: 2f38 4234 550e 6433 36ae 9c33 428b e232
00000030: 4e75 6934 ed31 4c32 8337 1733 b765 3432
00000040: 93d9 7432 3fa9 d131 1482 103b 4b2d e138
00000050: 6985 ac39 a371 c938 d3c1 0739 d7ad 0d3a
00000060: 7ce4 7235 3212 1e33 2a8e e133 c81a 0e33
00000070: cfaa 3d33 ab66 a432 c6e2 be3a 835f 9438
00000080: 977b 6239 51a9 8438 9dda b238 5ea7 b539
00000090: 496b 7a35 08d5 3d33 0cc5 1034 71c9 2633
000000a0: 43b6 6533 9a51 8234 6c38 d738 d7b2 a636
000000b0: 044e 7b37 ca72 9436 61de c836 0688 9537
0.0011683094 5.697684e-05 0.00017409254 5.0942086e-05 6.869039e-05 0.00027324635 1.1291779e-06 6.078526e-08
1.8088097e-07 5.309842e-08 7.296005e-08 2.637319e-08 2.1742491e-07 1.1885715e-08 3.5207915e-08 1.0500506e-08
1.425214e-08 6.1019416e-09 0.002205019 0.000107372725 0.00032905795 9.6055934e-05 0.00012946808 0.00054046273
9.0484514e-07 3.680379e-08 1.05032385e-07 3.308631e-08 4.416034e-08 1.91388e-08 0.0014563433 7.0749804e-05
0.0002159908 6.325788e-05 8.528421e-05 0.00034647709 9.328838e-07 4.4198742e-08 1.348273e-07 3.8833097e-08
5.3483983e-08 2.427376e-07 0.00010262508 4.968005e-06 1.497893e-05 4.424107e-06 5.986353e-06 1.7825525e-05

exp_avg f4 [8]
00000000: 4bab f73a e6de 3fb9 bcd3 9f38 6c14 273b
00000010: 0cb0 6b38 035f 0e3b 4baf c438 f5f5 16ba
0.0018895654 -0.00018298216 7.6211494e-05 0.002549435 5.6192323e-05 0.0021724112 9.378659e-05 -0.00057586964

exp_avg_sq f4 [8]
00000000: 34b4 4939 da59 5c34 9e58 2c33 3d0e be39
00000010: 986a 0534 5a76 7a39 3339 2034 c1b2 8c37
0.00019235985 2.0521784e-07 4.0127468e-08 0.00036250232 1.2425369e-07 0.00023885947 1.492197e-07 1.677254e-05

exp_avg f4 [8, 8]
00000000: 4598 ebb8 ce97 17b7 d414 ca36 fd01 a6b8
00000010: d093 41b7 04d0 dab8 89c2 2337 f750 1438
00000020: f93f dc39 23b6 0e38 1b2c bfb7 161a 9c39
00000030: 1fd3 3438 512b cd39 8c83 1ab8 957c 0bb9
00000040: e5b7 c8b8 62d1 00b7 db4c aa36 b8bc 8cb8
00000050: 88be 25b7 a923 bab8 75f0 0a37 6851 fb37
00000060: b45f da3a b03c 0e39 26a5 bfb8 0fa0 9b3a
00000070: 45e5 3239 3bed cb3a 5e4f 1ab9 df1b 0bba
00000080: f1c1 a4ba 66a2 d6b8 5ca3 9038 03dd 6aba
00000090: 50f1 06b9 9cdc 99ba 75dd e838 26f1 d139
000000a0: 773d 4fb8 9b88 80b6 8250 2536 d0da 0db8
000000b0: 8bf3 abb6 4220 3eb8 9d56 8a36 4fd6 7d37
000000c0: 5c2c 7fb7 78ce aab5 5933 6c35 09c7 3cb7
000000d0: 4c77 cfb5 2a06 73b7 2a3c bd35 27c3 a936
000000e0: 637b 7aba 5a4a a3b8 bb3d 5c38 e0ab 32ba
000000f0: 741b cdb8 d800 6aba 3635 b138 65b7 9f39
-0.000112340356 -9.035646e-06 6.022494e-06 -7.915867e-05 -1.1538112e-05 -0.00010433796 9.760851e-06 3.5361354e-05
0.00042009333 3.4025066e-05 -2.2789513e-05 0.00029774074 4.3111966e-05 0.0003913292 -3.6838974e-05 -0.00013302483
-9.570996e-05 -7.678145e-06 5.075342e-06 -6.710872e-05 -9.879128e-06 -8.8758134e-05 8.281427e-06 2.995944e-05
0.0016660602 0.00013564783 -9.138351e-05 0.0011873263 0.00017060812 0.0015558371 -0.00014716151 -0.00053065823
-0.0012570006 -0.00010234564 6.896883e-05 -0.0008959325 -0.00012869132 -0.001173872 0.00011103872 0.00040043256
-4.940989e-05 -3.8306002e-06 2.4633778e-06 -3.3820805e-05 -5.1245493e-06 -4.5329572e-05 4.1228036e-06 1.5129873e-05
-1.5209513e-05 -1.2726077e-06 8.799157e-07 -1.1252015e-05 -1.5457422e-06 -1.4485364e-05 1.4099107e-06 5.059311e-06
-0.0009555129 -7.786295e-05 5.250958e-05 -0.00068157725 -9.780275e-05 -0.00089265173 8.449929e-05 0.00030463483

exp_avg_sq f4 [8, 8]
00000000: 3b36 8435 1d04 eb31 8094 ee31 40e7 d035
00000010: 7c50 2232 301d a435 66ab 5f32 cfa2 f134
00000020: cf42 4a38 de64 1534 c2c7 af34 1a00 b138
00000030: 6053 ab34 5295 8938 c129 4835 c3fc c437
00000040: cca4 0237 8801 ea32 0f4b 5433 d655 6837
00000050: 5c43 ae33 7f4f 3437 fd01 f233 1c59 8136
00000060: 8cbc 043a 3441 cb35 b92d 6036 d0f0 663a
00000070: a0c5 8436 017d 333a cf04 0237 bf1d 8139
00000080: e09e 9439 b425 6635 31c8 fa35 dafe 003a
00000090: f92e 1536 a98c c839 3378 9136 cd5f 1039
000000a0: b63d 9736 ced8 8332 a551 f632 2b24 0837
000000b0: c691 4f33 4c0e d336 ca6b 8b33 3912 1736
000000c0: 389b 4136 981f 6632 d640 aa32 f96a a336
000000d0: 01f8 c632 1d2b 7f36 686f 3133 9e6e b835
000000e0: 8a87 2639 be29 0035 6ca1 8c35 0076 9039
000000f0: 19b1 a535 4796 6039 aa64 2336 b2b7 a138
9.85055e-07 6.839868e-09 6.943594e-09 1.556451e-06 9.447941e-09 1.2227447e-06 1.301928e-08 4.5008207e-07
4.8222773e-05 1.3913402e-07 3.2741633e-07 8.4400366e-05 3.1911895e-07 6.560482e-05 7.4566566e-07 2.3482722e-05
7.786974e-06 2.7241882e-08 4.9428362e-08 1.3848263e-05 8.114759e-08 1.0747345e-05 1.1269365e-07 3.8548733e-06
0.0005063496 1.5143655e-06 3.3405215e-06 0.00088096876 3.956913e-06 0.0006846935 7.749723e-06 0.0002462696
0.0002834713 8.573654e-07 1.8684715e-06 0.00049207883 2.2230072e-06 0.00038251773 4.33533e-06 0.00013768599
4.507335e-06 1.5348999e-08 2.8675297e-08 8.114653e-06 4.8328523e-08 6.2899544e-06 6.4922986e-08 2.251136e-06
2.884959e-06 1.3394946e-08 1.9820089e-08 4.870232e-06 2.3163013e-08 3.8023056e-06 4.1312347e-08 1.3741262e-06
0.00015881486 4.774446e-07 1.0477793e-06 0.00027553737 1.2345e-06 0.00021418287 2.4347487e-06 7.711294e-05

exp_avg f4 [8]
00000000: 4127 2cb9 890f 203a 5997 13b9 aeca 1d3b
00000010: a80c eeba c090 9cb8 67ec b2b7 68cf b4ba
-0.00016417821 0.00061058305 -0.00014075394 0.0024077105 -0.0018161731 -7.4656215e-05 -2.1329337e-05 -0.0013794722

exp_avg_sq f4 [8]
00000000: 492e a335 ba17 fd37 628d 8b36 9016 af39
00000010: 596a 4839 64a1 0836 0cae 2736 a28f e138
1.2157917e-06 3.0170999e-05 4.158982e-06 0.0003339541 0.00019113104 2.035952e-06 2.4986248e-06 0.0001075559

exp_avg f4 [1, 8]
00000000: daf9 9bb9 9742 cf3a 6752 4dba 1fb8 bebb
00000010: 17a7 433b 901a 29ba 0e6e ec39 10af bb3b
-0.00029750058 0.0015812692 -0.00078324083 -0.005820289 0.0029854232 -0.00064507965 0.00045095425 0.005727656

exp_avg_sq f4 [1, 8]
00000000: e963 4339 3e71 d13a 45cd 663a dd55 ae3c
00000010: b5da f93b f2da 033a 441e be39 76e6 883c
0.00018633869 0.0015979183 0.0008804391 0.021281177 0.007624949 0.0005029879 0.00036262174 0.016711455
