trained_models/binaries/model_up_test.pth (torch, 26043 bytes, 51 tensors)

l1_1.weight f4 [8, 6]
-0.014418612 0.84344727 0.08558759 -0.030328812 -0.81443644 -0.036547497 -0.030380782 0.35486317
-0.1956267 -0.11807049 -1.1980948 0.027502686 0.05250326 -0.66701245 -0.0068972576 0.39756867
0.33103168 -0.033488754 0.01979892 0.1819753 -0.34575126 -0.0851489 -1.4861227 -0.08765902
0.0110740615 0.6407102 0.051082492 0.06534752 -1.4783558 -0.22908488 -0.23738894 -0.41926917
-0.06278289 0.28186393 0.995834 0.1630511 0.040711228 -0.38989824 -0.012490438 -0.338558
0.9854275 -0.04922344 0.13523333 -0.09480163 0.120128475 0.1925932 1.5323131 0.054746665
00000000: 0b3c 6cbc 29ec 573f 8c48 af3d 2174 f8bc
00000010: e87e 50bf d4b2 15bd 1ee1 f8bc a0b0 b53e
00000020: 5e52 48be f1ce f1bd 2c5b 99bf 504d e13c
00000030: a90d 573d 54c1 2abf 6402 e2bb 1f8e cb3e
00000040: fc7c a93e 812b 09bd 5831 a23c bc57 3a3e
00000050: 4f06 b1be 8c62 aebd 4539 bebf 9386 b3bd
00000060: fb6f 353c 9505 243f e03b 513d ecd4 853d
00000070: c33a bdbf 3a95 6abe 1616 73be 73aa d6be
00000080: 5194 80bd 7850 903e faee 7e3f def6 263e
00000090: d1c0 263d bea0 c7be b2a4 4cbc 7957 adbe
000000a0: fa44 7c3f 859e 49bd 9b7a 0a3e 5b27 c2bd
000000b0: eb05 f63d 2737 453e d622 c43f 0a3e 603d

l1_1.bias f4 [8]
-0.19428195 -0.5356589 0.12274003 -0.64277816 -0.31883022 0.30644268 0.34277886 0.44893187
00000000: d9f1 46be f120 09bf 205f fb3d 1c8d 24bf
00000010: b73d a3be 0ee6 9c3e b680 af3e 66da e53e

l1_2.weight f4 [8, 8]
-0.10191691 -0.45310152 0.24284804 0.3397791 -0.053039644 -0.04078165 -0.19007993 -0.05265036
-0.32480666 0.0068950085 0.03932005 -0.20879488 -0.10682989 -0.11677845 0.51508355 -0.20635508
0.059140127 0.22371742 0.29420966 -0.3268514 0.43489695 -0.49637437 0.24076559 -0.68824154
-0.20665514 0.11833125 0.22336334 -0.24356258 -0.5986584 0.43119293 0.14165367 0.8499696
0.1450956 0.03569982 -0.18500979 0.07362484 0.630518 -0.6269865 -0.08647737 -0.560446
-0.060745385 -0.11882526 0.03970629 0.08782087 0.27020317 -0.47105944 0.1025804 -1.0157828
-0.24327064 0.06961013 0.08286551 0.11958325 0.41316292 -0.3197123 -0.23074928 -0.4929266
-0.113271534 0.2577189 0.3440974 -0.30660418 0.68214387 -0.59894264 0.16991873 -0.83644104
00000000: d0b9 d0bd ecfc e7be 28ad 783e 87f7 ad3e
00000010: 1940 59bd a90a 27bd 50a4 42be e7a7 57bd
00000020: 0f4d a6be 86ef e13b 100e 213d 53ce 55be
00000030: a1c9 dabd 8a29 efbd 84dc 033f bf4e 53be
00000040: eb3c 723d 2e16 653e a6a2 963e 1159 a7be
00000050: d0aa de3e c824 febe 418b 763e 9930 30bf
00000060: 689d 53be a857 f23d 5cb9 643e 7868 79be
00000070: ad41 19bf 52c5 dc3e a90d 113e 9c97 593f
00000080: f193 143e f939 123d 3573 3dbe 9fc8 963d
00000090: a169 213f 3082 20bf 0c1b b1bd 6479 0fbf
000000a0: 27d0 78bd a85a f3bd 10a3 223d 6edb b33d
000000b0: 1258 8a3e b42e f1be ac15 d23d 2c05 82bf
000000c0: f01b 79be c18f 8e3d 64b5 a93d 10e8 f43d
000000d0: 178a d33e 55b1 a3be 8a49 6cbe e060 fcbe
000000e0: e8fa e7bd bbf3 833e 892d b03e 39fb 9cbe
000000f0: fba0 2e3f 4e54 19bf 2dff 2d3e 0021 56bf

l1_2.bias f4 [8]
-0.031252034 -0.08230727 -0.57306 0.45663485 -0.35283488 -0.39564088 -0.2051587 -0.29306346
00000000: 2202 00bd b790 a8bd 0fb4 12bf 0bcc e93e
00000010: c6a6 b4be 7191 cabe 1f15 52be 6a0c 96be

l1_3.weight f4 [8, 8]
-0.058282018 0.2657883 -0.19890653 -0.14583808 0.055208534 -0.24635887 0.28336957 0.27328947
-0.08091667 0.19553337 0.3348737 -0.26191795 0.2824429 0.29018876 -0.1658433 0.21904102
0.25295213 -0.29518923 -0.300626 -0.0848912 -0.005868584 0.14483145 0.0035321712 -0.18867707
0.01656288 0.22259781 -0.21903177 -0.0425148 -0.12531842 0.062062204 -0.19005324 -0.28727224
-0.033609867 0.17001298 -0.30725017 -0.09318644 -0.25307816 -0.07268244 0.1673182 0.01676631
-0.22856024 0.20129052 0.16996607 -0.12788318 -0.15610413 -0.09750071 0.088326305 -0.03954819
-0.2264135 0.28716567 0.28941235 -0.21398085 0.19213787 -0.08608684 0.10128933 0.095470786
-0.07638097 0.12790766 -0.22023523 0.3492435 -0.33504814 0.12746024 -0.17335534 0.067243785
00000000: 20b9 6ebd 6715 883e 27ae 4bbe 9456 15be
00000010: 5822 623d 8045 7cbe d115 913e 99ec 8b3e
00000020: a4b7 a5bd e639 483e 9174 ab3e 1c1a 86be
00000030: 5b9c 903e 9f93 943e d3d2 29be 4a4c 603e
00000040: f182 813e 0b23 97be a7eb 99be 70db adbd
00000050: 404d c0bb b24e 143e 007c 673b 9034 41be
00000060: e0ae 873c aef0 633e dd49 60be 0024 2ebd
00000070: 7953 00be f034 7e3d 519d 42be 5915 93be
00000080: 80aa 09bd e217 2e3e e54f 9dbe 88d8 bebd
00000090: 7693 81be 88da 94bd 7655 2b3e 8059 893c
000000a0: b20b 6abe 1a1f 4e3e 960b 2e3e cff3 02be
000000b0: c3d9 1fbe 74ae c7bd 6ce4 b43d 48fd 21bd
000000c0: f1d8 67be 6107 933e db2d 943e cc1d 5bbe
000000d0: cabf 443e 4c4e b0bd c870 cf3d 3086 c33d
000000e0: a06d 9cbd 3afa 023e 5885 61be 0bd0 b23e
000000f0: 6e8b abbe f084 023e 1084 31be 1cb7 893d

l1_3.bias f4 [8]
-0.19763866 0.34891966 -0.20163411 -0.20213236 0.11604577 0.32269385 -0.06676793 -0.09871566
00000000: ca61 4abe 99a5 b23e 2c79 4ebe c9fb 4ebe
00000010: 68a9 ed3d 2138 a53e a0bd 88bd 702b cabd

l1_4.weight f4 [1, 8]
-0.009878339 0.009702252 -0.15861708 0.6623004 -0.39965034 -0.46130624 -0.36885974 -0.4473739
00000000: c2d8 21bc 32f6 1e3c 846c 22be 858c 293f
00000010: f89e ccbe 5530 ecbe 2fdb bcbe 310e e5be

l2_1.weight f4 [8, 6]
0.049144797 0.041483916 -0.29081404 0.77302617 -1.1669388 -0.0745627 0.20570214 -0.03915973
0.03271753 1.220896 -0.8334373 -0.2205791 0.069567546 -0.017018186 -0.33691218 1.0410547
-0.8814255 -0.15144916 0.010846519 -0.07785405 -0.051479865 0.7165207 -0.26759037 -0.033709668
0.063889794 0.28732455 0.27171358 -0.6035405 0.20397805 -0.16528808 0.012538576 -0.1679172
-0.19465858 0.61650914 -0.5393914 -0.3665259 0.049437236 0.07763333 0.1394698 -1.0798022
0.9101047 0.1703445 -0.16262397 -0.24710773 -0.49086377 1.3565907 -0.8748594 -0.060025617
00000000: 0e4c 493d 0aeb 293d 94e5 94be 0be5 453f
00000010: 405e 95bf 54b4 98bd 95a3 523e f465 20bd
00000020: d102 063d 5246 9c3f 265c 55bf 7ddf 61be
00000030: 6e79 8e3d b969 8bbc c17f acbe 4841 853f
00000040: 1aa5 61bf 7d15 1bbe 99b5 313c f271 9fbd
00000050: 8ddc 52bd e76d 373f 9b01 89be 2613 0abd
00000060: a7d8 823d 341c 933e 0b1e 8b3e a181 1abf
00000070: 9fdf 503e 4741 29be 996e 4d3c 7df2 2bbe
00000080: 9454 47be 8bd3 1d3f 8e15 0abf 48a9 bbbe
00000090: b37e 4a3d 39fe 9e3d 2cd1 0e3e f536 8abf
000000a0: 9ffc 683f ca6e 2e3e e686 26be cf09 7dbe
000000b0: 7f52 fbbe c4a4 ad3f c9f6 5fbf 6cdd 75bd

l2_1.bias f4 [8]
0.029654602 0.42582518 0.21394183 0.2307074 0.02148896 0.38928172 -0.3299121 0.10888832
00000000: 35ee f23c c205 da3e 9113 5b3e 903e 6c3e
00000010: 9e09 b03c ef4f c73e 3dea a8be d700 df3d

l2_2.weight f4 [8, 8]
0.020836513 0.7952742 0.358355 0.18455772 0.17182302 0.18009222 -0.26678368 0.54196495
-0.064795054 0.65813124 0.28495494 -0.0110603515 -0.030339975 -0.13711812 -0.41257173 0.6238843
0.20070703 0.5925193 0.42917982 0.084881745 -0.10897588 0.24736327 -0.28003573 0.05599516
0.011965355 -0.084908225 0.022080408 0.06372687 0.1488849 0.15713012 0.08076805 -0.12867539
-0.007094409 0.63009155 0.2840305 -0.02300197 -0.29251298 0.32569304 -0.36481482 0.6391194
-0.17412727 -0.3473493 -0.17927492 -0.003342192 -0.19738947 -0.16649112 0.5393429 -0.6136562
-0.22979037 0.53481406 -0.08749239 -0.27062264 -0.1579475 -0.19962624 0.05845435 0.55872464
0.17494994 -0.64798385 0.02919297 0.28904998 0.05780369 -0.2687331 -0.16478541 -0.40532383
00000000: 56b1 aa3c 1797 4b3f 4e7a b73e b3fc 3c3e
00000010: 60f2 2f3e 186a 383e df97 88be 37be 0a3f
00000020: 45b3 84bd 4a7b 283f 9de5 913e 7a36 35bc
00000030: 8a8b f8bc b168 0cbe 9a3c d3be e2b6 1f3f
00000040: 2586 4d3e 58af 173f 75bd db3e 7bd6 ad3d
00000050: bf2e dfbd cc4c 7d3e d860 8fbe 2e5b 653d
00000060: 560a 443c 5de4 adbd f9e1 b43c 3c83 823d
00000070: 4975 183e b8e6 203e b869 a53d 7bc3 03be
00000080: 3778 e8bb ae4d 213f 726c 913e a16e bcbc
00000090: 43c4 95be 3dc1 a63e 02c9 babe 549d 233f
000000a0: 6b4e 32be c4d7 b1be d893 37be ad08 5bbb
000000b0: 7720 4abe a67c 2abe 6012 0a3f 9318 1dbf
000000c0: 2b4e 6bbe 93e9 083f 362f b3bd 0d8f 8abe
000000d0: fdbc 21be d26a 4cbe d46d 6f3d 9408 0f3f
000000e0: 1426 333e 45e2 25bf 1826 ef3c 5cfe 933e
000000f0: 90c3 6c3d 6397 89be 82bd 28be 9b86 cfbe

l2_2.bias f4 [8]
-0.14872691 0.052089002 0.18919638 -0.028770406 -0.21828936 -0.27833626 0.031949393 -0.025949636
00000000: de4b 18be 475b 553d b2bc 413e eaaf ebbc
00000010: 3f87 5fbe 1782 8ebe 5edd 023d 5594 d4bc

l2_3.weight f4 [8, 8]
-0.16793841 -0.19856037 0.21826383 0.1003454 -0.28770968 -0.044198006 0.266331 -0.04975915
0.18828103 0.29517648 -0.15468775 -0.07486853 0.29886028 -0.1286203 -0.059547633 -0.32378802
-0.21666211 -0.2753709 -0.32086042 -0.14325419 -0.28519696 -0.18338211 -0.036637783 -0.25229317
0.14467764 0.045971155 0.094005555 -0.20770493 0.06410316 -0.15736057 0.21468595 0.034160137
-0.053154767 0.29657206 -0.21533655 0.21430966 -0.33577076 -0.044389814 -0.15543239 -0.32410958
0.34680054 -0.122599915 0.09417796 0.24759415 -0.12940726 -0.17522906 0.043979436 0.1920782
0.052261204 0.3146285 -0.12442483 0.17873338 -0.29093635 0.029162258 -0.26139158 -0.09988901
-0.24924386 -0.15266271 0.30175784 -0.17108485 0.15362933 0.28464976 0.26339152 -0.11405569
00000000: 0cf8 2bbe 6953 4bbe 8e80 5f3e e481 cd3d
00000010: af4e 93be f808 35bd 895c 883e 40d0 4bbd
00000020: becc 403e 5f21 973e 7766 1ebe ac54 99bd
00000030: 3704 993e 0ab5 03be 38e8 73bd 8bc7 a5be
00000040: acdc 5dbe 6afd 8cbe d147 a4be 3ab1 12be
00000050: 5605 92be 85c8 3bbe 8011 16bd 922c 81be
00000060: 6026 143e 404c 3c3d fc85 c03d 9ab0 54be
00000070: 8448 833d 2123 21be a2d6 5b3e 80eb 0b3d
00000080: d0b8 59bd 4bd8 973e 2f81 5cbe fe73 5b3e
00000090: 25ea abbe 18d2 35bd ab29 1fbe b1f1 a5be
000000a0: d78f b13e aa15 fbbd 60e0 c03d 5289 7d3e
000000b0: 5683 04be 3f6f 33be c823 343d 26b0 443e
000000c0: d80f 563d fd16 a13e 72d2 febd e205 373e
000000d0: 9cf5 94be b0e5 ee3c 1ed5 85be 9c92 ccbd
000000e0: c839 7fbe 9d53 1cbe 0180 9a3e de30 2fbe
000000f0: 0251 1d3e 9dbd 913e 41db 863e 0896 e9bd

l2_3.bias f4 [8]
0.11536452 -0.2557408 -0.089701 0.3355138 -0.28639668 -0.20302251 -0.34957016 0.17850813
00000000: 3c44 ec3d 75f0 82be 28b5 b7bd 77c8 ab3e
00000010: 96a2 92be 22e5 4fbe dcfa b2be d6ca 363e

l2_4.weight f4 [1, 8]
0.42337793 0.36083665 0.22990832 -0.0359594 0.37185952 -0.36093736 0.006835408 -0.12151873
00000000: fec4 d83e 95bf b83e 166d 6b3e 2a4a 13bd
00000010: 5f64 be3e c8cc b8be 8ffb df3b d0de f8bd

l3_1.weight f4 [8, 6]
0.016099839 -0.6555767 0.19315547 0.25565177 0.37067932 -0.4418854 0.14495513 0.023233397
-0.12234408 0.89197624 0.34498462 -0.37864965 -0.322508 -0.36326787 0.30839047 1.3738893
0.4371096 0.05098837 0.21144852 -0.2452497 0.3087399 0.85941213 0.41578925 -0.28786856
-0.25479475 0.53045213 -0.5044309 -1.1832746 -1.0455787 0.23855428 0.122895814 0.5739489
-0.3038313 -0.14968804 -0.055398695 0.24782632 0.19773614 0.22629568 0.06539533 -0.43181384
-0.70111156 0.32081503 0.004042961 -0.12936622 -0.4207871 -0.3273098 0.005123542 0.101499595
00000000: cfe3 833c e0d3 27bf 8cca 453e cae4 823e
00000010: aec9 bd3e ce3e e2be 1e6f 143e f753 be3c
00000020: 888f fabd 8e58 643f d3a1 b03e 5ede c1be
00000030: c51f a5be 3ffe b9be 5be5 9d3e 9bdb af3f
00000040: d4cc df3e 2ed9 503d f685 583e bd22 7bbe
00000050: 2813 9e3e 6f02 5c3f 54e2 d43e 8263 93be
00000060: 7574 82be b6cb 073f 6222 01bf 8b75 97bf
00000070: 86d5 85bf 9347 743e cdb0 fb3d 51ee 123f
00000080: c78f 9bbe d247 19be bee9 62bd 2fc6 7d3e
00000090: 587b 4a3e 0eba 673e fded 853d b416 ddbe
000000a0: 0c7c 33bf de41 a43e d17a 843b 9478 04be
000000b0: 6871 d7be 2695 a7be 63e3 a73b 05df cf3d

l3_1.bias f4 [8]
0.7160769 0.60350174 0.26504275 0.6441761 -0.33417746 -0.1132627 -0.21674064 0.13838068
00000000: d150 373f 177f 1a3f afb3 873e bae8 243f
00000010: 4f19 abbe 46f6 e7bd 42f1 5dbe aab3 0d3e

l3_2.weight f4 [8, 8]
0.33321017 -0.24918604 0.4221427 0.20362632 -0.15413465 0.023031224 -0.20538752 -0.40278184
0.038674574 0.057533197 -0.32311377 -0.121316314 0.23135325 -0.022572841 0.19043961 0.20189622
0.17526819 0.35665843 0.14321634 0.34240115 0.15695184 0.02190381 0.0014952067 0.11926249
-0.2782637 -0.24380402 0.17775081 0.183977 -0.22441576 -0.08822817 0.24782303 0.3194697
-0.22356172 0.023200372 -0.18416621 -0.1070602 -0.03711906 -0.3954058 0.24749546 -0.19666435
-0.08339036 -0.41174096 -0.28566656 -0.23613006 0.4085525 0.19933079 0.17011404 -0.08501669
0.10470045 0.08802084 -0.16611119 0.10139689 0.08912583 0.22387466 -0.23959403 -0.21144758
0.17084506 -0.16725019 0.27415246 -0.015247485 -0.094334535 -0.05537753 0.041039538 -0.13600437
00000000: 869a aa3e a02a 7fbe 1723 d83e 6b83 503e
00000010: 79d5 1dbe faab bc3c 1b51 52be 6c39 cebe
00000020: 3b69 1e3d eea7 6b3d 2b6f a5be b074 f8bd
00000030: dee7 6c3e aeea b8bc 9a02 433e e2bd 4e3e
00000040: 8179 333e ef9b b63e 4ea7 123e 344f af3e
00000050: fcb7 203e 9e6f b33c d0fa c33a e43f f43d
00000060: 9478 8ebe c3a7 79be 4f04 363e 7764 3c3e
00000070: 3fcd 65be f9b0 b4bd 52c5 7d3e 8891 a33e
00000080: 5ded 64be b50e be3c 1196 3cbe 6142 dbbd
00000090: 280a 18bd a172 cabe 736f 7d3e 6162 49be
000000a0: 91c8 aabd b6cf d2be e342 92be 14cc 71be
000000b0: cb2d d13e 5f1d 4c3e 6032 2e3e 3b1d aebd
000000c0: 316d d63d 4544 b43d 0d19 2abe 2ca9 cf3d
000000d0: 9a87 b63d 663f 653e 2358 75be b785 58be
000000e0: 02f2 2e3e a243 2bbe b65d 8c3e 96d0 79bc
000000f0: 7732 c1bd 8dd3 62bd 1319 283d bb44 0bbe

l3_2.bias f4 [8]
0.2438788 0.11882815 -0.0013548564 -0.1632906 -0.44466993 0.17202234 -0.0075685442 0.095705725
00000000: 5dbb 793e 2c5c f33d 7095 b1ba a735 27be
00000010: c7ab e3be a026 303e 8d01 f8bb 5d01 c43d

l3_3.weight f4 [8, 8]
0.058745176 0.34143898 0.045966953 0.0027139187 -0.08485964 -0.034498513 -0.017868102 -0.21581572
0.2665778 0.20041314 0.26568046 -0.28473255 -0.28770214 -0.015946925 0.12806821 0.19974831
-0.075728476 0.31492952 -0.23357184 0.094183 0.33919188 0.014350146 0.18082967 -0.043100536
-0.17226294 0.08023214 0.31520382 0.10076168 0.06806171 0.012965858 -0.023675114 0.15800366
-0.3319025 -0.110526025 -0.22994444 0.32693097 0.15698174 0.11641407 0.31486633 -0.13130501
0.042121857 -0.23734306 0.262962 0.033382922 0.045799643 -0.17192374 0.18889245 -0.27748156
0.25268993 -0.052708805 0.16016605 -0.27729702 -0.044609487 -0.22302502 -0.019982487 0.33788034
-0.31761187 0.34832588 0.33894488 -0.19222334 -0.28586534 -0.13325585 -0.30577767 0.13657576
00000000: c89e 703d 17d1 ae3e d847 3c3d 00dc 313b
00000010: e4ca adbd 504e 0dbd 2060 92bc ccfe 5cbe
00000020: e37c 883e 1a39 4d3e 4507 883e 77c8 91be
00000030: b24d 93be 20a3 82bc 5024 033e d28a 4c3e
00000040: 8817 9bbd 713e a13e 752d 6fbe 04e3 c03d
00000050: 8faa ad3e e01c 6b3c 6a2b 393e 308a 30bd
00000060: b265 30be c050 a43d 6562 a13e 245c ce3d
00000070: f063 8b3d c06e 543c 50f2 c1bc b6cb 213e
00000080: 20ef a9be 785b e2bd 8e76 6bbe 7f63 a73e
00000090: d2bf 203e 806a ee3d 2936 a13e d274 06be
000000a0: f887 2c3d 0f0a 73be f5a2 863e 88bc 083d
000000b0: 6898 3b3d c70c 30be 066d 413e 1012 8ebe
000000c0: 9360 813e 30e5 57bd 9202 243e e0f9 8dbe
000000d0: 70b8 36bd ac60 64be 50b2 a3bc a7fe ac3e
000000e0: 069e a2be c557 b23e 2f8a ad3e 32d6 44be
000000f0: f15c 92be 3974 08be e48e 9cbe 84da 0b3e

l3_3.bias f4 [8]
0.21846971 0.04862562 0.06283942 0.35189375 -0.25525552 0.121843755 -0.04538673 0.0076767206
00000000: 86b6 5f3e a82b 473d f4b1 803d 6b2b b43e
00000010: dab0 82be 3889 f93d 70e7 39bd 008d fb3b

l3_4.weight f4 [1, 8]
-0.06483582 0.09325425 -0.10669004 0.08010973 0.00507345 0.27703777 -0.042679217 0.015055026
00000000: a4c8 84bd 16fc be3d 4f80 dabd 9210 a43d
00000010: 2f3f a63b e5d7 8d3e 67d0 2ebd 5ba9 763c

exp_avg f4 [8, 6]
0.0037068108 -0.0037437226 0.0058795456 -0.003081422 -0.0046465504 -0.0036008058 0.0053494996 -0.0052517112
0.008254717 -0.0043218 -0.006505609 -0.0049827867 0.003193884 -0.0030201315 0.0047551454 -0.002484094
-0.0037360834 -0.002857531 0.009431727 -0.009161959 0.014408153 -0.007538781 -0.011345386 -0.008698429
0.13429748 -0.1298227 0.2041981 -0.10682515 -0.16070537 -0.12296142 -0.12591785 0.12162123
-0.19130558 0.1000755 0.15054901 0.115178674 -0.005967966 0.00583438 -0.009172161 0.0048010387
0.0072259945 0.005530286 -0.19838218 0.19183451 -0.3017316 0.15785022 0.23747541 0.18169749
00000000: f7ed 723b 3e59 75bb 34a9 c03b aff1 49bb
00000010: 1742 98bb 7ffb 6bbb db4a af3b 8c16 acbb
00000020: cb3e 073c e39d 8dbb 012d d5bb a546 a3bb
00000030: 7b50 513b 66ed 45bb 0dd1 9b3b 2ecc 22bb
00000040: 14d9 74bb 6a45 3bbb 8887 1a3c 0b1c 16bc
00000050: 2c10 6c3c e107 f7bb ffe1 39bc db83 0ebc
00000060: 4785 093e 3ef0 04be 4f19 513e 25c7 dabd
00000070: f38f 24be 32d3 fbbd 9cf0 00be 8d14 f93d
00000080: 9ce5 43be 62f4 cc3d 8529 1a3e cce2 eb3d
00000090: ed8e c3bb 542e bf3b d546 16bc 0852 9d3b
000000a0: 09c8 ec3b 6737 b53b b324 4bbe 4470 443e
000000b0: 907c 9abe 7da3 213e c12c 733e e80e 3a3e

exp_avg_sq f4 [8, 6]
0.0027470894 0.00015092255 0.00048269806 0.00016697895 0.00017888828 0.2183525 0.019121947 0.0010298943
0.0032733446 0.0011677123 0.0012232752 1.6511939 0.0042975415 0.00024938656 0.00079117337 0.0002835424
0.0002966858 0.40339684 0.0035295822 0.0002166793 0.00066347566 0.00019520389 0.00028723857 0.1127604
2.160695 0.11815123 0.3661585 0.11505224 0.15241306 96.98022 1.8533936 0.100909926
0.31239912 0.09770723 0.13053738 80.17021 0.022981506 0.0012450328 0.0039385003 0.0013894081
0.001494766 1.899456 4.8692536 0.26690614 0.8280374 0.26214308 0.3428445 230.75485
00000000: 8308 343b f740 1e39 a312 fd39 1217 2f39
00000010: f593 3b39 cc97 5f3e a1a5 9c3c 85fd 863a
00000020: 9c85 563b ec0d 993a 4e56 a03a 525a d33f
00000030: 64d2 8c3b 19c0 8239 bf66 4f3a 6ba8 9439
00000040: 7e8c 9b39 088a ce3e 9050 673b 6834 6339
00000050: 19ed 2d3a a5af 4c39 8298 9639 edee e63d
00000060: d448 0a40 46f9 f13d 2079 bb3e 82a0 eb3d
00000070: 2b12 1c3e dff5 c142 003c ed3f dda9 ce3d
00000080: c7f2 9f3e ba1a c83d 97ab 053e 2657 a042
00000090: b643 bc3c 5e30 a33a 890e 813b cd1c b63a
000000a0: 06ec c33a 6021 f33f edd0 9b40 eca7 883e
000000b0: 42fa 533f 9e37 863e 5089 af3e 3ec1 6643

exp_avg f4 [8]
0.0068787914 0.009649598 0.0055492497 0.016834363 0.2385388 -0.22346923 -0.0107202055 -0.35248053
00000000: 7c67 e13b 5919 1e3c 7bd6 b53b 38e8 893c
00000010: 8443 743e 1ed5 64be cda3 2fbc 5478 b4be

exp_avg_sq f4 [8]
0.0005095316 0.0034770414 0.0008419566 0.00073153427 0.3988913 0.3406828 0.004203374 0.9011056
00000000: 1692 053a 13df 633b c0b6 5c3a 6fc4 3f3a
00000010: 7b3b cc3e fa6d ae3e 75bc 893b dbae 663f

exp_avg f4 [8, 8]
-3.7886584e-06 -0.00011925807 0.00023562764 0.00012401544 0.00086482544 -0.0009886023 0.00014252709 -0.00086305547
1.1807801e-06 0.00011018777 -0.0002232502 -0.00012264396 -0.00083177985 0.00094154914 -0.00013314547 0.0008356245
-5.4933764e-05 -0.0018862959 0.003741548 0.0019814093 0.013771546 -0.015714325 0.0022586433 -0.0137704685
0.00023016485 0.007872164 -0.015614057 -0.00826738 -0.057471104 0.065578006 -0.009426026 0.05747088
-0.00013913779 -0.0047521987 0.0094251605 0.0049898895 0.034689464 -0.039584603 0.0056899795 -0.034687873
-0.00016046835 -0.00548504 0.01087905 0.0057599675 0.040041592 -0.04569103 0.0065675634 -0.040040508
-0.00012822465 -0.0043867067 0.0087008085 0.004606836 0.032024123 -0.03654272 0.0052524386 -0.032022703
-0.0001562925 -0.0053208875 0.010552091 0.005585462 0.03883496 -0.044316746 0.0063706115 -0.038832705
00000000: a840 7eb6 301a fab8 d012 7739 240a 0239
00000010: 74b5 623a fd93 81ba 5373 1539 ac3e 62ba
00000020: 4c7b 9e35 9c14 e738 4518 6ab9 fd99 00b9
00000030: cd0b 5aba 4bd2 763a f79c 0bb9 d00d 5b3a
00000040: ae68 66b8 963d f7ba c234 753b 88da 013b
00000050: 0da2 613c 54bb 80bc bf05 143b 889d 61bc
00000060: 6858 7139 40fa 003c 1ad2 7fbc e873 07bc
00000070: d266 6bbd c34d 863d 9e6f 1abc 9666 6b3d
00000080: 84e5 11b9 55b8 9bbb fd6b 1a3c 3a82 a33b
00000090: 8a16 0e3d 7723 22bd 0273 ba3b df14 0ebd
000000a0: 6543 28b9 dabb b3bb 0b3e 323c 1cbe bc3b
000000b0: a702 243d 8426 3bbd b734 d73b 8401 24bd
000000c0: 0b74 06b9 5dbe 8fbb d68d 0e3c f1f4 963b
000000d0: ba2b 033d d2ad 15bd a61c ac3b 3d2a 03bd
000000e0: 73e2 23b9 d75a aebb ade2 2c3c 4006 b73b
000000f0: 6811 1f3d 7a85 35bd 90c0 d03b 0b0f 1fbd

exp_avg_sq f4 [8, 8]
6.602918e-06 9.968908e-05 0.00014708123 0.00017235945 0.0014036461 0.0005128944 0.00019120415 4.026366e-05
2.9287798e-05 0.00046455133 0.00068243727 0.00078388274 0.006388561 0.0022052824 0.0008903965 0.00012872124
0.00024730086 0.0033882041 0.004912675 0.00574629 0.047635287 0.017577797 0.0064979363 0.0014443494
0.00548231 0.080154106 0.117064595 0.13649127 1.1213518 0.4080009 0.15362743 0.031243768
0.0018995233 0.027369997 0.039907906 0.046563566 0.3833145 0.13996857 0.0524664 0.010904189
0.0025662535 0.03734075 0.054507047 0.06357423 0.5226807 0.19038755 0.07157354 0.014669535
0.0016053931 0.023200506 0.033832513 0.039462768 0.32486355 0.11844224 0.044475902 0.009173712
0.002396896 0.034599446 0.05046145 0.05887609 0.48452958 0.17688905 0.066323385 0.013761308
00000000: a28e dd36 2b10 d138 d139 1a39 63bb 3439
00000010: 8cfa b73a c373 063a f97d 4839 c7e0 2838
00000020: 11af f537 068f f339 97e5 323a 7b7d 4d3a
00000030: 2257 d13b 8086 103b 7f69 693a 58f9 0639
00000040: 29a8 8139 a20c 5e3b 81fa a03b 604b bc3b
00000050: 381d 433d 50ff 8f3c a4ec d43b 5350 bd3a
00000060: f3a4 b33b d627 a43d 90bf ef3d 5ec4 0b3e
00000070: 7588 8f3f 7ee5 d03e 8250 1d3e eef2 ff3c
00000080: 6df9 f83a 0b37 e03c 7976 233d 70b9 3e3d
00000090: cc41 c43e ec53 0f3e 02e7 563d 7ca7 323c
000000a0: 972e 283b 9df2 183d c842 5f3d 3533 823d
000000b0: 67ce 053f f4f4 423e 2695 923d 7d58 703c
000000c0: 0e6c d23a fd0e be3c f693 0a3d b6a3 213d
000000d0: 8454 a63e d891 f23d 5d2c 363d 564d 163c
000000e0: 3e15 1d3b 26b8 0d3d aab0 4e3d 0e28 713d
000000f0: 4314 f83e 6722 353e 8ed4 873d 1c77 613c

exp_avg f4 [8]
0.001826928 -0.0017508395 0.029096046 -0.12143201 0.07329606 0.084604636 0.067663476 0.08205742
00000000: 8875 ef3a 6d7c e5ba d55a ee3c 58b1 f8bd
00000010: 3f1c 963d 3245 ad3d 2693 8a3d b80d a83d

exp_avg_sq f4 [8]
0.00015276457 0.00041039966 0.005453355 0.11504807 0.04037181 0.054163292 0.033907127 0.050949775
00000000: 6d2f 2039 e92a d739 0fb2 b23b 539e eb3d
00000010: e95c 253d 54da 5d3d 33e2 0a3d b6b0 503d

exp_avg f4 [1, 8]
-0.011137044 -0.010683024 -0.0456276 0.08218998 -0.09601554 -0.09104706 -0.072525375 -0.14144157
00000000: 2678 36bc da07 2fbc 02e4 3abd 3853 a83d
00000010: cca3 c4bd e276 babd 2f88 94bd 0fd6 10be

exp_avg_sq f4 [1, 8]
0.27374917 0.12602523 1.8537416 2.3985474 2.5272326 1.5252988 0.83714354 3.218702
00000000: da28 8c3e c20c 013e 6847 ed3f cd81 1940
00000010: 2ebe 2140 fe3c c33f 0a4f 563f 37ff 4d40

exp_avg f4 [8, 6]
-0.00931694 0.0008986389 -0.003160293 0.0017839154 -9.689225e-05 -0.00836134 -0.16172042 0.01699177
-0.056375645 0.031534147 0.00054807955 -0.1402857 -0.072749205 0.0076837027 -0.025403906 0.0142024215
0.00030994025 -0.06297645 -0.006520828 0.00065586873 -0.0022388105 0.0012580896 -2.3426257e-05 -0.0057522845
0.0024251053 -0.00036591943 0.0009691905 -0.00052326475 -0.00018085452 0.0017359828 -0.04054519 0.0042241714
-0.014090474 0.007885621 8.556077e-05 -0.03527345 0.089562096 -0.009426712 0.031231854 -0.017462924
-0.00033710434 0.07759212 -0.13994132 0.015229613 -0.049353648 0.027508069 0.0013088742 -0.11960576
00000000: 14a6 18bc a392 6b3a eb1c 4fbb 45d2 e93a
00000010: a132 cbb8 00fe 08bc 0a9a 25be 5332 8b3c
00000020: 26ea 66bd f329 013d ffac 0f3a 0ea7 0fbe
00000030: 89fd 94bd 92c7 fb3b da1b d0bc 46b1 683c
00000040: 7a7f a239 ccf9 80bd acac d5bb 9bee 2b3a
00000050: 02b9 12bb 7be6 a43a 8183 c4b7 a97d bcbb
00000060: 84ee 1e3b e0d8 bfb9 4611 7e3a b42b 09ba
00000070: c4a3 3db9 eb89 e33a b712 26bd eb6a 8a3b
00000080: bbdb 66bc b132 013c 176f b338 e57a 10bd
00000090: 556c b73d 7f72 1abc f2d9 ff3c 680e 8fbc
000000a0: 61bd b0b9 9ee8 9e3d c74c 0fbe a085 793c
000000b0: 0d27 4abd 9a58 e13c 888e ab3a ddf3 f4bd

exp_avg_sq f4 [8, 6]
0.0024388588 0.00021641074 0.0006227492 0.00018162234 0.00027318954 0.09756844 4.002625 0.3309214
0.9885695 0.3081742 0.40618786 261.08258 0.7795152 0.06463816 0.19258508 0.059741743
0.079540186 49.00763 0.0018559534 0.00016080432 0.0004597227 0.00012714596 0.00020857727 0.03742591
0.008898341 0.0007214194 0.002319776 0.00084210635 0.0008053881 1.2941171 0.23132096 0.019322637
0.05685563 0.017174397 0.024094887 11.652201 1.2318541 0.10198156 0.30434805 0.09471414
0.12528943 79.33498 2.9755864 0.24641773 0.73792917 0.2314459 0.3015442 203.08853
00000000: 43d5 1f3b 51ec 6239 fe3f 233a e071 3e39
00000010: e13a 8f39 f6d1 c73d 8115 8040 886e a93e
00000020: e412 7d3f 02c9 9d3e dbf7 cf3e 928a 8243
00000030: 4f8e 473f 0361 843d 0635 453e c2b3 743d
00000040: f7e5 a23d d007 4442 7643 f33a 959d 2839
00000050: f006 f139 7c52 0539 89b5 5a39 e94b 193d
00000060: 59ca 113c a31d 3d3a 6207 183b cdc0 5c3a
00000070: ae20 533a a1a5 a53f 67df 6c3e 824a 9e3c
00000080: 73e1 683d 52b1 8c3c a462 c53c 6a6f 3a41
00000090: 65ad 9d3f b5db d03d 82d3 9b3e 7df9 c13d
000000a0: df4b 003e 82ab 9e42 0270 3e40 ee54 7c3e
000000b0: ede8 3c3f 2700 6d3e 0064 9a3e aa16 4b43

exp_avg f4 [8]
-0.0016511778 -0.031220987 -0.014118205 -0.0012051042 0.0006723483 -0.0077615622 0.017320804 -0.027983245
00000000: 556c d8ba 28c3 ffbc 0b50 67bc 96f4 9dba
00000010: 8840 303a b454 febb 5ce4 8d3c 1e3d e5bc

exp_avg_sq f4 [8]
0.00073062675 1.1172282 0.21822564 0.00054289296 0.0024355927 0.065235436 0.3443016 0.8319332
00000000: 8887 3f3a 5501 8f3f 8b76 5f3e ee50 0e3a
00000010: 779e 1f3b 289a 853d 4d48 b03e 93f9 543f

exp_avg f4 [8, 8]
0.020267248 0.009187141 0.021951776 0.011041885 -0.006947166 0.025670052 -0.024568506 0.03766378
0.017278364 0.007843422 0.018713614 0.009412891 -0.005916059 0.021887464 -0.020946488 0.032096915
0.011018744 0.005079518 0.011926983 0.005998791 -0.0037246186 0.013983078 -0.013368012 0.020380728
-0.001716688 -0.0007380525 -0.0018625761 -0.00093728275 0.0006140864 -0.002159911 0.002075386 -0.0032350335
0.01779839 0.008030719 0.019281277 0.009698732 -0.0061239414 0.02253124 -0.0215709 0.033118326
-0.01728338 -0.00786377 -0.018716797 -0.009414751 0.005905676 -0.02190098 0.020955825 -0.032085188
0.00032430678 2.3866376e-05 0.0003652337 0.00018278336 -0.00019043905 0.00036710917 -0.0003742175 0.0007453628
-0.0058266595 -0.0026950126 -0.0063065947 -0.0031716588 0.0019640848 -0.00739712 0.0070698964 -0.01076762
00000000: 8007 a63c aa85 163c 36d4 b33c 06e9 343c
00000010: 0da5 e3bb 004a d23c e443 c9bc 5645 1a3d
00000020: 5b8b 8d3c b281 003c 4b4d 993c 8738 1a3c
00000030: 80db c1bb 574d b33c f897 abbc 0e78 033d
00000040: f687 343c 1672 a63b 6469 433c 8291 c43b
00000050: bb18 74bb 4819 653c 8205 5bbc 7cf5 a63c
00000060: 7e02 e1ba dd79 41ba af21 f4ba fbb3 75ba
00000070: a4fa 203a 4b8d 0dbb 3303 083b db02 54bb
00000080: eecd 913c 4793 033c c5f3 9d3c 6ee7 1e3c
00000090: 58ab c8bb 6f93 b83c 75b5 b0bc 15a7 073d
000000a0: e095 8dbc 0bd7 00bc f853 99bc 5440 1abc
000000b0: 6784 c13b af69 b3bc 8dab ab3c c26b 03bd
000000c0: b807 aa39 a734 c837 d67c bf39 89a9 3f39
000000d0: 98b0 47b9 8f78 c039 9f32 c4b9 7364 433a
000000e0: 90ed bebb cf9e 30bb 8da7 cebb 9bdb 4fbb
000000f0: e0b7 003b 8a63 f2bb 97aa e73b ac6a 30bc

exp_avg_sq f4 [8, 8]
0.13396485 1.3521003 0.7112449 0.04405397 1.3991808 4.657785 0.88265085 0.21423994
0.095299296 0.9615591 0.5060286 0.031326972 0.99544346 3.3138592 0.6279415 0.15221894
0.03422038 0.34723884 0.18220192 0.011277754 0.35774535 1.1913794 0.22612733 0.0557194
0.0038671992 0.036782485 0.019920424 0.0012432623 0.04000207 0.13258296 0.024689468 0.005051002
0.102209605 1.0320625 0.54291326 0.0336136 1.0677384 3.554697 0.6737298 0.16365772
0.09467446 0.9562472 0.50281996 0.031141685 0.98893267 3.292242 0.62400854 0.1517885
0.00019578137 0.0022986003 0.0011724408 6.896942e-05 0.0021847126 0.0073761283 0.0014544461 0.0004302759
0.0073183887 0.07533718 0.039238073 0.0024286876 0.07665583 0.25550434 0.048711527 0.012518728
00000000: 152e 093e 9f11 ad3f 2514 363f f071 343d
00000010: 5b18 b33f 930c 9540 68f5 613f b761 5b3e
00000020: 472c c33d bd28 763f 178b 013f b650 003d
00000030: 62d5 7e3f 4516 5440 c6c0 203f 48df 1b3e
00000040: ab2a 0c3d 4ac9 b13e 2493 3a3e 54c6 383c
00000050: 662a b73e 1f7f 983f ec8d 673e 073a 643d
00000060: d670 7d3b 3ba9 163d 2830 a33c f6f4 a23a
00000070: 36d9 233d d4c3 073e 9141 ca3c e082 a53b
00000080: 4553 d13d a01a 843f 5dfc 0a3f 6aae 093d
00000090: a7ab 883f 2880 6340 8e79 2c3f e495 273e
000000a0: afe4 c13d 9ecc 743f cfb8 003f d91c ff3c
000000b0: b12a 7d3f 18b4 5240 06bf 1f3f 726e 1b3e
000000c0: a94a 4d39 1da4 163b 96ac 993a ada3 9038
000000d0: 652d 0f3b 73b3 f13b 1da3 be3a a796 e139
000000e0: 18cf ef3b 614a 9a3d 1ab8 203d 9e2a 1f3b
000000f0: bbfd 9c3d 77d1 823e bd85 473d 5a1b 4d3c

exp_avg f4 [8]
-0.011596244 -0.009869341 -0.0061708377 0.0010447651 -0.010243345 0.009840358 -0.00039404252 0.003250772
00000000: 2cfe 3dbc 04b3 21bc bd34 cabb 80f0 883a
00000010: b4d3 27bc 7439 213c 7e97 ceb9 e70a 553b

exp_avg_sq f4 [8]
0.1715389 0.12131813 0.046078116 0.0023005474 0.13114055 0.122140124 0.00046756663 0.011287758
00000000: e5a7 2f3e a475 f83d 68bc 3c3d c8c4 163b
00000010: b549 063e 9a24 fa3d bb23 f539 4af0 383c

exp_avg f4 [1, 8]
0.118968256 0.09735406 0.08126511 -0.0077340975 0.13750744 -0.11183524 0.025538994 -0.041357215
00000000: a1a5 f33d 9161 c73d 526e a63d 506e fdbb
00000010: c0ce 0c3e e009 e5bd 2737 d13c 2f66 29bd

exp_avg_sq f4 [1, 8]
29.324348 7.2001724 16.020437 1.922814 19.707932 18.448235 0.15991877 5.382182
00000000: 4498 ea41 d067 e640 db29 8041 c51e f63f
00000010: d8a9 9d41 fc95 9341 bfc1 233e d63a ac40

exp_avg f4 [8, 6]
0.0072436403 0.0014877314 -0.001564986 0.0014896742 0.0016613369 0.0023642804 0.013306478 0.0027358034
-0.0028791057 0.002739157 0.0030549797 0.0043524946 0.010713745 0.0022418133 -0.0023758833 0.0022404913
0.0025045339 0.0035304541 0.00995243 0.0020435783 -0.0021494927 0.00204635 0.0022819429 0.0032516278
-0.008913055 -0.0018313488 0.00192677 -0.0018337332 -0.0020449548 -0.0029139312 -0.0025371576 -0.0005220273
0.0005495335 -0.00052262226 -0.0005829503 -0.0008298597 -0.009351858 -0.0019257402 0.0020278846 -0.0019277736
-0.002150535 -0.00305812 -0.003422768 -0.0007042187 0.0007413117 -0.0007050395 -0.0007864029 -0.0011162603
00000000: 0f5c ed3b fbff c23a 3720 cdba 2c41 c33a
00000010: 37c1 d93a 0bf2 1a3b 6a03 5a3c 2a4b 333b
00000020: 61af 3cbb 6e83 333b 0e36 483b 5f9f 8e3b
00000030: b488 2f3c 63eb 123b b5b4 1bbb 35d5 123b
00000040: 1b23 243b 315f 673b 840f 233c 8eed 053b
00000050: 81de 0cbb 0e1c 063b a68c 153b 4319 553b
00000060: 1008 12bc de09 f0ba ac8b fc3a e059 f0ba
00000070: a604 06bb a7f7 3ebb 7146 26bb a9d8 08ba
00000080: 920e 103a 9600 09ba 22d1 18ba f18a 59ba
00000090: 8938 19bc 1e69 fcba 42e6 043b 59ad fcba
000000a0: fdef 0cbb bd6a 48bb 8550 60bb 519b 38ba
000000b0: 9654 423a 66d2 38ba 9b26 4eba 7b4f 92ba

exp_avg_sq f4 [8, 6]
0.0066311997 0.0005412187 0.0018360547 0.0007053566 0.0005637012 1.1614361 0.012348959 0.0009795796
0.003348248 0.0012613065 0.0010252263 1.9586577 0.009822626 0.00074322394 0.0025701283 0.0009423133
0.00078260386 1.3456799 0.008862402 0.00070971507 0.0024195772 0.0009176804 0.00074155134 1.4550774
0.006519658 0.00051191734 0.0017544037 0.0006572933 0.0005363897 1.0044309 0.00054083497 4.264868e-05
0.00014616274 5.4861197e-05 4.4654047e-05 0.0843984 0.008628499 0.00069797185 0.0023719743 0.00090649887
0.0007279745 1.4703099 0.002104537 0.00018064541 0.0006088351 0.00024090541 0.00018647878 0.4297418
00000000: 894a d93b 92e0 0d3a c6a7 f03a aee7 383a
00000010: 59c5 133a f0a9 943f 4a53 4a3c 3d65 803a
00000020: 486e 5b3b 6c52 a53a e360 863a 4cb5 fa3f
00000030: 14ef 203c ead4 423a 996f 283b 9305 773a
00000040: a827 4d3a 3d3f ac3f 9c33 113c 2c0c 3a3a
00000050: c591 1e3b 7d90 703a ab64 423a fa3f ba3f
00000060: dba2 d53b 3132 063a 05f4 e53a 354e 2c3a
00000070: 819c 0c3a 3191 803f d2c6 0d3a ace1 3238
00000080: 4343 1939 c31a 6638 eb4a 3b38 11d9 ac3d
00000090: 8c5e 0d3c 19f8 363a 2073 1b3b 1ca2 6d3a
000000a0: 8bd5 3e3a 1d33 bc3f 46ec 093b a26b 3d39
000000b0: 3b9a 1f3a 8e9b 7c39 8489 4339 1e07 dc3e

exp_avg f4 [8]
-0.002733587 -0.005026819 -0.0041191517 -0.003754911 0.003364957 0.00095918356 0.0035383934 0.0012939454
00000000: fb25 33bb 04b8 a4bb f3f9 86bb f414 76bb
00000010: 9c86 5c3b b871 7b3a 64e4 673b 9a99 a93a

exp_avg_sq f4 [8]
0.001827214 0.003307171 0.0025092044 0.0023960774 0.0017282901 0.00014398669 0.002356431 0.000609879
00000000: 217f ef3a 1fbd 583b 7771 243b 8207 1d3b
00000010: cb87 e23a 22fb 1639 5a6e 1a3b 49e0 1f3a

exp_avg f4 [8, 8]
-0.00240007 0.0005004459 -0.00088835595 0.00017766158 -0.0017606986 0.0021165973 0.00090508256 -0.00010457363
0.003457758 -0.0007191157 0.0012759335 -0.00025243292 0.0025319979 -0.003047675 -0.0013006631 0.0001501207
-0.0039521204 0.0008233348 -0.001463095 0.00029243392 -0.002898771 0.0034853313 0.0014913536 -0.00017197325
0.0029668761 -0.0006180232 0.0010972039 -0.00021868877 0.0021752345 -0.0026160276 -0.0011181472 0.0001290888
0.00018287357 -3.9930303e-05 6.969873e-05 -1.5703317e-05 0.00013732933 -0.00016225514 -6.994406e-05 8.498757e-06
0.010268141 -0.0021357522 0.0037967952 -0.0007551416 0.0075248987 -0.009053245 -0.0038718458 0.00044580273
-0.0015807358 0.00033002975 -0.00058525335 0.00011732953 -0.0011601519 0.0013941515 0.000596007 -6.9009475e-05
0.000561918 -0.000115432464 0.00020730952 -4.038181e-05 0.00041007038 -0.0004950646 -0.00021252559 2.3958073e-05
00000000: 7e4a 1dbb 5b30 033a 8fe0 68ba ab4a 3a39
00000010: 3ec7 e6ba 9cb6 0a3b 1043 6d3a 8a4e dbb8
00000020: 8e9b 623b 0a83 3cba 393d a73a f958 84b9
00000030: e0ef 253b 80bb 47bb 037b aaba b869 1d39
00000040: ca80 81bb 10d5 573a 52c5 bfba d151 9939
00000050: 4ff9 3dbb 286a 643b 8679 c33a b853 34b9
00000060: ec6f 423b d602 22ba 0ed0 8f3a d24f 65b9
00000070: 618e 0e3b a971 2bbb cb8e 92ba 035c 0739
00000080: c0c1 3f39 d67a 27b8 392b 9238 9eba 83b7
00000090: 1000 1039 0823 2ab9 eeae 92b8 e295 0e37
000000a0: b43b 283c faf7 0bbb a7d3 783b b2f4 45ba
000000b0: 6d93 f63b 1054 14bc cbbe 7dbb a1ba e939
000000c0: b130 cfba d807 ad39 b06b 19ba d00e f638
000000d0: 3d10 98ba f6bb b63a 5a3d 1c3a 2eb9 90b8
000000e0: ae4d 133a 5514 f2b8 3a61 5939 a35f 29b8
000000f0: b7fe d639 39c7 01ba 67d9 5eb9 92f9 c837

exp_avg_sq f4 [8, 8]
0.08685712 0.07550801 0.00022070289 0.039043903 0.030568 0.031590052 0.06439599 0.008114073
0.14135346 0.12293627 0.00038511778 0.06351152 0.049730163 0.051401198 0.10494686 0.013151492
0.1780459 0.15484011 0.00047635759 0.08000715 0.06264548 0.06474694 0.13215448 0.016588176
0.11541612 0.10033187 0.00028777844 0.051885527 0.040621273 0.041978125 0.08555328 0.01079297
0.013199134 0.01146208 2.886216e-05 0.0059357104 0.004645615 0.004801122 0.009757266 0.0012338691
0.8843778 0.76968896 0.0026174043 0.39715043 0.31103784 0.32153484 0.65794706 0.08197738
0.05023117 0.04363117 9.172106e-05 0.022614041 0.017700875 0.018282264 0.037105583 0.004772889
0.0027122118 0.0023520757 6.351214e-06 0.0012188952 0.0009536022 0.0009863657 0.0020021482 0.0002487377
00000000: 25e2 b13d f2a3 9a3d 7b6c 6739 80ec 1f3d
00000010: be69 fa3c 9264 013d 0be2 833d e4f0 043c
00000020: f6be 103e 03c6 fb3d a2e9 c939 5412 823d
00000030: dbb1 4b3d 108a 523d 61ee d63d 5b79 573c
00000040: aa51 363e 688e 1e3e a2bf f939 cada a33d
00000050: 464c 803d 0b9a 843d 8153 073e ede3 873c
00000060: 495f ec3d cc7a cd3d f8e0 9639 eb85 543d
00000070: 7e62 263d 41f1 2b3d 8f36 af3d ffd4 303c
00000080: 2e41 583c 73cb 3b3c 041d f237 5980 c23b
00000090: 3e3a 983b bb52 9d3b f1dc 1f3c c7b9 a13a
000000a0: 9566 623f 560a 453f c288 2b3b 4d57 cb3e
000000b0: 5a40 9f3e 37a0 a43e 386f 283f c2e3 a73d
000000c0: 33bf 4d3d 99b6 323d 5e5a c038 1541 b93c
000000d0: 6d01 913c b0c4 953c 06fc 173d e565 9c3b
000000e0: 5dbf 313b 4825 1a3b 831c d536 56c3 9f3a
000000f0: 29fb 793a f148 813a 7936 033b 0269 8239

exp_avg f4 [8]
-0.0020836953 0.003001891 -0.0034302808 0.002575623 0.00015963573 0.0089111095 -0.001372682 0.00048642533
00000000: 9b8e 08bb 60bb 443b 90ce 60bb c9cb 283b
00000010: e463 2739 e7ff 113c 91eb b3ba e706 ff39

exp_avg_sq f4 [8]
0.0007409622 0.0012574301 0.0015705966 0.0009771637 0.00010283535 0.008316762 0.00036664252 2.1811735e-05
00000000: 223d 423a 5ad0 a43a 7adc cd3a 2c14 803a
00000010: 4fa9 d738 0743 083c ed39 c039 58f8 b637

exp_avg f4 [1, 8]
0.0245365 0.005502334 0.008347069 -0.017813345 -0.016838374 0.004528154 -0.0015722691 0.013069873
00000000: c500 c93c ec4c b43b 25c2 083c 4bed 91bc
00000010: a1f0 89bc e960 943b 9914 ceba 0523 563c

exp_avg_sq f4 [1, 8]
5.4347286 2.4651916 5.3131337 3.8599892 0.813913 15.478535 2.211983 0.6283974
00000000: 4ce9 ad40 b3c5 1d40 3105 aa40 100a 7740
00000010: 9a5c 503f 14a8 7741 2191 0d40 a7de 203f
