trained_models/binaries/model_up.pth (torch, 23501 bytes, 45 tensors)

l1_1.weight f4 [8, 6]
-0.0007632119 0.55486673 0.11422345 -0.3030777 -1.1144699 0.081452005 0.04089411 0.061547417
0.28066957 0.30107763 -1.5144718 0.46224084 -0.26743284 -0.5478693 0.09679934 -0.42410862
1.4678192 -0.3936365 0.0028995262 -0.4466346 0.08037765 -0.08129075 0.34819558 0.068440884
-0.013727628 -0.01230433 -0.012748468 -0.36144146 0.20288923 0.05507339 -0.13283068 0.5674199
-0.017340468 0.29358807 -1.6859378 -0.09111202 0.03358851 -0.09774729 0.2532376 0.3068681
1.3305115 0.13745958 -0.050733823 -0.6678298 0.16639225 0.46311608 1.1483496 0.21968828
00000000: 4912 48ba bf0b 0e3f fced e93d 002d 9bbe
00000010: f3a6 8ebf 4fd0 a63d 9580 273d 2519 7c3d
00000020: ecb3 8f3e d926 9a3e 36da c1bf d5aa ec3e
00000030: f5ec 88be 2a41 0cbf bb3e c63d c424 d9be
00000040: 80e1 bb3f b98a c9be fa05 3e3b 4aad e4be
00000050: 0a9d a43d c47b a6bd b146 b23e bc2a 8c3d
00000060: d8e9 60bc 1a98 49bc f3de 50bc db0e b9be
00000070: 32c2 4f3e a394 613d c404 08be 6e42 113f
00000080: 990d 8ebc 2d51 963e cfcc d7bf f098 babd
00000090: 1b94 093d bb2f c8bd 5ca8 813e d11d 9d3e
000000a0: 334e aa3f 34c2 0c3e 45ce 4fbd e5f6 2abf
000000b0: bb62 2a3e 8d1d ed3e 1ffd 923f f7f5 603e

l1_1.bias f4 [8]
-0.5838299 -0.8063964 0.5497233 -0.12938344 0.00209289 -0.055281553 0.39878464 0.43842992
00000000: e075 15bf ff6f 4ebf abba 0c3f 187d 04be
00000010: de28 093b e96e 62bd 802d cc3e e379 e03e

l1_2.weight f4 [8, 8]
-0.26980987 -0.07981939 -0.15648383 -0.150791 0.18649477 0.23200022 0.1455658 0.011194285
-0.22089846 -0.6057051 0.48863646 0.097277775 0.20727508 -0.91397625 0.45047122 0.60915315
0.6980331 0.036285188 0.19272837 -0.14122391 -0.23780221 -0.32883197 0.08136201 -0.1616005
0.20410545 0.6536656 -0.2546141 -0.15586516 -0.24565628 0.6151309 -0.19657023 -0.09139999
-0.30010912 0.31202403 -0.007300895 -0.09977981 0.09741953 0.02044014 0.1875674 -0.3349785
0.24704647 0.3660159 -0.49612296 0.03423773 0.19466874 0.71083033 -0.7504977 -0.63265
0.59164095 -0.16389543 0.023130855 -0.25090435 -0.3391491 -0.19640838 -0.105018504 0.18637146
0.2684637 -0.44977224 0.19242689 -0.34718037 -0.20132273 -0.75690854 0.07277362 0.2619363
00000000: 8524 8abe 5978 a3bd 4c3d 20be f568 1abe
00000010: 7cf8 3e3e 7791 6d3e 330f 153e 3c68 373c
00000020: 3533 62be 7d0f 1bbf 8f2e fa3e 9239 c73d
00000030: eb3f 543e 59fa 69bf 2aa4 e63e 76f1 1b3f
00000040: 4cb2 323f c79f 143d 965a 453e 009d 10be
00000050: 6c82 73be aa5c a8be 20a1 a63d 9a7a 25be
00000060: 0501 513e a156 273f c85c 82be 1e9b 1fbe
00000070: 528d 7bbe 3879 1d3f b549 49be eb2f bbbd
00000080: e7a7 99be 9dc1 9f3e 593c efbb 5b59 ccbd
00000090: e483 c73d 1572 a73c ab11 403e 4d82 abbe
000000a0: c0f9 7c3e 7066 bb3e d403 febe dd3c 0c3d
000000b0: 3e57 473e faf8 353f 9e20 40bf 5af5 21bf
000000c0: c875 173f 34d4 27be eb7c bd3c 8976 80be
000000d0: f3a4 adbe 471f 49be f113 d7bd 29d8 3e3e
000000e0: 1374 893e 8c48 e6be 8e0b 453e a0c1 b1be
000000f0: 8c27 4ebe c2c4 41bf 560a 953d 841c 863e

l1_2.bias f4 [8]
-0.031343855 0.12504488 0.114796266 -0.30111134 -0.037628368 -0.17836788 0.07613172 0.14623596
00000000: 6a62 00bd c40b 003e 4e1a eb3d 442b 9abe
00000010: 3420 1abd 12a6 36be f2ea 9b3d e1be 153e

l1_4.weight f4 [1, 8]
4.172992e-05 0.4044819 0.0040092557 -0.17625475 -0.0125707025 -0.5228744 0.0031905442 0.15370333
00000000: 2907 2f38 4018 cf3e 1360 833b 207c 34be
00000010: 59f5 4dbc 19db 05bf 7318 513b 6864 1d3e

l2_1.weight f4 [8, 6]
0.31462607 -0.11145871 -0.39182636 1.7571828 -0.45079657 0.48245248 0.21970801 -0.4449113
-0.52516586 1.4802891 -0.39854032 0.16157714 -0.06395966 -0.29673722 0.10660988 1.8819581
-0.3424929 0.21780929 0.1390138 0.21216296 0.00015014168 -1.7664926 0.43494162 -0.4306662
-0.12835701 -0.46792772 0.087489545 0.98777306 0.27351826 0.05449433 -0.10208862 -0.3803136
-0.42187652 1.3532972 -0.17901576 0.102541395 0.020591674 -0.022199264 0.38399544 -1.8359761
0.5623957 -0.77717906 -0.019520978 -0.6648228 0.07149949 0.4288059 0.2438667 -0.0054985695
00000000: ab16 a13e 7744 e4bd 779d c8be 5eeb e03f
00000010: cfce e6be 0304 f73e 23fb 603e 6acb e3be
00000020: 4571 06bf 1d7a bd3f 7a0d ccbe 7a74 253e
00000030: 48fd 82bd f1ed 97be 4856 da3d 01e4 f03f
00000040: 3b5b afbe 6609 5f3e a259 0e3e 3f41 593e
00000050: 5a6f 1d39 6e1c e2bf abb0 de3e 4880 dcbe
00000060: 0570 03be 3994 efbe b82d b33d b2de 7c3f
00000070: 960a 8c3e 7235 5f3d d713 d1bd 77b8 c2be
00000080: 3300 d8be d838 ad3f e84f 37be 3901 d23d
00000090: dfaf a83c 3bdb b5bc 0d9b c43e 4401 ebbf
000000a0: 2af9 0f3f 35f5 46bf 75ea 9fbc d431 2abf
000000b0: 536e 923d 728c db3e 31b8 793e 582d b4bb

l2_1.bias f4 [8]
0.22442037 0.36754763 0.4832547 -0.67468435 0.31156504 0.5446222 -0.4392197 0.018929927
00000000: 74ce 653e 342f bc3e 296d f73e 1db8 2cbf
00000010: 7485 9f3e 5c6c 0b3f 68e1 e0be ef12 9b3c

l2_2.weight f4 [8, 8]
-0.33193952 -0.16274874 -0.57502943 0.24499087 -0.047054537 -0.042819966 0.10881351 0.24390465
-0.14447275 0.26979157 -0.108934015 -0.11956409 -0.12599036 0.0767315 0.27494934 -0.015474068
0.23789506 0.10911283 0.2875221 -0.045259133 0.11802819 0.16062054 -0.17907202 0.14677787
-0.25386855 -0.038979366 -0.22844565 0.41324764 -0.018017143 0.3321468 0.28151405 0.19174317
0.31355798 0.32826403 0.57248694 -0.58871436 -0.009553097 0.0020114616 -0.4314445 0.15001565
-0.1401526 -0.11001803 -0.17169656 -0.11926578 -0.15005526 0.041622818 -0.132746 -0.10959309
-0.09777235 0.5294963 0.28788185 -0.4904256 -0.15426026 0.051702693 -0.35075286 0.004821791
-0.08550737 0.1970244 0.0022758225 -0.16697142 0.06195825 -0.008215498 -0.1875477 -0.17924975
00000000: faf3 a9be 9ba7 26be 2135 13bf e3de 7a3e
00000010: 42bc 40bd fd63 2fbd 9ed9 de3d 24c2 793e
00000020: aaf0 13be 1f22 8a3e cc18 dfbd 05de f4bd
00000030: 9e03 01be 6825 9d3d 29c6 8c3e f286 7dbc
00000040: c39a 733e 8c76 df3d 1936 933e a461 39bd
00000050: c4b8 f13d b679 243e a85e 37be f04c 163e
00000060: 0ffb 81be d4a8 1fbd a8ed 69be 3295 d33e
00000070: b098 93bc 250f aa3e 9c22 903e 5258 443e
00000080: ac8a a03e 3912 a83e 818e 123f fcb5 16bf
00000090: 9884 1cbc bad2 033b 4be6 dcbe b49d 193e
000000a0: 2a84 0fbe 2251 e1bd 39d1 2fbe 9e41 f4bd
000000b0: 16a8 19be b07c 2a3d 91ee 07be 5872 e0bd
000000c0: df3c c8bd 128d 073f 4065 933e 1019 fbbe
000000d0: 67f6 1dbe 34c6 533d e195 b3be 1d00 9e3b
000000e0: 7d1e afbd c4c0 493e f725 153b 8efa 2abe
000000f0: efc7 7d3d 4c9a 06bc 810c 40be 3f8d 37be

l2_2.bias f4 [8]
-0.41680595 -0.16955884 0.337327 -0.21841465 0.586769 -0.0045510535 0.12012743 0.049816437
00000000: 9767 d5be d5a0 2dbe 20b6 ac3e 17a8 5fbe
00000010: 7e36 163f 0121 95bb 5f05 f63d 520c 4c3d

l2_4.weight f4 [1, 8]
-0.25311768 -0.12798883 0.25793195 -0.22683723 0.70813197 -0.0103544565 0.36856484 0.05478596
00000000: a498 81be 810f 03be a80f 843e 0548 68be
00000010: 2348 353f bda5 29bc 88b4 bc3e 3e67 603d

l3_1.weight f4 [8, 6]
0.1827785 -0.37947398 -0.41982216 0.2003566 -0.05301772 1.134993 0.00287733 -0.2495321
0.033371188 0.13807614 -0.18727387 0.08428461 -0.17905517 0.10677335 0.29564458 -0.045757633
-0.021899909 1.2510408 -0.07413265 -0.19748674 0.48159477 0.11725099 0.29305944 0.5758683
0.0054326747 -0.3172024 -0.03395435 0.04536681 -0.039075896 -0.06596938 0.0024609747 0.3502186
0.11329054 -0.11817979 0.071092844 0.5176482 0.09426128 0.03651243 0.020216295 0.26319262
0.34636277 -0.83371884 0.061990924 0.062028985 -0.09798496 -0.598905 0.5142599 0.9466433
00000000: 492a 3b3e 6a4a c2be eef2 d6be 482a 4d3e
00000010: 1c29 59bd 7347 913f 9691 3c3b 5885 7fbe
00000020: 3ab0 083d d563 0d3e b9c4 3fbe 699d ac3d
00000030: 3d5a 37be fcab da3d ba5e 973e 5b6c 3bbd
00000040: 7067 b3bc 1b22 a03f dcd2 97bd f739 4abe
00000050: 9793 f63e 4921 f03d e30b 963e 1b6c 133f
00000060: 9404 b23b 5a68 a2be b713 0bbd 8cd2 393d
00000070: 0c0e 20bd f41a 87bd 4e48 213b da4f b33e
00000080: df04 e83d 3f08 f2bd 2099 913d 9884 043f
00000090: 0f0c c13d 0f8e 153d a59c a53c 2fc1 863e
000000a0: 7656 b13e 996e 55bf 32ea 7d3d 1b12 7e3d
000000b0: 57ac c8bd d751 19bf 89a6 033f 3757 723f

l3_1.bias f4 [8]
0.26939002 -0.20400314 0.055171877 -0.12398442 -0.14688183 0.110290475 0.06586953 -0.023076674
00000000: 7ded 893e 33e6 50be e8fb 613d 8beb fdbd
00000010: 3168 16be f9df e13d 9be6 863d 4b0b bdbc

l3_2.weight f4 [8, 8]
0.011011171 0.24927609 0.24011843 -0.16292185 -0.056392744 0.17006716 0.1607353 -0.09312973
0.2581012 0.4249111 0.6098589 -0.27580518 -0.06366334 -0.20675778 0.11902126 0.30974695
-0.23677567 -0.2464384 -0.2573491 -0.33454806 -0.13625303 -0.09745639 0.030644426 -0.29336312
0.3203177 0.16021512 0.52030647 0.25208881 -0.22131264 0.16445845 -0.280874 0.3914056
-0.451556 0.105254054 -0.3847537 0.022007821 -0.3388682 -0.21733421 0.18819886 -0.14980835
0.49043286 -0.2610295 -0.023864249 0.21524148 -0.14359283 -0.2391349 -0.3325003 0.26734352
0.24706012 -0.15403734 0.41492063 -0.07809665 0.1306149 0.08345907 0.096752524 0.07199464
-0.091625564 -0.35605666 -0.04338676 -0.2453302 0.29445305 0.013173568 0.2550976 -0.38347217
00000000: 3368 343c 3b42 7f3e 9be1 753e fcd4 26be
00000010: 14fc 66bd 1626 2e3e cb97 243e cdba bebd
00000020: d725 843e f38d d93e b61f 1c3f 5636 8dbe
00000030: ed61 82bd 50b8 53be 6bc1 f33d 2797 9e3e
00000040: 5275 72be 595a 7cbe 43c3 83be e249 abbe
00000050: ea85 0bbe 3797 c7bd 050a fb3c b133 96be
00000060: ae00 a43e 6f0f 243e ce32 053f c911 813e
00000070: c89f 62be cc67 283e b8ce 8fbe 5166 c83e
00000080: 5932 e7be 708f d73d 70fe c4be bf49 b43c
00000090: 2280 adbe dc8c 5ebe 34b7 403e 5c67 19be
000000a0: 041a fb3e a9a5 85be f57e c3bc 4368 5c3e
000000b0: 000a 13be c7df 74be 7b3d aabe 40e1 883e
000000c0: 54fd 7c3e f7bb 1dbe 7a70 d43e 23f1 9fbd
000000d0: eabf 053e 97ec aa3d 3026 c63d ed71 933d
000000e0: 2fa6 bbbd 0f4d b6be 51b6 31bd d737 7bbe
000000f0: 8dc2 963e f3d5 573c 279c 823e 7756 c4be

l3_2.bias f4 [8]
0.011404655 0.18137057 -0.047192145 0.31417745 0.11079025 -0.104062766 0.058382686 -0.055499207
00000000: 97da 3a3c 35b9 393e 8d4c 41bd dedb a03e
00000010: 00e6 e23d dc1e d5bd af22 6f3d 2353 63bd

l3_4.weight f4 [1, 8]
-0.006972779 0.12153708 0.099148974 0.29233226 -0.2300911 0.116200216 -0.07758213 0.09781623
00000000: e97b e4bb 6fe8 f83d 9e0e cb3d 93ac 953e
00000010: 009d 6bbe 61fa ed3d 61e3 9ebd e053 c83d

exp_avg f4 [8, 6]
-0.03099842 0.014981509 -0.024548458 0.012740333 0.017663248 0.008263787 -0.09597243 0.04615992
-0.07567313 0.039244287 0.054502375 0.025379796 0.08212748 -0.03945512 0.06468858 -0.03354032
-0.046607595 -0.021667428 -0.0010059264 0.00043436314 -0.0007193184 0.00036570267 0.0005293821 0.0002246733
-0.0017466863 0.0007672297 -0.0012687778 0.00064805144 0.00092396623 0.00040815966 -0.14913547 0.07163733
-0.11745472 0.060899142 0.08461661 0.039352503 0.09505037 -0.045678042 0.0748889 -0.038830563
-0.053953625 -0.02509127 0.09801268 -0.04713328 0.07726967 -0.04006882 -0.055666234 -0.025893534
00000000: 66f0 fdbc 0175 753c d919 c9bc d4bc 503c
00000010: 84b2 903c d664 073c 328d c4bd 2f12 3d3d
00000020: 84fa 9abd 9ebe 203d e23d 5f3d 4ae9 cf3c
00000030: 7432 a83d b19b 21bd 727b 843d 9361 09bd
00000040: 9be7 3ebd e47f b1bc 4ad9 83ba 3cbb e339
00000050: a490 3cba c8bb bf39 3bc6 0a3a 4896 6b39
00000060: 11f1 e4ba ea1f 493a 1e4d a6ba ffe1 293a
00000070: 5336 723a 43fe d539 f8b6 18be 98b6 923d
00000080: 1a8c f0bd 6171 793d 794b ad3d 1730 213d
00000090: c5a9 c23d e618 3bbd 5a5f 993d cc0c 1fbd
000000a0: 7afe 5cbd 358c cdbc dfba c83d d40e 41bd
000000b0: 903f 9e3d 341f 24bd 4702 64bd ad1e d4bc

exp_avg_sq f4 [8, 6]
0.045235965 0.0019962722 0.005587007 0.0015732797 0.0027402083 0.0016258924 0.405713 0.017147118
0.048001304 0.013516607 0.023546606 0.014497806 0.28528064 0.011995331 0.033577617 0.009450021
0.01648417 0.010112586 0.0001505945 6.68748e-06 1.8533523e-05 5.2542946e-06 9.292074e-06 5.5361056e-06
0.00016111373 8.389041e-06 2.3091314e-05 6.578511e-06 1.1694079e-05 8.265766e-06 0.9494995 0.04027354
0.11276485 0.031731267 0.055334028 0.033488214 0.37673318 0.016027076 0.044878557 0.012621498
0.022028621 0.013229712 0.40820125 0.01723025 0.04822981 0.013563545 0.023689408 0.014269274
00000000: 5949 393d e4d3 023b 3613 b73b 8236 ce3a
00000010: 1195 333b e51b d53a 9db9 cf3e 1d78 8c3c
00000020: 049d 443d c274 5d3c d0e4 c03c 3588 6d3c
00000030: 4e10 923e 1188 443c af88 093d 43d4 1a3c
00000040: cf09 873c 43af 253c e7e8 1d39 0465 e036
00000050: 7078 9b37 0c4e b036 27e5 1b37 c9c2 b936
00000060: a3f0 2839 a8be 0c37 38b4 c137 fbbc dc36
00000070: b031 4437 32ad 0a37 6612 733f def5 243d
00000080: 42f1 e63d a5f8 013d efa5 623d f02a 093d
00000090: 2ce3 c03e 374b 833c 94d2 373d 66ca 4e3c
000000a0: 5e75 b43c 6fc1 583c c1ff d03e 7426 8d3c
000000b0: 9f8c 453d a239 5e3c 4a10 c23c acc9 693c

exp_avg f4 [8]
-0.02752732 -0.08481515 0.072495624 -0.0007981075 -0.0014097231 -0.13162787 0.08392975 0.086603634
00000000: f980 e1bc 91b3 adbd 9678 943d 1638 51ba
00000010: 75c6 b8ba 75c9 06be 5ce3 ab3d 3f5d b13d

exp_avg_sq f4 [8]
0.0067396336 0.057890676 0.040497478 2.2577646e-05 2.8322367e-05 0.13596801 0.054109294 0.058171324
00000000: 25d8 dc3b c61e 6d3d afe0 253d 2065 bd37
00000010: d295 ed37 333b 0b3e b5a1 5d3d 0e45 6e3d

exp_avg f4 [8, 8]
4.9050464e-06 1.3539362e-05 -1.2451701e-05 -1.9720253e-06 -1.8621164e-06 1.9730356e-05 -1.4950068e-05 -8.251697e-06
0.0020783122 0.0078771915 0.00064918597 -0.0013097295 -0.00037642883 0.02396292 -0.017185215 -0.006321639
3.821448e-05 0.00012561421 -3.7748232e-05 -1.9122657e-05 -9.114235e-06 0.00030434786 -0.00022262547 -9.229064e-05
-0.000885374 -0.003386215 -0.0003231494 0.0005644459 0.00015920094 -0.010384639 0.0074462956 0.002730722
-5.4438184e-05 -0.0002217403 -4.689811e-05 3.783073e-05 8.756391e-06 -0.0007243499 0.00051794335 0.00018471284
-0.0026988618 -0.010215304 -0.00081351225 0.0016975581 0.0004901049 -0.031026531 0.022252515 0.008191233
2.9823852e-05 9.898932e-05 -2.6553964e-05 -1.5425805e-05 -7.29466e-06 0.0002450217 -0.00017845815 -7.299579e-05
0.00076629565 0.002932842 0.0002924283 -0.0004893161 -0.00013686575 0.009013096 -0.006461567 -0.0023671403
00000000: 0796 a436 1e27 6337 a6e7 50b7 2357 04b6
00000010: d5ed f9b5 9e82 a537 0ed2 7ab7 c570 0ab7
00000020: 4b34 083b 560f 013c 222e 2a3a 3bab abba
00000030: 6c5b c5b9 e34d c43c 02c8 8cbc c025 cfbb
00000040: 7c48 2038 4fb7 0339 db53 1eb8 9869 a0b7
00000050: 57e9 18b7 e190 9f39 9270 69b9 298c c1b8
00000060: 7118 68ba 43eb 5dbb 616c a9b9 53f7 133a
00000070: 2def 2639 5524 2abc 0e00 f43b eaf5 323b
00000080: 8e54 64b8 f582 68b9 76b4 44b8 70ac 1e38
00000090: 6ae8 1237 4de2 3dba 97c6 073a 7aaf 4139
000000a0: 63df 30bb 175e 27bc e241 55ba 9980 de3a
000000b0: 627a 003a 5a2b febc e84a b63c 8534 063c
000000c0: 3c2e fa37 7d98 cf38 34c0 deb7 aa66 81b7
000000d0: a7c4 f4b6 4276 8039 7f20 3bb9 5115 99b8
000000e0: 3be1 483a ec34 403b 1051 9939 7345 00ba
000000f0: 9f83 0fb9 aaab 133c 8dbb d3bb 0622 1bbb

exp_avg_sq f4 [8, 8]
8.9765614e-08 8.965261e-07 5.36709e-06 9.216474e-08 8.633636e-08 2.4396031e-06 7.5316376e-07 3.336204e-07
0.00030148742 0.0025913739 0.010269944 0.00015986028 0.00014450532 0.0067318724 0.002551349 0.0008499912
8.703185e-08 5.6055325e-07 3.0464957e-06 1.1886375e-07 5.5004637e-08 2.0442599e-06 7.549495e-07 2.109109e-07
6.230556e-05 0.00053801516 0.0021380808 3.391155e-05 3.0505516e-05 0.0013977401 0.0005291964 0.00017680148
9.1346413e-07 8.675136e-06 4.0983352e-05 9.375166e-07 5.0851617e-07 2.2057895e-05 7.6031233e-06 2.9301225e-06
0.0005009099 0.004300894 0.017109303 0.00026565648 0.00024003263 0.011196108 0.004239017 0.0014124542
6.540618e-08 5.05482e-07 3.7399852e-06 6.907676e-08 4.284407e-08 1.8733123e-06 5.946562e-07 2.1560909e-07
4.560001e-05 0.0003934804 0.0015758141 2.5006007e-05 2.2326758e-05 0.0010266746 0.00038789999 0.00012966031
00000000: 2bc5 c033 cea8 7035 f416 b436 1aec c533
00000010: ea67 b933 10b8 2336 052d 4a35 701c b334
00000020: f510 9e39 0ad4 293b 4443 283c 2ba0 2739
00000030: 5a86 1739 0a97 dc3b 8934 273b f2d1 5e3a
00000040: 44e6 ba33 ed78 1635 6672 4c36 0a42 ff33
00000050: 3d3e 6c33 1e30 0936 bca7 4a35 bf76 6234
00000060: 0baa 8238 9609 0d3a 0b1f 0c3b 403c 0e38
00000070: 19e6 ff37 6034 b73a c5b9 0a3a c963 3939
00000080: c734 7535 6d8b 1137 8ae5 2b38 a6a9 7b35
00000090: f780 0835 f808 b937 551e ff36 1fa3 4436
000000a0: 7f4f 033a 84ee 8c3b cf28 8c3c cf47 8b39
000000b0: 45b1 7b39 e16f 373c 74e7 8a3b 1922 b93a
000000c0: 6d75 8c33 75b0 0735 75fc 7a36 5a57 9433
000000d0: 8e03 3833 856e fb35 77a0 1f35 2d82 6734
000000e0: a342 3f38 0c4c ce39 8c8b ce3a fec3 d137
000000f0: 594a bb37 7c91 863a 0e5f cb39 6df5 0739

exp_avg f4 [8]
4.1622076e-05 0.05513855 0.00069745374 -0.023935087 -0.0016815035 -0.07137995 0.00055818737 0.020769099
00000000: 5d93 2e38 f6d8 613d 54d5 363a 8413 c4bc
00000010: e565 dcba a72f 92bd 5253 123a f523 aa3c

exp_avg_sq f4 [8]
6.6353637e-06 0.0232922 7.1147606e-06 0.0048352517 6.765782e-05 0.03869646 5.463189e-06 0.0035427858
00000000: 57a5 de36 49cf be3c 54bb ee36 0871 9e3b
00000010: 84e3 8d38 2e80 1e3d 7050 b736 152e 683b

exp_avg f4 [1, 8]
0.0002882092 -0.07847564 0.0011645682 0.018906567 -0.0022722622 0.0668267 0.0018693074 -0.03749832
00000000: c91a 9739 d6b7 a0bd 6da4 983a f2e1 9a3c
00000010: 3cea 14bb 70dc 883d 8c03 f53a d797 19bd

exp_avg_sq f4 [1, 8]
0.00048869173 0.073819466 0.00027426143 0.019124908 0.0016823565 0.05522543 0.00048369216 0.017623205
00000000: 8c1b 003a a92e 973d bfca 8f39 d7ab 9c3c
00000010: 8482 dc3a 0f34 623d 1098 fd39 8a5e 903c

exp_avg f4 [8, 6]
-0.068295136 0.07166052 -0.11218125 0.055953607 0.084557734 0.023298258 -0.08159718 0.08562917
-0.1340491 0.06686565 0.10104058 0.02783787 -0.1347494 0.14117675 -0.22102267 0.11023935
0.16660532 0.045898207 0.12780598 -0.13390009 0.2096288 -0.10455156 -0.15801877 -0.04353247
-0.0010245102 0.0007593735 -0.0012273464 0.00062206574 0.00089249684 0.00027601447 0.0017900775 -0.0020969424
0.0032518727 -0.0016115599 -0.0024873272 -0.0006526606 0.10415336 -0.10915519 0.17088772 -0.08522969
-0.12880757 -0.035493016 -0.005522604 0.0057459176 -0.008998278 0.0044909585 0.0067918166 0.0018612928
00000000: 52de 8bbd c0c2 923d 48bf e5bd 9c2f 653d
00000010: 9b2c ad3d fddb be3c 6c1c a7bd 595e af3d
00000020: 2b44 09be dcf0 883d 5dee ce3d 3f0c e43c
00000030: bffb 09be a390 103e c453 62be 2bc5 e13d
00000040: 969a 2a3e c2ff 3b3d 92df 023e 1b1d 09be
00000050: efa8 563e 211f d6bd accf 21be 1a4f 32bd
00000060: dc48 86ba b110 473a e9de a0ba 2012 233a
00000070: 73f6 693a 09b6 9039 09a1 ea3a db6c 09bb
00000080: 5f1d 553b fa3a d3ba 6d02 23bb 5017 2bba
00000090: 5b4e d53d c28c dfbd 31fd 2e3e e78c aebd
000000a0: 22e6 03be 2061 11bd f6f6 b4bb 4048 bc3b
000000b0: 836d 13bc e428 933b e38d de3b 9ff6 f33a

exp_avg_sq f4 [8, 6]
0.32468006 0.030490438 0.102016896 0.02887822 0.037490383 1.8373128 0.42985296 0.040651675
0.13488996 0.038172062 0.05014808 2.3363643 1.198687 0.11356818 0.376239 0.106447
0.1402021 6.4585404 1.1044503 0.104540356 0.3471505 0.0982188 0.12894292 6.025413
0.000986733 9.762568e-05 0.00028835816 8.095288e-05 0.00012638533 0.0016798683 0.0014071614 0.0001280641
0.00037501703 0.00010151844 0.0001697494 0.0010861593 0.7615809 0.071739614 0.23944546 0.06776841
0.08829634 4.2616763 0.0013819216 0.00014001121 0.00043121172 0.00012026394 0.00017950546 0.004163654
00000000: 773c a63e 15c7 f93c 3cee d03d 0492 ec3c
00000010: 848f 193d 112d eb3f b015 dc3e 5f82 263d
00000020: 9820 0a3e 4f5a 1c3d 1368 4d3d fe86 1540
00000030: 936e 993f 6f96 e83d 66a2 c03e e200 da3d
00000040: 2491 0f3e 5dac ce40 a15e 8d3f 4119 d63d
00000050: b6bd b13e f026 c93d 9d09 043e 2fd0 c040
00000060: 4455 813a 63bc cc38 c72e 9739 3fc5 a938
00000070: 4e86 0439 072f dc3a 8070 b83a f248 0639
00000080: ef9d c439 4ce6 d438 c2fe 3139 755d 8e3a
00000090: f7f6 423f 38ec 923d 3131 753e 2aca 8a3d
000000a0: b6d4 b43d a75f 8840 9821 b53a f9cf 1239
000000b0: 4214 e239 3636 fc38 a139 3c39 436f 883b

exp_avg f4 [8]
-0.13167048 -0.15733674 -0.259401 0.24603067 -0.0013952878 0.0038529632 0.20056394 -0.010557663
00000000: a0d4 06be e21c 21be 35d0 84be 77ef 7b3e
00000010: 17e2 b6ba ff81 7c3b a260 4d3e 0cfa 2cbc

exp_avg_sq f4 [8]
0.10293921 0.13724464 0.38341907 0.35293996 0.00032959515 0.0004323585 0.24220116 0.00047269335
00000000: cbd1 d23d dc89 0c3e 814f c43e 8cb4 b43e
00000010: 83cd ac39 2dae e239 9503 783e d4d3 f739

exp_avg f4 [8, 8]
-0.035838086 -0.010995604 0.00622566 -0.013322431 -0.0026308466 -0.011095355 0.039060377 0.006896186
-0.018137297 -0.005564433 0.003150528 -0.0067414977 -0.0013316723 -0.005616094 0.019769982 0.0034904883
0.03652721 0.011207207 -0.0063446583 0.013577548 0.0026817757 0.011309374 -0.03981226 -0.007028764
-0.032139808 -0.0098609915 0.005584043 -0.011948358 -0.0023577905 -0.009948725 0.035028186 0.006184924
0.100323096 0.030777412 -0.017438138 0.037305932 0.00735673 0.031050593 -0.109337404 -0.019308113
-0.0014840274 -0.00045924957 0.000255988 -0.0005509355 -0.000105083665 -0.00045340735 0.0016061533 0.00028365856
0.052234102 0.016026134 -0.009074382 0.019417156 0.0038327763 0.016170513 -0.056930784 -0.0100520495
0.0077762688 0.002387219 -0.0013453166 0.0028832084 0.00057420705 0.002412695 -0.008480816 -0.0014955682
00000000: f5ca 12bd e826 34bc 9f00 cc3b 5346 5abc
00000010: 486a 2cbb 4bc9 35bc c6fd 1f3d 67f9 e13b
00000020: ab94 94bc d955 b6bb 1779 4e3b c8e7 dcbb
00000030: 828b aeba 3607 b8bb a8f4 a13c adc0 643b
00000040: 8e9d 153d 6f9e 373c dae6 cfbb 5d74 5e3c
00000050: bbc0 2f3b f44a 393c 2e12 23bd 8c51 e6bb
00000060: 08a5 03bd ff8f 21bc 59fa b63b 0cc3 43bc
00000070: 2985 1abb faff 22bc b779 0f3d e7aa ca3b
00000080: 3276 cd3d e920 fc3c 6dda 8ebc 1bce 183d
00000090: b910 f13b d05d fe3c 4aec dfbd 0c2c 9ebc
000000a0: b283 c2ba 6fc7 f0b9 2136 8639 a86c 10ba
000000b0: 5d60 dcb8 4eb7 edb9 9085 d23a 02b8 9439
000000c0: 6df3 553d 3d49 833c b7ac 14bc ba10 9f3c
000000d0: 512f 7b3b 0678 843c 4130 69bd 5ab1 24bc
000000e0: 12d0 fe3b e472 1c3b 5655 b0ba 36f4 3c3b
000000f0: 6286 163a 4e1e 1e3b 1ff3 0abc f106 c4ba

exp_avg_sq f4 [8, 8]
0.14558896 0.01908926 0.026075508 0.10721362 0.0025029017 0.007651673 0.30682045 0.003248788
0.04600249 0.005996365 0.008311851 0.034110367 0.0007690878 0.0024034544 0.09718809 0.0009860587
0.15078841 0.019775065 0.027009554 0.11104011 0.0025964612 0.007936051 0.317765 0.0033613194
0.121710606 0.015937459 0.021838196 0.089755945 0.0020804612 0.0063899956 0.2566391 0.0026953008
1.0434768 0.1374593 0.1861677 0.765486 0.01846261 0.05556761 2.195542 0.023626134
0.00054525345 6.9146074e-05 9.41462e-05 0.00039906474 7.9253105e-06 2.0786161e-05 0.0011558037 1.642786e-05
0.2984909 0.039215006 0.053376984 0.21946587 0.0051955474 0.015772669 0.62863 0.0066990857
0.012094375 0.0015633632 0.0022068 0.009045896 0.00019110568 0.0006179776 0.025630053 0.00024683264
00000000: 4615 153e 1461 9c3c 4e9c d53c d092 db3d
00000010: b907 243b e3ba fa3b 9217 9d3e 9ee9 543b
00000020: 1b6d 3c3d 287d c43b 6e2e 083c 50b7 0b3d
00000030: 9c9c 493a 4683 1d3b 8d0a c73d a43e 813a
00000040: 4768 1a3e 51ff a13c 2443 dd3c ff68 e33d
00000050: 6429 2a3b 3606 023c 18b2 a23e 9549 5c3b
00000060: 6943 f93d 468f 823c 04e6 b23c f7d1 b73d
00000070: 5958 083b 2b63 d13b 3366 833e a5a3 303b
00000080: a690 853f 21c2 0c3e bfa2 3e3e e4f6 433f
00000090: e63e 973c dd9a 633d c383 0c40 988b c13c
000000a0: 57ef 0e3a 8402 9138 5b70 c538 9039 d139
000000b0: f3f6 0437 f15d ae37 567e 973a 90ce 8937
000000c0: cdd3 983e ea9f 203d d3a1 5a3d a9bb 603e
000000d0: 693f aa3b af35 813c e5ed 203f 0184 db3b
000000e0: 7c27 463c c4e9 cc3a f69f 103b 3d35 143c
000000f0: 8a63 4839 c6ff 213a 1ef6 d13c 5169 8139

exp_avg f4 [8]
0.08218197 0.041592777 -0.08376162 0.07369913 -0.2300632 0.0033810118 -0.11977852 -0.0178281
00000000: 054f a83d 305d 2a3d 368b abbd 92ef 963d
00000010: b095 6bbe f793 5d3b 714e f5bd 3c0c 92bc

exp_avg_sq f4 [8]
0.03784282 0.0110375015 0.03922282 0.031147774 0.28403565 0.00014470538 0.079111606 0.0025686934
00000000: 1301 1b3d a3d6 343c 1ca8 203d 9e29 ff3c
00000010: 1f6d 913e 0ebc 1739 4405 a23d 8657 283b

exp_avg f4 [1, 8]
0.08145338 0.0016990277 -0.047573343 0.025264643 -0.11341383 -0.0022414224 -0.006960172 0.0064605363
00000000: 08d1 a63d e9b1 de3a 44dc 42bd ccf7 ce3c
00000010: 8345 e8bd d4e4 12bb 2812 e4bb e8b2 d33b

exp_avg_sq f4 [1, 8]
2.9337606 0.51646113 1.5322824 2.9143486 7.917745 0.10715165 3.0909731 0.54791176
00000000: bcc2 3b40 cc36 043f d421 c43f b084 3a40
00000010: 2b5e fd40 5372 db3d 81d2 4540 f243 0c3f

exp_avg f4 [8, 6]
0.004663653 0.00011629122 0.00027421085 0.0001053821 0.00024637624 0.00023231201 -0.00010609503 -1.6028508e-06
-7.901885e-06 -1.3599686e-06 -4.5483253e-06 -4.115134e-06 0.0048909313 0.00013071344 0.0002749741 0.00011822733
0.00026926422 0.00024914357 0.00018998889 7.6003626e-06 6.9912444e-06 6.870302e-06 1.3473242e-05 1.1442913e-05
-0.00010282775 -4.13213e-06 -3.6851388e-06 -3.7539885e-06 -7.302385e-06 -6.34564e-06 0.0005686848 1.721806e-05
2.9029077e-05 1.5587202e-05 3.368359e-05 3.0191808e-05 -0.0025656184 -6.7481764e-05 -0.00014571431 -6.10665e-05
-0.00013990156 -0.00013037882 0.0028761523 8.1597915e-05 0.00015504962 7.378118e-05 0.0001639545 0.00014841632
00000000: 8fd1 983b 60e1 f338 f5c3 8f39 9600 dd38
00000010: 0f2c 8139 c898 7339 567f deb8 8921 d7b5
00000020: 5692 04b7 2a88 b6b5 d19d 98b6 bb14 8ab6
00000030: 1b44 a03b 1f10 0939 662a 9039 d1f0 f738
00000040: 082c 8d39 7c9f 8239 c137 4739 9e06 ff36
00000050: 5596 ea36 7287 e636 220b 6237 f0fa 3f37
00000060: 3aa5 d7b8 baa6 8ab6 344e 77b6 08ed 7bb6
00000070: 0207 f5b6 a2ec d4b6 ca13 153a 816f 9037
00000080: 7883 f337 43c1 8237 7b47 0d38 6a44 fd37
00000090: ef23 28bb ff84 8db8 e3ca 18b9 d410 80b8
000000a0: 8ab2 12b9 4cb6 08b9 d47d 3c3b 8c1f ab38
000000b0: d194 2239 f8ba 9a38 33eb 2b39 34a0 1b39

exp_avg_sq f4 [8, 6]
0.0013618668 8.04954e-05 0.00025034076 7.156941e-05 9.6902426e-05 0.00047157824 1.1168353e-05 4.7687195e-07
1.4983054e-06 4.2507435e-07 5.77169e-07 2.747698e-06 0.0014554731 8.61084e-05 0.00026787797 7.6546e-05
0.00010365179 0.0004959201 6.171515e-06 5.6248336e-07 1.6141623e-06 4.8318236e-07 6.796737e-07 1.2700779e-06
6.917405e-06 2.9210693e-07 8.951968e-07 2.572554e-07 3.546839e-07 3.142917e-07 2.1664875e-05 1.4413698e-06
4.3627806e-06 1.264268e-06 1.7406312e-06 5.3744566e-06 0.0004536007 2.6879872e-05 8.3608866e-05 2.3917977e-05
3.2337353e-05 0.00016793968 0.0005582054 3.4150104e-05 0.00010571417 3.032278e-05 4.109857e-05 0.00020538748
00000000: ab80 b23a a4cf a838 2b40 8339 8917 9638
00000010: 1838 cb38 293e f739 b65f 3b37 6402 0035
00000020: 6219 c935 c635 e434 c0ee 1a35 1865 3836
00000030: 93c5 be3a 1895 b438 f971 8c39 5287 a038
00000040: a25f d938 a200 023a e914 cf36 90fd 1635
00000050: 32a6 d835 0ab4 0135 d272 3635 8b77 aa35
00000060: 0e1c e836 dfd2 9c34 754d 7035 ea1c 8a34
00000070: 626b be34 ecbb a834 f7bc b537 1775 c135
00000080: 0064 9236 ebaf a935 a29f e935 3b56 b436
00000090: 41d1 ed39 167c e137 2b57 af38 77a3 c837
000000a0: f8a1 0738 f718 3039 8854 123a 653c 0f38
000000b0: ddb2 dd38 ad5d fe37 4161 2c38 485d 5739

exp_avg f4 [8]
-0.00021367602 2.9451185e-06 -0.00024017564 -1.3965051e-05 7.5924654e-06 -3.1636693e-05 0.00012399227 -0.00014992972
00000000: 380e 60b9 c0a4 4536 a8d7 7bb9 704b 6ab7
00000010: c8c2 fe36 a4b1 04b8 ec03 0239 7436 1db9

exp_avg_sq f4 [8]
0.00027176153 1.6099777e-06 0.00029071156 1.8990008e-06 9.861843e-07 4.8662296e-06 9.0749345e-05 0.00011529445
00000000: 377b 8e39 6a16 d835 a56a 9839 2ce1 fe35
00000010: 095d 8435 9848 a336 af50 be38 3dca f138

exp_avg f4 [8, 8]
-3.0973122e-05 2.680545e-08 1.33272315e-05 -1.4758514e-06 1.2958532e-06 -8.033393e-06 -8.832424e-06 -1.8590768e-05
0.0005201761 -1.911515e-07 -0.00019282792 3.300717e-05 -2.4204224e-05 0.00014388886 0.00013479375 0.00033722704
0.0004240978 -2.1692432e-07 -0.00015907375 2.647047e-05 -1.9645573e-05 0.00011695907 0.00011105293 0.00027429452
0.0012508776 -5.0162015e-07 -0.00046517866 7.9025565e-05 -5.8142683e-05 0.00034579574 0.00032526493 0.00081087317
-0.0009835254 3.3096816e-07 0.000363985 -6.256324e-05 4.58744e-05 -0.00027260976 -0.000255722 -0.0006406155
0.00049723446 -1.276342e-07 -0.00018384687 3.1632408e-05 -2.3186056e-05 0.00013785632 0.00012930467 0.00032416222
-0.0003317893 1.6781334e-07 0.0001246438 -2.0659689e-05 1.5365666e-05 -9.151328e-05 -8.716401e-05 -0.0002148793
0.00041852734 -2.230303e-07 -0.00015741299 2.6013959e-05 -1.9358164e-05 0.00011530557 0.00010977922 0.00027034793
00000000: 23e9 01b8 cf41 e632 0698 5f37 de15 c6b5
00000010: 2ded ad35 29c7 06b7 f92e 14b7 5ff3 9bb7
00000020: 6d5c 083a 533f 4db4 da31 4ab9 2e71 0a38
00000030: 2d0a cbb7 dfe0 1639 6c57 0d39 d9cd b039
00000040: 7159 de39 b4eb 68b4 09cd 26b9 e70c de37
00000050: 8ccc a4b7 ec47 f538 16e5 e838 30cf 8f39
00000060: 7df4 a33a 13a7 06b5 39e3 f3b9 87ba a538
00000070: 3bde 73b8 eb4b b539 5288 aa39 c790 543a
00000080: a3e9 80ba ebaf b134 3dd5 be39 6234 83b8
00000090: 4369 4038 10ed 8eb9 6d12 86b9 faee 27ba
000000a0: d758 023a d20b 09b4 05c7 40b9 0aad 0438
000000b0: ad7f c2b7 868d 1039 f595 0739 51f4 a939
000000c0: 02f4 adb9 2e30 3434 d1b2 0239 584e adb7
000000d0: 84e5 8037 d1ea bfb8 d2cb b6b8 3951 61b9
000000e0: ca6d db39 1a7a 6fb4 3a0f 25b9 8d38 da37
000000f0: 5763 a2b7 35d0 f138 4539 e638 7cbd 8d39

exp_avg_sq f4 [8, 8]
4.2535544e-06 5.558372e-08 4.9674986e-06 1.2600844e-06 8.281422e-08 9.141444e-07 2.24396e-06 2.848278e-06
0.00017440243 2.072064e-06 0.00020572676 5.3010415e-05 2.6074708e-06 3.808315e-05 9.234226e-05 0.00011851037
0.00013778648 1.5938798e-06 0.00016182195 4.2290296e-05 1.8859704e-06 3.0301573e-05 7.268538e-05 9.298972e-05
0.0010216614 1.2068232e-05 0.00120393 0.00031116797 1.5007693e-05 0.00022343961 0.0005404636 0.0006929818
0.00064112135 7.5723815e-06 0.0007554991 0.00019529196 9.409634e-06 0.00014022176 0.00033916748 0.00043490715
0.00016310353 1.935496e-06 0.00019235534 4.9610087e-05 2.4264411e-06 3.563202e-05 8.6346954e-05 0.00011080896
8.842341e-05 1.016687e-06 0.00010376165 2.7208274e-05 1.185953e-06 1.9484289e-05 4.661148e-05 5.9613703e-05
7.824482e-05 1.0240044e-06 9.253536e-05 2.2889297e-05 1.5565485e-06 1.664415e-05 4.148303e-05 5.316016e-05
00000000: c1b9 8e36 f2ba 6e33 7dae a636 2c20 a935
00000010: 99d7 b133 8663 7535 f096 1636 0b25 3f36
00000020: ccdf 3639 ca0d 0b36 5bb8 5739 8057 5e38
00000030: 02fc 2e36 79bb 1f38 e0a7 c138 c588 f838
00000040: c77a 1039 4bed d535 c0ae 2939 dc60 3138
00000050: 7321 fd35 2230 fe37 ab6e 9838 7a03 c338
00000060: 45e9 853a a978 4a37 30cd 9d3a 4224 a339
00000070: 8dc9 7b37 1d4b 6a39 e6ad 0d3a 39a9 353a
00000080: ed10 283a 4316 fe36 b00c 463a 49c7 4c39
00000090: 12de 1d37 7e08 1339 4ad2 b139 4004 e439
000000a0: c506 2b39 91e3 0136 feb2 4939 6d14 5038
000000b0: f1d5 2236 9773 1538 2b15 b538 1b62 e838
000000c0: f56f b938 1975 8835 9d9a d938 533d e437
000000d0: 092d 9f35 3172 a337 b280 4338 ba09 7a38
000000e0: 5e17 a438 8670 8935 8b0f c238 6402 c037
000000f0: 99ea d035 0a9f 8b37 10fe 2d38 4af8 5e38

exp_avg f4 [8]
2.4111105e-06 -0.00011009426 -8.815946e-05 -0.0002649941 0.00021813053 -0.000111455796 7.003927e-05 -8.602318e-05
00000000: 90ce 2136 68e2 e6b8 40e2 b8b8 e8ee 8ab9
00000010: f8b9 6439 60bd e9b8 0ce2 9238 5867 b4b8

exp_avg_sq f4 [8]
1.078089e-06 6.956703e-05 4.387494e-05 0.00038658603 0.00024327241 6.463572e-05 2.7027812e-05 3.3427194e-05
00000000: dbb2 9035 84e4 9138 5c06 3838 b3ae ca39
00000010: f116 7f39 0a8d 8738 c9b9 e237 2d34 0c38

exp_avg f4 [1, 8]
-0.0002961153 0.0007387116 -0.0014302371 0.0014208899 -0.0018976522 0.002492573 0.00061518064 -0.001058999
00000000: ec3f 9bb9 19a6 413a cb76 bbba 273d ba3a
00000010: a4ba f8ba 705a 233b 1344 213a 1cce 8aba

exp_avg_sq f4 [1, 8]
0.00061465893 0.009626046 0.013572893 0.033854842 0.015594371 0.009822314 0.0059006535 0.005656108
00000000: 1021 213a 90b6 1d3c d760 5e3c 60ab 0a3d
00000010: 887f 7f3c c5ed 203c 455a c13b df56 b93b
