trained_models/binaries/model_down_test.pth (torch, 26043 bytes, 51 tensors)

l1_1.weight f4 [8, 6]
-0.2192906 0.5293675 0.15622175 0.05898333 -1.2098294 -0.23405245 0.064715244 -0.22077605
0.056110017 0.046890423 0.65676033 -0.29178724 -0.10713467 -0.56240964 0.22756957 -0.07474495
1.115548 -0.25397298 0.21876606 -0.029961763 0.3077277 0.17233084 -0.87136763 -0.17537846
-0.029807892 0.21554182 0.33811972 -0.20429459 0.29902342 -0.019154683 0.1874645 -0.38924724
0.043339714 -0.095811464 0.8593256 -0.29070362 -0.07813522 -0.13117275 -0.10651486 -0.18619636
0.95624644 -0.4210734 -0.0254201 -0.17264302 0.39964652 -0.2343152 0.74058926 -0.022450395
00000000: b78d 60be a184 073f 98f8 1f3e 8198 713d
00000010: b1db 9abf 72ab 6fbe 6d89 843d 1e13 62be
00000020: 9ed3 653d 2c10 403d 7221 283f 2365 95be
00000030: 6c69 dbbd 14fa 0fbf ff07 693e e113 99bd
00000040: 47ca 8e3f bf08 82be 3604 603e 5f72 f5bc
00000050: 7c8e 9d3e 7f77 303e f311 5fbf 6996 33be
00000060: ae2f f4bc ffb6 5c3e 071e ad3e 9a32 51be
00000070: 9919 993e 48ea 9cbc b2f6 3f3e 6a4b c7be
00000080: fc84 313d cd38 c4bd c3fc 5b3f 1bd7 94be
00000090: 5c05 a0bd 2652 06be 7724 dabd 42aa 3ebe
000000a0: 91cc 743f ef96 d7be d03d d0bc 55c9 30be
000000b0: 789e cc3e 53f0 6fbe 4297 3d3f e4e9 b7bc

l1_1.bias f4 [8]
0.10960103 0.09767762 -0.05185279 -0.6117284 -0.08991271 0.056335296 0.48659426 -0.11781056
00000000: 8176 e03d 340b c83d 9763 54bd 3c9a 1cbf
00000010: 2824 b8bd d7bf 663d e222 f93e aa46 f1bd

l1_2.weight f4 [8, 8]
-0.41847676 0.39703828 0.29511747 -0.34848 0.07806917 0.09171914 0.7629622 0.30618322
-0.4102054 -0.044569306 0.21475603 -0.3987195 -0.011434451 0.41816574 0.38941586 -0.085435
-0.14717047 0.24231267 0.48109466 -0.24626362 -0.29392532 -0.03474036 0.71064276 -0.0152256135
-0.21045919 0.017655157 0.38217044 -0.055263657 0.20552076 0.40051678 0.7371594 -0.18708001
0.2720696 0.11853092 -0.71060175 -0.034426037 -0.021760935 -0.105488956 -0.26945636 -0.32046476
0.45269042 -0.41347244 -0.7754337 0.100774 -0.2099428 -0.40960327 -0.4116824 0.22680373
-0.54960316 -0.17286448 0.57480484 0.008357271 0.008533802 -0.13763109 0.67948633 0.1570671
0.1712188 0.1175557 -0.44717628 -0.030149143 0.15186276 -0.23805301 -0.75930256 0.01767657
00000000: 9642 d6be 9a48 cb3e a319 973e f86b b2be
00000010: bbe2 9f3d 3fd7 bb3d 7e51 433f 0cc4 9c3e
00000020: 7106 d2be 4e8e 36bd 01e9 5b3e f624 ccbe
00000030: 9057 3bbc d219 d63e 8461 c73e 8cf8 aebd
00000040: dbb3 16be d020 783e 0a52 f63e 882c 7cbe
00000050: 617d 96be e84b 0ebd afec 353f da74 79bc
00000060: 9d82 57be 8ca1 903c d8ab c33e 255c 62bd
00000070: 0974 523e 8910 cd3e 7ab6 3c3f e791 3fbe
00000080: b54c 8b3e 57c0 f23d ffe9 35bf 5102 0dbd
00000090: fd43 b2bc 980a d8bd 2ff6 89be f513 a4be
000000a0: 0ac7 e73e a9b2 d3be d382 46bf 9962 ce3d
000000b0: 3ffb 56be 85b7 d1be 09c8 d2be 3d3f 683e
000000c0: cbb2 0cbf 6303 31be 6926 133f efec 083c
000000d0: 5cd1 0b3c 2aef 0cbe d1f2 2d3f 33d6 203e
000000e0: fb53 2f3e 0bc1 f03d 4af4 e4be 56fb f6bc
000000f0: e981 1b3e 2bc4 73be a761 42bf 74ce 903c

l1_2.bias f4 [8]
0.32625267 -0.15860264 0.104001544 -0.18323848 -0.32653847 -0.40820476 0.30435422 0.03801291
00000000: 970a a73e bb68 22be c3fe d43d dea2 3bbe
00000010: 0d30 a7be 3700 d1be 51d4 9b3e 6db3 1b3d

l1_3.weight f4 [8, 8]
-0.2921268 0.21499059 -0.26802826 -0.2520519 -0.28282553 0.07994872 0.14973512 0.07438481
0.26828066 -0.21344963 -0.29940745 -0.17720659 0.106173694 -0.2473687 -0.35192028 0.2863349
-0.28519866 -0.14179987 0.3111017 -0.0736742 -0.096236676 -0.0014148355 0.26137814 -0.1919783
-0.27217484 -0.34259385 -0.24026969 -0.17134498 0.25021574 0.12707904 -0.25358403 0.040593177
-0.06400707 -0.11884539 -0.03529507 0.29730818 0.12851298 0.342666 -0.21524024 -0.24683824
-0.2083631 0.11442396 -0.22458711 0.0044306815 0.30526957 -0.26105893 -0.08824441 -0.26316446
-0.15732975 -0.19649497 0.117207855 0.059707344 0.12383512 -0.026356995 -0.10065377 0.3262796
-0.12317222 -0.08467305 0.09166893 0.14101747 -0.09992096 0.13498265 -0.11455281 -0.1257852
00000000: a591 95be 7e26 5c3e 003b 89be f20c 81be
00000010: 82ce 90be 28bc a33d 2a54 193e 1057 983d
00000020: 155c 893e 8a92 5abe ef4b 99be a575 35be
00000030: 9871 d93d 384e 7dbe e52e b4be 7d9a 923e
00000040: 8f05 92be fc33 11be b948 9f3e 80e2 96bd
00000050: bc17 c5bd 0072 b9ba 5bd3 853e f695 44be
00000060: 805a 8bbe 7668 afbe 4209 76be 0f75 2fbe
00000070: 471c 803e 0221 023e c4d5 81be 0845 263d
00000080: 2416 83bd 3665 f3bd 9091 10bd c738 983e
00000090: e898 033e eb71 af3e f067 5cbe 2ac3 7cbe
000000a0: 235d 55be 1c57 ea3d 2afa 65be 402f 913b
000000b0: 4b4c 9c3e 84a9 85be 7cb9 b4bd 7ebd 86be
000000c0: 0d1b 21be fa35 49be ac0a f03d b08f 743d
000000d0: 449d fd3d a0ea d7bc 9023 cebd 1f0e a73e
000000e0: b841 fcbd 1069 adbd ecbc bb3d e266 103e
000000f0: 5ca3 ccbd e438 0a3e aa9a eabd d6cd 00be

l1_3.bias f4 [8]
0.24193916 0.022357225 -0.24562669 -0.14417143 0.16721317 -0.04298663 0.0051758885 0.08329019
00000000: e6be 773e 8026 b73c 9085 7bbe ada1 13be
00000010: ee39 2b3e c012 30bd 809a a93b 0c94 aa3d

l1_4.weight f4 [1, 8]
0.29456443 0.45230702 0.25388423 0.2950594 -0.43090847 -0.43983027 0.24764651 -0.4727656
00000000: 26d1 963e c994 e73e 1dfd 813e 0712 973e
00000010: 09a0 dcbe 6f31 e1be 0c97 7d3e 550e f2be

l2_1.weight f4 [8, 6]
0.22479588 0.032356568 0.10496445 0.92251897 -0.10191406 0.09260659 -0.0060541807 -0.007335646
0.22979262 -0.769862 0.31256014 -0.0058172015 0.11694735 0.05551409 0.025214415 -0.639961
-0.011594442 0.15378977 -0.110161096 0.35459962 0.35278955 -0.8162802 -0.12685923 0.10576956
0.19714648 0.31628874 -0.28690118 -0.6470191 0.17360513 -0.54802185 0.25039074 -0.13995107
-0.30015042 0.87909603 -0.0697756 0.32416254 -0.026067112 0.503523 0.28678682 -0.308958
-0.020705223 -0.041494843 -0.058728755 -0.33398104 0.03788993 1.1704718 -0.12505655 0.5752575
00000000: e430 663e 5288 043d 9af7 d63d 342a 6c3f
00000010: 52b8 d0bd 86a8 bd3d 2662 c6bb dc5f f0bb
00000020: c24e 6b3e ad15 45bf e207 a03e 399e bebb
00000030: 1882 ef3d be62 633d 768e ce3c 7cd4 23bf
00000040: 9df6 3dbc 117b 1d3e 249c e1bd 158e b53e
00000050: d5a0 b43e bdf7 50bf 63e7 01be b69d d83d
00000060: c4e0 493e 99f0 a13e b6e4 92be 0ba3 25bf
00000070: 8bc5 313e 294b 0cbf 3733 803e 554f 0fbe
00000080: 51ad 99be 700c 613f 83e6 8ebd a2f8 a53e
00000090: b28a d5bc e2e6 003f b9d5 923e be2f 9ebe
000000a0: 009e a9bc 7ff6 29bd 908d 70bd 90ff aabe
000000b0: 7932 1b3d 05d2 953f d30e 00be 1344 133f

l2_1.bias f4 [8]
0.4719323 -0.4112412 -0.5849701 -0.47814417 -0.51045936 0.12391755 -0.12562342 0.34403732
00000000: 1ca1 f13e 358e d2be 9ac0 15bf 50cf f4be
00000010: 77ad 02bf 7cc8 fd3d 6da3 00be a925 b03e

l2_2.weight f4 [8, 8]
-0.29930404 -0.24307498 0.122557044 0.15259679 0.38066962 -0.35962474 -0.23873067 -1.0333438
-0.29876804 -0.078251205 -0.052651275 0.18149023 0.41374254 -0.09473601 0.28764567 -0.6805708
-0.0684741 -0.23915373 0.3106889 -0.5988153 -0.48932156 0.36321568 -0.143796 0.8047135
0.2887569 0.20142175 -0.2615384 -0.15391405 -0.4050252 -0.111050315 0.28470516 0.61265063
0.31279767 -0.14220338 -0.041490156 -0.39988616 -0.47950354 0.37479797 -0.03489523 0.54957545
-0.2553677 0.37250543 0.31863937 0.6846082 0.18778987 -0.29687396 -0.122110404 -1.1575681
-0.11456929 0.01195995 0.32201403 0.01056886 0.42149204 -0.109455615 0.017243043 -0.55281097
0.13472448 0.052875098 0.13342883 0.43091393 0.1775969 -0.3983757 0.20422964 -1.1830827
00000000: 613e 99be a6e8 78be 30ff fa3d 5542 1c3e
00000010: 21e7 c23e bc20 b8be d075 74be 9c44 84bf
00000020: 20f8 98be 2b42 a0bd dda8 57bd 93d8 393e
00000030: 10d6 d33e f404 c2bd 4b46 933e e339 2ebf
00000040: 263c 8cbd b7e4 74be 9e12 9f3e f64b 19bf
00000050: 5b88 fabe 68f7 b93e 423f 13be b401 4e3f
00000060: f2d7 933e 8141 4e3e 5ce8 85be a59b 1dbe
00000070: 775f cfbe 596e e3bd e0c4 913e acd6 1c3f
00000080: 0427 a03e c39d 11be 95f1 29bd e1bd ccbe
00000090: 7d81 f5be 85e5 bf3e 4dee 0ebd fab0 0c3f
000000a0: 8ebf 82be 08b9 be3e b324 a33e 7c42 2f3f
000000b0: fd4b 403e ddff 97be 0515 fabd 312b 94bf
000000c0: 4ea3 eabd abf3 433c 06df a43e 0329 2d3c
000000d0: cecd d73e 442a e0bd 4841 8d3c 0585 0dbf
000000e0: 37f5 093e 8f93 583d 91a1 083e c0a0 dc3e
000000f0: f6db 353e e6f7 cbbe 9321 513e 416f 97bf

l2_2.bias f4 [8]
-0.52456003 -0.026438216 0.12446681 0.17826822 0.27235106 -0.007113264 -0.26453486 -0.26539627
00000000: 9149 06bf f594 d8bc 74e8 fe3d f28b 363e
00000010: 9971 8b3e 6216 e9bb 1d71 87be 05e2 87be

l2_3.weight f4 [8, 8]
0.35277954 0.09489688 -0.043664694 -0.22857672 -0.30894205 0.25611684 -0.043655872 0.15682212
0.22567979 -0.33072293 -0.011692435 -0.23746121 0.2397444 -0.16725256 -0.22945765 -0.34074372
-0.12400977 -0.18566442 0.13424471 -0.33906323 0.22549662 0.08135876 -0.21999972 0.07010299
0.119671494 -0.13507505 -0.3072549 -0.19523849 -0.33824822 0.17799702 -0.20824425 0.058924526
-0.22402786 0.048167646 0.31705496 -0.027528465 0.26966736 -0.2746789 -0.19763057 0.15221986
-0.281456 0.25386217 -0.17436555 -0.09214941 -0.3053593 -0.23563561 0.3478028 0.0025335848
0.2580929 0.2344571 0.17343608 0.27465472 0.15874359 0.08747783 0.2689421 -0.21987206
-0.1981567 0.18008956 0.2816318 -0.22440234 -0.1441928 0.10068861 -0.10426965 -0.0809637
00000000: 859f b43e 4c59 c23d c0d9 32bd 0410 6abe
00000010: a72d 9ebe bf21 833e 80d0 32bd fa95 203e
00000020: 9a18 673e 8454 a9be a091 3fbc 0829 73be
00000030: 8e7f 753e 4144 2bbe f2f6 6abe f675 aebe
00000040: d6f8 fdbd d01e 3ebe 7277 093e b299 adbe
00000050: 96e8 663e 6c9f a63d 9b47 61be 2892 8f3d
00000060: 5416 f53d 1d51 0abe 8450 9dbe 99ec 47be
00000070: df2e adbe da44 363e fb3d 55be d85a 713d
00000080: 8f67 65be 704b 453d 0755 a23e 6083 e1bc
00000090: d711 8a3e b6a2 8cbe ab5f 4abe 86df 1b3e
000000a0: 001b 90be 39fa 813e e28c 32be d4b8 bcbd
000000b0: 0e58 9cbe 764a 71be 3513 b23e 800a 263b
000000c0: c124 843e 8615 703e 3a99 313e 8b9f 8c3e
000000d0: ae8d 223e 9427 b33d c7b2 893e 2426 61be
000000e0: 97e9 4abe 6669 383e 0b32 903e bac9 65be
000000f0: 47a7 13be d435 ce3d 548b d5bd 4cd0 a5bd

l2_3.bias f4 [8]
-0.05274591 -0.20765305 0.31395045 0.0050442517 0.18231645 0.011946619 0.008386582 0.19028327
00000000: 180c 58bd 00a3 54be 1dbe a03e 404a a53b
00000010: 2ab1 3a3e c0bb 433c e067 093c 9ed9 423e

l2_4.weight f4 [1, 8]
-0.49159777 -0.31007913 0.41908124 0.36213368 0.27366483 -0.50568455 -0.3551901 -0.76867735
00000000: b4b2 fbbe b1c2 9ebe d191 d63e 9669 b93e
00000010: cc1d 8c3e 8b74 01bf 7adb b5be 0ac8 44bf

l3_1.weight f4 [8, 6]
-0.107497305 0.19084565 0.34083286 0.38027665 -0.6354011 -0.41845837 -0.13030483 -0.38332012
-0.24966422 -0.80395746 0.5805419 0.8655705 -0.010338471 -0.55359477 -0.22637755 -1.0293776
-0.0083421655 0.6113824 -0.24910586 -0.53964907 -0.5062399 -0.44207844 0.18083557 0.6863558
-0.00759955 0.4823253 0.7517123 0.93106246 -0.2193382 -0.9185751 -0.040148888 0.19828513
-0.16213158 0.08881177 -0.3090014 0.034596365 -0.21254595 0.37839127 0.19378632 0.7430066
-0.31369796 -0.48489752 -0.007148792 0.3334188 -0.34025514 -0.9298439 0.031505384 0.5735928
00000000: 8c27 dcbd 0b6d 433e a581 ae3e 9fb3 c23e
00000010: a6a9 22bf 2d40 d6be a16e 05be 8942 c4be
00000020: faa7 7fbe 28d0 4dbf 659e 143f 0796 5d3f
00000030: b162 29bc 63b8 0dbf 84cf 67be a5c2 83bf
00000040: 94ad 08bc 8f83 1c3f 9b15 7fbe 7126 0abf
00000050: f098 01bf 1b58 e2be f62c 393e 04b5 2f3f
00000060: a505 f9bb 57f3 f63e 3870 403f 1c5a 6e3f
00000070: 319a 60be bd27 6bbf 2973 24bd 420b 4b3e
00000080: d205 26be f2e2 b53d 6e35 9ebe ebb4 0d3d
00000090: a5a5 59be 80bc c13e ec6f 463e ae35 3e3f
000000a0: 059d a0be 7d44 f8be 6a40 eabb deb5 aa3e
000000b0: ec35 aebe 400a 6ebf ca0b 013d fad6 123f

l3_1.bias f4 [8]
-0.33295077 0.4706558 -0.099073134 0.16517168 -0.2570772 -0.058307 -0.2430866 0.38096148
00000000: 8678 aabe ccf9 f03e dbe6 cabd c422 293e
00000010: 9f9f 83be 52d3 6ebd b2eb 78be 620d c33e

l3_2.weight f4 [8, 8]
-0.20755921 0.0030754677 0.1737541 0.16689967 -0.31042358 0.33471733 0.17086408 0.3376561
-0.39781228 0.07862861 -0.3211326 0.12287688 -0.2101732 -0.24059154 0.13353117 -0.29015607
0.1247866 -0.4113355 0.3563589 -0.2418969 0.26268628 0.2617299 0.4228192 0.3016872
0.12056422 -0.08998358 0.15530853 -0.0047976566 0.8092567 -0.21769734 -0.019165765 -0.13826837
-0.095519766 0.059373423 0.36576566 0.1939342 -0.5578533 -0.0542749 -0.14288755 0.23904765
-0.08024589 -0.10961278 0.21988244 -0.1435261 0.8953685 -0.18206745 0.28131574 0.035568167
0.14615846 -0.19659193 -0.4163344 -0.22836319 0.8804528 0.17850786 0.29726902 0.078216225
0.3135477 0.16399248 0.2409712 -0.13006549 0.79362565 -0.035244916 -0.14327891 -0.08719144
00000000: 678a 54be c98d 493b 98ec 313e bfe7 2a3e
00000010: d7ef 9ebe 1260 ab3e fef6 2e3e 43e1 ac3e
00000020: 0dae cbbe 0908 a13d 7e6b a4be e0a6 fb3d
00000030: a537 57be a15d 76be 65bc 083e 568f 94be
00000040: 1e90 ff3d 919a d2be ac74 b63e d2b3 77be
00000050: d17e 863e 7601 863e c27b d83e bf76 9a3e
00000060: 60ea f63d 5049 b8bd 3309 1f3e a935 9dbb
00000070: 722b 4f3f 0dec 5ebe 8601 9dbc 3996 0dbe
00000080: de9f c3bd 8c31 733d a345 bb3e b096 463e
00000090: 79cf 0ebf 5c4f 5ebd 1d51 12be e8c8 743e
000000a0: f557 a4bd aa7c e0bd dd28 613e 82f8 12be
000000b0: df36 653f e46f 3abe 9e08 903e edaf 113d
000000c0: 90aa 153e 654f 49be c829 d5be 0ad8 69be
000000d0: 5b65 613f c4ca 363e a533 983e d42f a03d
000000e0: 5389 a03e a5ed 273e 27c1 763e e32f 05be
000000f0: 0d2b 4b3f f95c 10bd b5b7 12be 6d91 b2bd

l3_2.bias f4 [8]
0.21807261 0.16317058 -0.24970955 -0.14249419 -0.08243461 -0.52081305 -0.20890994 -0.394132
00000000: 6d4e 5f3e 3016 273e dcb3 7fbe ffe9 11be
00000010: 7ad3 a8bd 0154 05bf 7dec 55be abcb c9be

l3_3.weight f4 [8, 8]
-0.11424573 0.29393956 0.20784357 0.15934858 -0.048309356 0.21112058 -0.023633897 -0.17563
-0.12077154 -0.19669673 0.06470591 0.24805728 0.33233985 -0.052695602 0.034946173 0.32582393
0.08375341 -0.1411659 0.16965643 0.24786934 0.10298103 -0.223023 0.05957386 -0.25094634
0.2637559 0.3501244 -0.086860806 0.068375856 -0.1415165 -0.10251829 -0.22352964 -0.0006299317
-0.18435112 0.1895828 -0.099255204 -0.30989236 0.24661013 0.19754747 0.028413177 0.15901592
-0.23307776 -0.34764725 -0.16608913 0.3361517 -0.15504979 -0.17413059 -0.2240826 -0.16692011
0.31118128 -0.2657302 -0.20471403 -0.24537861 0.10826644 -0.08465633 -0.26442647 0.33884272
0.15909413 0.11559978 -0.30525053 -0.03490278 -0.0699321 -0.29585487 -0.2430191 0.005743891
00000000: aaf9 e9bd 3f7f 963e f2d4 543e 462c 233e
00000010: 08e0 45bd fe2f 583e e09b c1bc 5ad8 33be
00000020: 1257 f7bd de6a 49be 8884 843d ba02 7e3e
00000030: 7328 aa3e 58d7 57bd b823 0f3d 65d2 a63e
00000040: e886 ab3d cb8d 10be 6aba 2d3e 76d1 7d3e
00000050: b8e7 d23d 2460 64be b803 743d 0a7c 80be
00000060: 030b 873e 8143 b33e 14e4 b1bd a408 8c3d
00000070: b4e9 10be 1cf5 d1bd f4e4 64be 0022 25ba
00000080: 8ac6 3cbe fe21 423e 5046 cbbd 36aa 9ebe
00000090: 5e87 7c3e e249 4a3e c0c2 e83c 12d5 223e
000000a0: f0ab 6ebe d2fe b1be 4513 2abe 131c ac3e
000000b0: 5fc5 1ebe 4a4f 32be e975 65be 1bed 2abe
000000c0: 2753 9f3e ca0d 88be 8ea0 51be 8844 7bbe
000000d0: ccba dd3d 4c60 adbd e862 87be cb7c ad3e
000000e0: 92e9 223e 94bf ec3d cc49 9cbe 38f6 0ebd
000000f0: 9038 8fbd 4a7a 97be 00da 78be 4037 bc3b

l3_3.bias f4 [8]
0.21079287 -0.2594412 -0.14766532 0.24659535 -0.34576026 -0.08951387 -0.26901454 0.31687722
00000000: 16da 573e 7ad5 84be 9435 17be 7e83 7c3e
00000010: 7d07 b1be 0c53 b7bd 46bc 89be bb3d a23e

l3_4.weight f4 [1, 8]
-0.11660769 -0.015954804 0.0447244 0.10649064 -0.18088013 0.34495676 0.484632 0.10515595
00000000: 03d0 eebd a6b3 82bc ef30 373d c417 da3d
00000010: a438 39be 2c9e b03e af21 f83e 015c d73d

exp_avg f4 [8, 6]
-0.5077433 0.12558281 -0.22462171 0.09827462 0.16326424 0.021864196 0.105338715 -0.026043095
0.04658904 -0.020376796 -0.033839848 -0.0046753436 0.76573277 -0.18942073 0.33879852 -0.14823596
-0.24624543 -0.033073198 -0.19815941 0.048940767 -0.08755938 0.03822906 0.06364174 0.008794613
0.018104985 -0.0044636284 0.007999501 -0.00348665 -0.005774372 -0.00090954226 0.34328318 -0.084983625
0.15198238 -0.06657203 -0.11045761 -0.014610329 0.87675333 -0.21691526 0.38796446 -0.16977678
-0.28198448 -0.037786663 0.03081944 -0.0075853923 0.013592333 -0.005913171 -0.009824623 -0.0015566258
00000000: 77fb 01bf c898 003e 3c03 66be 3444 c93d
00000010: be2e 273e 8b1c b33c d3bb d73d 5458 d5bc
00000020: 26d4 3e3d 3ded a6bc a79b 0abd a033 99bb
00000030: 1007 443f 82f7 41be 0077 ad3e 2bcb 17be
00000040: c327 7cbe c377 07bd 4dea 4abe 1d76 483d
00000050: 5552 b3bd 1396 1c3d 9a56 823d 4817 103c
00000060: e850 943c a143 92bb 5710 033c 4880 64bb
00000070: f136 bdbb 596e 6eba d0c2 af3e e50b aebd
00000080: 45a1 1b3e eb56 88bd 9937 e2bd 2960 6fbc
00000090: e872 603f 091f 5ebe 47a3 c63e f7d9 2dbe
000000a0: 4560 90be 30c6 1abd 0d79 fc3c e28e f8bb
000000b0: 60b2 5e3c 46c3 c1bb 75f7 20bc b207 ccba

exp_avg_sq f4 [8, 6]
0.95536935 0.05337235 0.1688082 0.043546453 0.077713445 0.15091346 0.04763951 0.0026027733
0.008170037 0.0021208718 0.0037432746 0.0059196516 2.1957393 0.12292411 0.38807458 0.10023987
0.17865726 0.3347916 0.14505985 0.008152579 0.025824314 0.0066528404 0.01187918 0.023931004
0.0006707616 4.1134354e-05 0.00013303153 3.359605e-05 6.0887505e-05 0.00016092126 0.4483539 0.024961874
0.07869187 0.020351771 0.036219995 0.0652624 2.9199123 0.16350794 0.51604605 0.13332747
0.2375571 0.4423828 0.0013632138 7.5952776e-05 0.00024391475 6.161706e-05 0.00011168114 0.00027997006
00000000: 1693 743f f79c 5a3d 0fdc 2c3e c45d 323d
00000010: 3a28 9f3d 0f89 1a3e a621 433d 4a93 2a3b
00000020: 9edb 053c 53fe 0a3b ba51 753b a3f9 c13b
00000030: fe86 0c40 a3bf fb3d b6b1 c63e 904a cd3d
00000040: eef1 363e ce69 ab3e 928a 143e 6592 053c
00000050: 838d d33c 1200 da3b e4a0 423c f40a c43c
00000060: 0dd6 2f3a ad87 2c38 617e 0b39 7ce9 0c38
00000070: 7661 7f38 f9bc 2839 a48e e53e d87c cc3c
00000080: 3429 a13d c2b8 a63c 6b5b 143d 4ba8 853d
00000090: d8df 3a40 a06e 273e 981b 043f ff86 083e
000000a0: 2b42 733e 0080 e23e ddad b23a d648 9f38
000000b0: 5ec3 7f39 6838 8138 5b36 ea38 f2c8 9239

exp_avg f4 [8]
-0.23074837 0.0478521 0.34804538 -0.08992474 0.008201559 0.1561506 0.39856434 0.013937548
00000000: 4d49 6cbe 9000 443d 0133 b23e 762a b8bd
00000010: d55f 063c f1e5 1f3e a010 cc3e 505a 643c

exp_avg_sq f4 [8]
0.18019098 0.008787246 0.41500664 0.027524013 0.00013887457 0.08427393 0.5520213 0.00025642515
00000000: fc83 383e 62f8 0f3c c07b d43e 0a7a e13c
00000010: dc9e 1139 cf97 ac3d 4551 0d3f cd70 8639

exp_avg f4 [8, 8]
0.023608355 -0.0018148597 -0.034432705 0.052684426 -0.003155269 0.01460616 -0.018612217 -0.0061431844
0.036257666 -0.0028041813 -0.05290493 0.080916494 -0.0048497496 0.022414442 -0.028612012 -0.009443217
0.020300321 -0.0015555737 -0.029602678 0.045305368 -0.0027170097 0.012561849 -0.01599918 -0.005287518
0.023618361 -0.0018148063 -0.03444945 0.05271285 -0.0031602008 0.014612199 -0.018622488 -0.006151321
-0.034681596 0.0026903495 0.050602358 -0.07737452 0.004626764 -0.021433305 0.027366383 0.009015613
-0.035411663 0.0027501115 0.051672436 -0.079004504 0.0047247494 -0.021881433 0.027947787 0.009207008
0.019785676 -0.0015106701 -0.028850151 0.044164296 -0.0026476048 0.012252353 -0.015588791 -0.005151617
-0.037984405 0.0029441933 0.055422246 -0.08475151 0.0050744666 -0.0234735 0.029974446 0.009884781
00000000: 4f66 c13c 96e0 edba 4f09 0dbd a0cb 573d
00000010: a1c8 4ebb ad4e 6f3c a678 98bc c44c c9bb
00000020: eb82 143d 5bc6 37bb d7b2 58bd 8cb7 a53d
00000030: a6ea 9ebb 7e9e b73c bd63 eabc b9b7 1abc
00000040: dc4c a63c 64e4 cbba 5181 f2bc 1f92 393d
00000050: dc0f 32bb 37d0 4d3c b610 83bc ea42 adbb
00000060: 4b7b c13c cbde edba de1a 0dbd 6ee9 573d
00000070: 5f1b 4fbb 0168 6f3c 308e 98bc 0591 c9bb
00000080: 4a0e 0ebd 9350 303b 6b44 4f3d 8876 9ebd
00000090: 1c9c 973b e694 afbc 772f e03c 39b6 133c
000000a0: d20b 11bd 373b 343b 7aa6 533d 1dcd a1bd
000000b0: 12d2 9a3b b140 b3bc c2f2 e43c fed8 163c
000000c0: 9215 a23c ad01 c6ba 2757 ecbc 9fe5 343d
000000d0: 7083 2dbb 18be 483c 2168 7fbc e5ce a8bb
000000e0: 8995 1bbd 5ef3 403b 7002 633d 3392 adbd
000000f0: b647 a63b 7f4b c0bc f88c f53c c7f3 213c

exp_avg_sq f4 [8, 8]
0.0053416886 0.001777374 0.004831986 0.0072315196 8.436904e-05 0.0031868955 0.0047465144 0.00022911472
0.012644038 0.0042545055 0.01154089 0.017095858 0.00019961788 0.007540249 0.011386809 0.00054227066
0.0039997892 0.0013218723 0.0036005776 0.0054124855 6.2980114e-05 0.0023813376 0.0035279638 0.00017139419
0.0054126047 0.0017865578 0.004867451 0.007324667 8.516633e-05 0.0032245198 0.004765246 0.00023199174
0.011521678 0.0038577663 0.010473882 0.015589375 0.00018213899 0.0068752696 0.01031397 0.00049454777
0.012109216 0.0040261196 0.0109494245 0.016386067 0.00019101525 0.0072205947 0.0107490355 0.0005199113
0.0036985197 0.001234176 0.0033526265 0.0050088875 5.8481593e-05 0.0022089481 0.0032974845 0.0001585289
0.014000174 0.004657774 0.012670179 0.018932221 0.00022043921 0.00833719 0.01244419 0.0006005966
00000000: 5509 af3b c6f6 e83a a355 9e3b 62f6 ec3b
00000010: 49ef b038 3cdb 503b a688 9b3b 843e 7039
00000020: f028 4f3c 6169 8b3b 0016 3d3c 9d0c 8c3c
00000030: 8450 5139 3114 f73b bd8f 3a3c 2b27 0e3a
00000040: aa10 833b ad42 ad3a abf7 6b3b 385b b13b
00000050: 3114 8438 3710 1c3b 6935 673b 47b8 3339
00000060: 385c b13b ef2a ea3a 237f 9f3b c303 f03b
00000070: 539b b238 7752 533b c825 9c3b cf42 7339
00000080: 6cc5 3c3c 94d2 7c3b a59a 2b3c 946a 7f3c
00000090: 90fc 3e39 f149 e13b edfb 283c 8aa4 013a
000000a0: bc65 463c 8aed 833b 3765 333c 133c 863c
000000b0: 444b 4839 bd9a ec3b b91c 303c a84a 083a
000000c0: dd62 723b 13c4 a13a bdb7 5b3b 9821 a43b
000000d0: 224a 7538 00c4 103b 9c1a 583b c73a 2639
000000e0: fc60 653c 3ea0 983b 9596 4f3c bf17 9b3c
000000f0: b325 6739 b698 083c b7e2 4b3c 5b71 1d3a

exp_avg f4 [8]
0.07251181 0.11136492 0.06233295 0.072531626 -0.10655548 -0.10879888 0.060761057 -0.116677776
00000000: 1281 943d 4b13 e43d d650 7f3d 768b 943d
00000010: c239 dabd f2d1 debd 96e0 783d c2f4 eebd

exp_avg_sq f4 [8]
0.018141918 0.043001346 0.013574812 0.018356534 0.039174553 0.041133396 0.012560226 0.047564767
00000000: 5c9e 943c 2e22 303d e368 5e3c 7160 963c
00000010: 7f75 203d 7e7b 283d 68c9 4d3c 46d3 423d

exp_avg f4 [1, 8]
-0.10210424 -0.16921774 -0.13009147 -0.14075717 0.03448681 0.04863737 -0.085429005 0.10219854
00000000: 071c d1bd 6a47 2dbe b336 05be a622 10be
00000010: 0b42 0d3d fb37 473d 67f5 aebd 784d d13d

exp_avg_sq f4 [1, 8]
0.071790196 0.09343649 0.095980324 0.11773174 0.020522807 0.07490001 0.033854302 0.077350534
00000000: bd06 933d a15b bf3d 5591 c43d 571d f13d
00000010: 721f a83c 2d65 993d cfaa 0a3d f569 9e3d

exp_avg f4 [8, 6]
-0.24573846 0.06630708 -0.12463299 0.045174588 0.079247735 0.040211704 0.08145739 -0.021955628
0.041284107 -0.014966322 -0.026231188 -0.013315463 0.21020035 -0.056525353 0.10629071 -0.038512547
-0.06756426 -0.034265947 0.6484322 -0.17487612 0.3287061 -0.119158976 -0.2090036 -0.106059045
0.6236273 -0.16795585 0.31575766 -0.1144277 -0.20072973 -0.10198277 -0.4840054 0.1305698
-0.24541268 0.088967755 0.15604112 0.07925674 0.020663058 -0.005649552 0.010611444 -0.0038521101
-0.006740831 -0.0034737426 -1.6504861 0.44472814 -0.83601785 0.3030148 0.5315007 0.2700029
00000000: dda2 7bbe 02cc 873d 953f ffbd fd08 393d
00000010: a34c a23d 07b5 243d 22d3 a63d 4adc b3bc
00000020: 8619 293d 4e35 75bc cae2 d6bc 1a29 5abc
00000030: c33e 573e 2187 67bd f2ae d93d 55bf 1dbd
00000040: 215f 8abd 735a 0cbd a7ff 253f ba12 33be
00000050: 2a4c a83e 9f09 f4bd 0a05 56be 7c35 d9bd
00000060: 0aa6 1f3f 9efc 2bbe fdaa a13e 1259 eabd
00000070: 188c 4dbe 58dc d0bd 8ecf f7be 17b4 053e
00000080: 764d 7bbe ba34 b63d 3ec9 1f3e 5c51 a23d
00000090: 9345 a93c e11f b9bb 9fdb 2d3c af73 7cbb
000000a0: 30e2 dcbb bba7 63bb 2143 d3bf 68b3 e33e
000000b0: 4405 56bf c224 9b3e 6e10 083f d23d 8a3e

exp_avg_sq f4 [8, 6]
0.5658967 0.028595734 0.085981816 0.023358291 0.037026957 0.025699228 0.03083763 0.0015202996
0.0045453454 0.0012144079 0.001974819 0.0013227821 0.39415017 0.01910328 0.05728057 0.015543077
0.024777759 0.01643722 3.7109556 0.18896689 0.5672102 0.15395905 0.24488957 0.16534695
3.7354088 0.18268186 0.5495967 0.1492812 0.23664074 0.1628763 2.183686 0.110355206
0.3318155 0.09010461 0.14292671 0.09856159 0.0028670812 0.0001298382 0.00039352902 0.000104680126
0.00016750727 0.000106359454 25.41287 1.2598113 3.7877069 1.0285145 1.6321973 1.1155608
00000000: 9bde 103f 9a41 ea3c 3c17 b03d e359 bf3c
00000010: 94a9 173d 3087 d23c 339f fc3c ca44 c73a
00000020: 1ff1 943b c42c 9f3a f76b 013b 3461 ad3a
00000030: 0dce c93e 7b7e 9c3c 089f 6a3d 64a8 7e3c
00000040: bafa ca3c 59a7 863c 4c80 6d40 8980 413e
00000050: b034 113f 71a7 1d3e 55c4 7a3e b650 293e
00000060: f010 6f40 f410 3b3e 5fb2 0c3f 2cdd 183e
00000070: f351 723e 0bc9 263e 83c1 0b40 e901 e23d
00000080: b9e3 a93e c488 b83d 615b 123e a9da c93d
00000090: a4e5 3b3b 2d25 0839 9252 ce39 b787 db38
000000a0: e4a4 2f39 4c0d df38 8f4d cb41 7f41 a13f
000000b0: ca69 7240 5da6 833f d7eb d03f b2ca 8e3f

exp_avg f4 [8]
-0.12183395 0.040341705 0.10386081 0.32132086 0.3086054 -0.23991156 0.0103806 -0.8171523
00000000: 1484 f9bd 583d 253d fab4 d43d 2b84 a43e
00000010: 8701 9e3e 60ab 75be 6413 2a3c e530 51bf

exp_avg_sq f4 [8]
0.09654243 0.0051327012 0.064494915 0.63797146 0.61675453 0.3725714 0.000438348 4.2532597
00000000: 0ab8 c53d 3830 a83b e915 843d 1952 233f
00000010: a0e3 1d3f aec1 be3e 13d2 e539 b41a 8840

exp_avg f4 [8, 8]
0.090807244 -0.012212253 -0.019984366 -0.022978518 -0.034266405 0.0009356612 -0.0015650262 -0.012932235
0.057271462 -0.0077014877 -0.012605713 -0.01449397 -0.021604957 0.00058665016 -0.0009862334 -0.008163042
-0.07744388 0.010414334 0.017048469 0.019598112 0.02922022 -0.00078839215 0.0013335481 0.011038594
-0.06688812 0.008994089 0.014712071 0.016927846 0.025226101 -0.0007014947 0.0011533363 0.009526735
-0.050499942 0.0067919255 0.011117992 0.012778224 0.019061292 -0.00051421026 0.00086956006 0.0071923947
0.093428016 -0.012564135 -0.020567762 -0.023640485 -0.035261456 0.0009500326 -0.0016089913 -0.013311051
0.06560864 -0.008821794 -0.014430534 -0.016604353 -0.024741799 0.0006879507 -0.0011311441 -0.009345807
0.1420857 -0.019107128 -0.031269964 -0.035955057 -0.05361154 0.0014602852 -0.0024485325 -0.020242292
00000000: 26f9 b93d e715 48bc 41b6 a3bc 723d bcbc
00000010: ee5a 0cbd 2947 753a 9121 cdba bae1 53bc
00000020: 7b95 6a3d c35c fcbb 3188 4ebc 1e78 6dbc
00000030: e1fc b0bc 6dc9 193a 8044 81ba 48be 05bc
00000040: e69a 9ebd e2a0 2a3c 3ba9 8b3c 388c a03c
00000050: 3e5f ef3c 1aac 4eba 73ca ae3a 38db 343c
00000060: a3fc 88bd f25b 133c e60a 713c 44ac 8a3c
00000070: f8a6 ce3c 83e4 37ba 8b2b 973a 0616 1c3c
00000080: 07d9 4ebd cd8e de3b 3d28 363c c25b 513c
00000090: 6d26 9c3c 11cc 06ba 30f3 633a 2eae eb3b
000000a0: 3057 bf3d cdd9 4dbc b97d a8bc b1a9 c1bc
000000b0: 516e 10bd 9c0b 793a cae4 d2ba 9816 5abc
000000c0: d35d 863d 4989 10bc 0c6e 6cbc da05 88bc
000000d0: 50af cabc 9757 343a e642 94ba 281f 19bc
000000e0: ea7e 113e 8d86 9cbc ef14 00bd 9c45 13bd
000000f0: c697 5bbd 0a67 bf3a 8f77 20bb 2ad3 a5bc

exp_avg_sq f4 [8, 8]
0.049131032 0.0011153381 0.009704359 0.004712848 0.042703096 0.029048946 0.00032362796 0.010513185
0.0200095 0.00045014507 0.0039561316 0.0019297143 0.017401047 0.011886439 0.00013179482 0.004307104
0.03589175 0.000810655 0.007091093 0.00344998 0.031204449 0.02127389 0.00023644716 0.0077116825
0.02701544 0.0006109056 0.0053436747 0.002602958 0.023468798 0.016017795 0.00017785677 0.005777119
0.01529622 0.0003456841 0.0030217145 0.001470462 0.013311373 0.009060609 0.000100784215 0.0032910197
0.05170896 0.0011710537 0.010217137 0.0049676374 0.044972118 0.030612335 0.00034078595 0.011099764
0.025935177 0.00058612844 0.005130614 0.002499572 0.022525748 0.015382606 0.00017071843 0.0055455905
0.11976593 0.0027193704 0.023659522 0.01148798 0.10405703 0.07082254 0.0007890015 0.025611682
00000000: 9f3d 493d 8930 923a 08ff 1e3c 3c6e 9a3b
00000010: 71e9 2e3d 0ef8 ed3c 9cac a939 7e3f 2c3c
00000020: f7ea a33c 7301 ec39 70a2 813b 78ee fc3a
00000030: a48c 8e3c 57bf 423c 6732 0a39 9b22 8d3b
00000040: 3a03 133d 2382 543a 665c e83b 0f19 623b
00000050: 79a0 ff3c 9546 ae3c cdee 7739 48b2 fc3b
00000060: 7c4f dd3c 2e25 203a fe19 af3b 6396 2a3b
00000070: a341 c03c c037 833c 107f 3a39 fd4d bd3b
00000080: ff9c 7a3c ef3c b539 f507 463b 84bc c03a
00000090: f217 5a3c f372 143c 1d5c d338 26ae 573b
000000a0: c6cc 533d 0b7e 993a c765 273c 90c7 a23b
000000b0: af34 383d b8c6 fa3c 84ab b239 c9db 353c
000000c0: 0276 d43c 6aa6 193a b61e a83b dccf 233b
000000d0: eb87 b83c 5307 7c3c e102 3339 c9b7 b53b
000000e0: d747 f53d 7737 323b 9dd1 c13c 1538 3c3c
000000f0: da1b d53d 680b 913d ffd4 4e3a 97cf d13c

exp_avg f4 [8]
0.12870272 0.081172384 -0.10977158 -0.09478317 -0.071581565 0.13243356 0.09296952 0.20138486
00000000: a5ca 033e b53d a63d eccf e0bd ae1d c2bd
00000010: 5b99 92bd aa9c 073e ce66 be3d d537 4e3e

exp_avg_sq f4 [8]
0.10617435 0.042807423 0.07717915 0.058041394 0.03289715 0.11138112 0.055690195 0.25879955
00000000: f071 d93d d656 2f3d 1a10 9e3d d0bc 6d3d
00000010: 29bf 063d c91b e43d 671b 643d 6081 843e

exp_avg f4 [1, 8]
0.19769754 0.0781576 -0.054919634 -0.12348605 -0.17248353 0.085669965 0.11905454 0.053731136
00000000: 3971 4a3e 1711 a03d 69f3 60bd 41e6 fcbd
00000010: 869f 30be bc73 af3d ded2 f33d 2e15 5c3d

exp_avg_sq f4 [1, 8]
0.34366164 0.09472889 0.10121143 0.15994275 0.2156406 0.10293009 0.16414614 0.10183579
00000000: 6bf4 af3e 3801 c23d f047 cf3d 08c8 233e
00000010: e4d0 5c3e 03cd d23d ed15 283e 488f d03d

exp_avg f4 [8, 6]
-0.022124855 -0.012369839 0.018671153 -0.01268843 -0.012024258 -0.0044894065 0.02420251 0.0134465685
-0.020294638 0.013795571 0.013061671 0.004907699 0.023250207 0.012837499 -0.019370155 0.013174426
0.012464413 0.004699462 0.037254825 0.021016479 -0.031736027 0.021548973 0.02043926 0.0075925104
-0.1635455 -0.09189372 0.13873859 -0.0942395 -0.089348964 -0.033256657 0.0024313955 0.0015731194
-0.002386774 0.0016047262 0.0015431324 0.0005274109 -0.03837308 -0.021346847 0.032215983 -0.02190111
-0.020741709 -0.007765869 0.0061129183 0.0031082695 -0.0046764887 0.0032009138 0.0029962247 0.0012079496
00000000: 2f3f b5bc ddaa 4abc 3ff4 983c 22e3 4fbc
00000010: 6501 45bc df1b 93bb 5844 c63c ff4e 5c3c
00000020: f140 a6bc d206 623c 9e00 563c c3d0 a03b
00000030: 3877 be3c 6054 523c 29ae 9ebc 8cd9 573c
00000040: 8a37 4c3c f2fd 993b 8498 183d c02a ac3c
00000050: a3fd 01bd 7987 b03c 3c70 a73c 98ca f83b
00000060: 7978 27be c632 bcbd 7d11 0e3e a400 c1bd
00000070: 97fc b6bd 2238 08bd 0c58 1f3b 2131 ce3a
00000080: 6c6b 1cbb ad55 d23a ee42 ca3a f241 0a3a
00000090: 172d 1dbd 95df aebc e8f4 033d f569 b3bc
000000a0: 84ea a9bc d578 febb e04e c83b 1cb4 4b3b
000000b0: 3b3d 99bb 6cc6 513b 4f5c 443b 1054 9e3a

exp_avg_sq f4 [8, 6]
0.5450529 0.0029527815 0.008223467 0.0028128475 0.0033548162 0.003923958 0.921881 0.0038019472
0.010851075 0.0036439141 0.0043065385 0.005454628 0.8109977 0.0036497642 0.010306365 0.003491432
0.0041309716 0.0051646745 2.0011175 0.008669745 0.024580978 0.008305934 0.009819181 0.01221751
34.20642 0.16308598 0.4579631 0.15591757 0.18480189 0.22387871 0.03394892 0.000120920246
0.00035372062 0.00011519426 0.00013579105 0.0001614242 1.7310468 0.008912415 0.024845397 0.00850709
0.010097818 0.011920934 0.1133949 0.0004200232 0.0012204818 0.00040174273 0.00047600298 0.0006688473
00000000: 9688 0b3f 7483 413b b8bb 063c c057 383b
00000010: 7adc 5b3b 8c94 803b 6500 6c3f 172a 793b
00000020: b5c8 313c bcce 6e3b dd1d 8d3b bcbc b23b
00000030: 8c9d 4f3f e230 6f3b 07dc 283c 82d0 643b
00000040: 1a5d 873b 6e3c a93b 4f12 0040 8c0b 0e3c
00000050: 0c5e c93c 9d15 083c a1e0 203c f32b 483c
00000060: 60d3 0842 0300 273e 247a ea3e dba8 1f3e
00000070: b53c 3d3e 7640 653e 060e 0b3d 9096 fd38
00000080: 9473 b939 7394 f138 2263 0e39 fb43 2939
00000090: f192 dd3f 6105 123c 9388 cb3c 5261 0b3c
000000a0: 5271 253c 0550 433c 963b e83d 8f36 dc39
000000b0: 93f8 9f3a ffa0 d239 0a90 f939 9555 2f3a

exp_avg f4 [8]
0.022728587 -0.024706993 -0.023587877 -0.038616095 0.16884735 -0.0028904807 0.039223127 -0.005711196
00000000: 4d31 ba3c 5266 cabc 5d3b c1bc e92b 1ebd
00000010: 52e6 2c3e 386e 3dbb 6ea8 203d fc24 bbbb

exp_avg_sq f4 [8]
0.009968897 0.0128358025 0.012322008 0.029270034 0.5505967 0.00040824022 0.030089267 0.001418048
00000000: 9654 233c 424d 523c 3fe2 493c b6c7 ef3c
00000010: e8f3 0c3f 1309 d639 c47d f63c ccdd b93a

exp_avg f4 [8, 8]
-0.003051813 -0.010436859 -0.008830296 -0.005387322 0.0019859902 0.002957128 0.0042169336 -0.005738267
-0.00041235556 -0.0014886716 -0.0012817597 -0.0007338324 0.00030301957 0.00043049973 0.00066231756 -0.00083489704
0.0011818898 0.0038878631 0.0032495 0.0020693375 -0.0007008985 -0.0010864891 -0.0014590424 0.0021073734
0.0027937104 0.009523054 0.008049092 0.0049289363 -0.0018046349 -0.0026947833 -0.0038246398 0.005229888
-0.004739616 -0.016224723 -0.013729314 -0.008373691 0.0030930706 0.0045959726 0.0065613473 -0.008922982
0.009034455 0.030983213 0.026228454 0.01597556 -0.0059226532 -0.008778501 -0.0125611555 0.017048893
0.012687136 0.043610092 0.036943503 0.022446308 -0.008362091 -0.012365433 -0.017752506 0.024016734
0.0027597938 0.00937506 0.007915199 0.004866009 -0.0017683939 -0.0026495354 -0.0037408748 0.005142022
00000000: ed00 48bb 5cff 2abc f2ac 10bc 2288 b0bb
00000010: 6327 023b 60cc 413b 342e 8a3b 1308 bcbb
00000020: 6d31 d8b9 881f c3ba b800 a8ba a95e 40ba
00000030: 99de 9e39 b2b4 e139 619f 2d3a fedc 5aba
00000040: a4e9 9a3a 85cb 7e3b 90f5 543b b99d 073b
00000050: 81bc 37ba 8668 8eba 573d bfba dc1b 0a3b
00000060: af16 373b 9506 1c3c 57e0 033c ea82 a13b
00000070: 8089 ecba f69a 30bb cfa6 7abb 7b5f ab3b
00000080: c84e 9bbb b6e9 84bc ebf0 60bc ce31 09bc
00000090: 1db5 4a3b d099 963b 9200 d73b b331 12bc
000000a0: 4005 143c 82d0 fd3c 0edd d63c 2ddf 823c
000000b0: d112 c2bb b4d3 0fbc 4ecd 4dbc 1faa 8b3c
000000c0: b5dd 4f3c 7fa0 323d 1252 173d 52e1 b73c
000000d0: 2701 09bc 6398 4abc b46d 91bc bebe c43c
000000e0: a8dd 343b da99 193c c0ae 013c 0b73 9f3b
000000f0: 74c9 e7ba d4a3 2dbb 7729 75bb 687e a83b

exp_avg_sq f4 [8, 8]
0.0054126503 0.012449924 0.003781314 0.035672344 0.003355198 0.002017774 0.027940392 0.0026177685
3.2231874e-05 7.984796e-05 2.5984633e-05 0.00022004698 2.1310341e-05 3.896536e-06 0.00017121916 1.7681043e-05
0.0009464155 0.0021476336 0.00063629943 0.0062326165 0.0005675541 0.0003215834 0.004873378 0.00044279054
0.0041891495 0.0097714905 0.0030789627 0.027539805 0.002701684 0.001593674 0.02168938 0.0021145886
0.01147823 0.026781417 0.008461561 0.07528768 0.0073963716 0.0043242956 0.059318963 0.0058242176
0.038953457 0.09149534 0.029247588 0.25565994 0.025441622 0.014993094 0.20164223 0.020075241
0.07602015 0.17861012 0.057246227 0.4983206 0.049722005 0.02916589 0.39327574 0.03931026
0.0040978226 0.0095428 0.0029905282 0.026949482 0.002628883 0.0015375247 0.021202637 0.0020580366
00000000: 9a5c b13b c4fa 4b3c eccf 773b 2a1d 123d
00000010: e2e2 5b3b a13c 043b 40e3 e43c de8e 2b3b
00000020: b630 0738 0c74 a738 93f9 d937 69bc 6639
00000030: 9cc3 b237 fdbe 8236 4b89 3339 c051 9437
00000040: de18 783a 50bf 0c3b 55cd 263a fa3a cc3b
00000050: e9c7 143a 319a a839 dcb0 9f3b 5726 e839
00000060: 2245 893b 9a18 203c 6cc8 493b 289b e13c
00000070: bc0e 313b d3e2 d03a edad b13c e994 0a3b
00000080: 300f 3c3c b464 db3c 5ca2 0a3c 6d30 9a3d
00000090: 435d f23b d2b2 8d3b 71f8 723d 14d9 be3b
000000a0: a98d 1f3d e961 bb3d a398 ef3c dce5 823e
000000b0: f36a d03c 98a5 753c 4d7b 4e3e d574 a43c
000000c0: 74b0 9b3d 92e5 363e 057b 6a3d e123 ff3e
000000d0: 4da9 4b3d 4eed ee3c 705b c93e cc03 213d
000000e0: 0747 863b 6759 1c3c bdfc 433b 29c5 dc3c
000000f0: 5749 2c3b c586 c93a 27b1 ad3c 20e0 063b

exp_avg f4 [8]
-0.018592937 -0.0026785606 0.006883832 0.016955756 -0.02889975 0.055189233 0.0777077 0.016682247
00000000: 3750 98bc ca8a 2fbb c591 e13b cce6 8a3c
00000010: 2bbf ecbc 1b0e 623d 3725 9f3d 35a9 883c

exp_avg_sq f4 [8]
0.007261053 5.632545e-05 0.0012186284 0.0060046148 0.016551547 0.05751307 0.11274685 0.0058134245
00000000: 21ee ed3b fe3e 6c38 62ba 9f3a 5cc2 c43b
00000010: 1c97 873c d392 6b3d d2e7 e63d 8a7e be3b

exp_avg f4 [1, 8]
0.05733302 -0.007050532 -0.06896569 -0.029938908 0.05387182 -0.10415374 -0.11597058 -0.03897114
00000000: 07d6 6a3d 2608 e7bb e23d 8dbd 7142 f5bc
00000010: b3a8 5c3d 8e4e d5bd fc81 edbd 34a0 1fbd

exp_avg_sq f4 [1, 8]
0.3911104 0.019850774 0.24195437 0.23768894 0.46016002 0.5387333 0.98860794 0.1636826
00000000: 9f3f c83e 179e a23c e3c2 773e bb64 733e
00000010: 189a eb3e 6dea 093f 6915 7d3f 699c 273e
