trained_models/binaries/model_down_test.pth (torch, 26043 bytes, 51 tensors)

l1_1.weight f4 [8, 6]
000000 f3 0a 33 be 76 cb 13 bf 43 12 0a bf 3c 9e 81 3f
       -0.17484646 -0.5773233 -0.53934115 1.0126414
000010 7c aa dd 3d 82 a5 0b 3e a6 f1 56 b9 23 ad 01 bf
       0.10823533 0.13637355 -0.00020498651 -0.5065481
000020 dd db 2f 3e 13 b4 c2 3e 17 16 b8 3f 93 7a c2 bd
       0.17173715 0.3802801 1.4381741 -0.094960354
000030 91 82 37 bc b8 3a 06 3e ad bb c4 be d6 1e 0e be
       -0.011200563 0.13108337 -0.38424435 -0.1387895
000040 df 9e bf bf 3f 3d 4d bd f2 27 32 be 83 24 82 3e
       -1.4970359 -0.050107237 -0.1739805 0.2541848
000050 ae ec c6 be 18 1e ee 3c 76 25 bd bf 27 34 9f 3e
       -0.38852447 0.029067084 -1.4777057 0.31094477
000060 ee e0 e6 bd 55 c4 46 bf 89 2a ee bc f4 d9 28 3e
       -0.11273371 -0.7764333 -0.029073017 0.16489393
000070 11 4c a9 3f 6d ff c6 3e 2d 02 28 be 38 92 42 be
       1.3226339 0.3886675 -0.1640708 -0.1900109
000080 a6 30 ad 3d 6e e8 23 3d f6 d4 d5 3f 2b 5a b3 3e
       0.084565446 0.040016584 1.6705616 0.3502973
000090 ff a2 1d be 5b f2 3f 3f 89 85 9b 3e 06 16 62 3e
       -0.1539421 0.7497918 0.30375317 0.22078714
0000a0 50 a2 b2 bf fa 4b 2f be 51 d9 1f 3b 1a 19 68 3d
       -1.3955784 -0.17118827 0.0024391005 0.056664564
0000b0 53 bb 20 bc 41 4b d6 be f1 67 b0 bd 14 d6 1a bd
       -0.009810287 -0.4185429 -0.08613575 -0.037801817

l1_1.bias f4 [8]
000000 e7 ae ce 3e c2 86 4f 3f 72 86 1d bf ba d9 15 bf
       0.40367815 0.81065 -0.6153327 -0.5853535
000010 60 55 8d 3e 79 95 af 3e 5c 57 44 bc 53 39 24 be
       0.27604198 0.34293726 -0.011983719 -0.16037492

l1_2.weight f4 [8, 8]
000000 5c f4 f3 3e 6b 89 92 3e 92 06 f6 be 03 61 10 bf
       0.4764737 0.28620467 -0.48051888 -0.5639803
000010 c8 15 fa 3e c2 03 22 3f 98 22 78 be 5f 35 39 3e
       0.48844743 0.63286984 -0.24231946 0.18086766
000020 25 6b 1f 3e db 08 db 3d d8 27 10 bf ab 00 d3 be
       0.15568216 0.106950484 -0.56310797 -0.41211447
000030 92 40 de 3e 42 2a 35 3f 76 64 6c bf e8 3b d4 bb
       0.43408638 0.70767605 -0.9234079 -0.006476868
000040 39 ca b3 be 37 e1 8a be 2d 5c 80 3e fc a9 7f 3e
       -0.3511522 -0.2712495 0.25070325 0.24967188
000050 64 af 81 be bb 3c 42 bd 16 13 53 3f a0 ae d9 bd
       -0.25329125 -0.0474212 0.82451 -0.1062901
000060 e7 27 09 3e 74 91 9e 3e be 02 35 bf da cd b9 be
       0.13394128 0.30970347 -0.7070731 -0.36289865
000070 6e d3 01 3f bf 3e 3b 3f 21 cc ba be a9 28 e8 bc
       0.5071324 0.7314262 -0.36483863 -0.0283397
000080 fb f6 fd 3d 08 3f 2c be de 30 9e 3d e4 a5 16 be
       0.124006234 -0.1682092 0.077241644 -0.1471172
000090 5f 9f be 3d 73 d4 1a 3e 50 64 97 bd d0 1f 5c be
       0.093077414 0.15120105 -0.0739218 -0.2149651
0000a0 97 92 63 3e a4 b2 a4 3e e7 f9 d2 3e 75 f2 84 bd
       0.22223888 0.32167542 0.41206285 -0.064915575
0000b0 60 d5 9d 3d 15 70 19 bd 0d c8 cd be 74 37 ac be
       0.07706714 -0.037460405 -0.4019169 -0.33636057
0000c0 13 70 75 3e a7 14 27 3d 69 c9 2e 3f 1f 5e 37 be
       0.23968534 0.04079118 0.6827608 -0.17906998
0000d0 e9 05 ea 3c 45 38 fa 3d ae 59 85 be 8b 89 87 be
       0.028567271 0.12217764 -0.26044983 -0.26472124
0000e0 7a 52 b7 be a9 f7 96 bd 74 c7 61 3e 75 13 24 be
       -0.35805112 -0.07371456 0.22048742 -0.16023047
0000f0 05 9b 18 3b 8f f8 fa be ea 71 85 3f ea 63 23 3e
       0.0023285758 -0.4901776 1.0425389 0.15956083

l1_2.bias f4 [8]
000000 07 a7 4f 3e e8 35 02 3f a7 8a 8b be 43 07 dd 3e
       0.2027856 0.50863504 -0.2725422 0.43169603
000010 d3 fc ff 3d 71 f2 37 3e e7 bb 7d 3e 39 2f d9 be
       0.12499394 0.17963578 0.2477871 -0.4241884

l1_3.weight f4 [8, 8]
000000 ca 88 16 be b0 d2 95 be 80 c7 b3 3b 16 1e 33 3e
       -0.14700618 -0.29262304 0.0054864287 0.17491946
000010 c0 58 c5 3b 18 d2 aa bd b2 0f 7d 3e 60 c7 73 bd
       0.0060225427 -0.083408535 0.24713019 -0.05951631
000020 68 24 61 bd bd 53 99 3e 1a 96 61 3e 58 aa 83 bd
       -0.05496636 0.299467 0.22029915 -0.06428975
000030 a8 fd 7b 3d e0 03 88 bd 16 08 2e 3e 48 69 af 3d
       0.061521202 -0.06641364 0.16995272 0.08565003
000040 8d ac 8e 3e f4 25 93 be 75 c3 88 be 00 57 14 3d
       0.2786602 -0.28739893 -0.26711622 0.036215782
000050 64 fe 35 be 00 00 c7 37 6a d2 96 be 97 08 9f be
       -0.17772824 2.3722649e-05 -0.29457408 -0.3106124
000060 20 f5 2e bd e0 f1 87 be 66 18 70 3e 09 f8 a1 be
       -0.04271424 -0.26551723 0.23446807 -0.31634548
000070 00 b9 0a 3b e4 b0 5e be 85 3f 8a 3e 31 e7 86 3e
       0.0021167397 -0.21747166 0.27001587 0.2634826
000080 a2 fc 51 3e e9 d8 36 be 6f 2b b2 3e 32 27 ec bd
       0.20506528 -0.17856182 0.34798762 -0.115309134
000090 06 07 58 3e 10 64 54 bd 5a 2b 46 be 4f f2 17 be
       0.21096429 -0.05185324 -0.19352475 -0.14838527
0000a0 54 ca 89 be 28 30 05 3d 46 62 19 3e b6 78 25 3e
       -0.26912177 0.03251663 0.14978895 0.16159329
0000b0 a4 a0 a2 3d 98 c5 a6 be 88 27 58 bd 58 c5 14 3e
       0.07940796 -0.32572627 -0.052772075 0.14528406
0000c0 f7 e2 84 3e 78 8b 91 be 5e 9b 32 be 10 1d e2 bd
       0.2595441 -0.2842672 -0.1744208 -0.110406995
0000d0 66 ae 3d 3e 72 59 49 3e 14 88 92 be 40 ab 23 bc
       0.18523559 0.19663027 -0.28619444 -0.00998956
0000e0 e0 12 be 3c e0 0d 15 bd 22 9c 2e 3e 7a d6 10 3e
       0.02320236 -0.036390185 0.17051747 0.14144316
0000f0 dc a4 88 bd 1c 7d a3 be 20 18 bf bc 02 87 a2 be
       -0.066720694 -0.31931388 -0.023326933 -0.31743628

l1_3.bias f4 [8]
000000 5f 5c 99 3e 76 e3 78 3e 10 e2 29 3d e5 28 4b be
       0.29953286 0.2430552 0.041475356 -0.19839819
000010 ce ef 49 3e ba 5d 3e 3e b8 58 b6 3d 80 10 95 3b
       0.19720384 0.18590441 0.089036405 0.004549086

l1_4.weight f4 [1, 8]
000000 6f 16 58 3e 30 95 11 3f 53 f8 5e bd 98 fc c4 3e
       0.21102308 0.5686827 -0.05443604 0.38473964
000010 a2 99 e6 bc f9 19 bf 3c dd 4e 5d bb 25 6e 7b be
       -0.02814943 0.023327814 -0.003376893 -0.24553736

l2_1.weight f4 [8, 6]
000000 49 7a 7a 3d 4a 14 5f 3e 2e c7 ee 3e 11 92 c0 bf
       0.061151776 0.21785083 0.46636337 -1.5044576
000010 b1 1f 32 3f 2c fc 66 be 6a a4 cf 3c a3 df 28 be
       0.6957961 -0.22557133 0.025346953 -0.1649156
000020 8f 50 f8 bd 76 a1 85 3e f1 c5 a0 3d c7 c9 09 bf
       -0.1212474 0.26099747 0.07850254 -0.5382351
000030 66 4e 96 3e 9d f8 ff be 4d 4b 19 bf a5 74 5e 3f
       0.29356688 -0.49994364 -0.59880525 0.86896735
000040 37 e0 2c bf 2b 51 25 be d1 0f 00 be a5 c0 af 3d
       -0.67529625 -0.16144244 -0.12506033 0.08581666
000050 ce 62 0b be 2b 57 c8 3f 06 45 19 bf 76 f8 dd 3a
       -0.1361191 1.5651602 -0.59870946 0.0016935009
000060 cc c5 ea 3d 1e 0f 79 be f7 ea 5b bd 86 6d c5 bf
       0.11463508 -0.24322173 -0.053690877 -1.5424049
000070 e3 39 4b 3f b3 8b c1 3d 38 c8 88 3e b5 4f 6e be
       0.79385203 0.09450474 0.26715255 -0.23272593
000080 e2 0b 5a be 5b 12 db 3e 45 f9 a7 be ee 92 78 be
       -0.21293595 0.42787442 -0.32807365 -0.24274799
000090 32 dc 80 bc 4c cc 0e 3e f6 cd df 3e e3 8d 98 bf
       -0.015729997 0.1394512 0.43711823 -1.19183
0000a0 c2 fd 1c 3f 6c 48 00 3f bd 14 33 be b3 34 19 bd
       0.61324704 0.50110507 -0.1748838 -0.037403774
0000b0 ab dc d7 3d f6 9f a0 3f 32 92 66 bf f2 96 29 be
       0.10540136 1.2548816 -0.90066826 -0.16561487

l2_1.bias f4 [8]
000000 d8 1d b2 be 2e 01 f9 3d 3c 05 9c 3d 54 ad 90 3e
       -0.34788394 0.12158428 0.07618186 0.2825724
000010 0e c9 05 be b9 ea c4 3b d2 74 bd be 3a 30 14 3f
       -0.13064978 0.0060094264 -0.3700319 0.5788609

l2_2.weight f4 [8, 8]
000000 89 a0 59 bd cc 4a 47 3e 79 49 00 bf 7c 40 b3 3e
       -0.053131614 0.19462126 -0.5011211 0.35010135
000010 01 0b 20 3e 27 87 d5 be b5 23 e2 3e b6 66 89 bf
       0.15629198 -0.41704676 0.44167867 -1.073447
000020 30 34 2d be 69 b3 ff be 5d 44 8c be 26 8f 82 3e
       -0.16914439 -0.49941567 -0.27395907 0.2549984
000030 e2 c0 62 3e 3b 08 38 3e ac ff 0d be 6e 97 11 be
       0.22143891 0.1797189 -0.13867062 -0.14217922
000040 bb e6 ef bc cf 4e 29 3e 9b bd ff be 1d bf ae be
       -0.029284826 0.1653397 -0.49949345 -0.34130183
000050 e9 f6 2c 3e 2b 4e 6e 3e 4b d0 d0 3e 4a 16 46 bf
       0.16891064 0.23272006 0.40783915 -0.7737776
000060 9e d1 64 bd 0e e0 98 3e 55 ce 0d bf 82 f3 a3 bd
       -0.05586397 0.2985844 -0.5539296 -0.0800543
000070 dc 49 9a 3e 01 4e 95 bd 5f eb 09 3f d9 68 7a bf
       0.30134475 -0.07290269 0.5387477 -0.97816235
000080 13 da 76 3e 41 da f7 be f3 d4 a1 3e 36 69 f5 bd
       0.24106626 -0.48408702 0.3160778 -0.11982958
000090 52 70 a6 be 36 d3 ca bc 65 36 a7 be 30 04 49 3f
       -0.3250757 -0.024758916 -0.32658687 0.78522015
0000a0 e1 6f bb 3b 32 2b 18 be 1c be 45 be 41 40 39 3f
       0.005720124 -0.14860228 -0.19310802 0.7236367
0000b0 86 17 1c 3f 37 8d 11 3e d8 3e dd 3d 63 9d 4b be
       0.60973394 0.14214025 0.10803002 -0.19884257
0000c0 9e 75 8c 3e 5e 8e f1 3e e3 c0 23 bf da 88 9b 3c
       0.27433485 0.4717893 -0.63966197 0.018986154
0000d0 ad 83 f1 3e db 21 1f be e9 72 8c 3e 89 df 1b bf
       0.47170773 -0.15540259 0.2743142 -0.6088796
0000e0 dc 39 8b bb af 24 8f 3d db 16 2b 3f 4a 34 d3 3d
       -0.0042488407 0.06989419 0.6683175 0.10312708
0000f0 47 fb f4 be 45 fd 8e 3e 31 7e a1 be 09 d9 53 3f
       -0.4784796 0.27927604 -0.3154159 0.82753044

l2_2.bias f4 [8]
000000 a5 0e 03 3d 23 0d 79 3d d9 fe c0 be f7 ff 88 3d
       0.031996388 0.060803544 -0.37694433 0.066894464
000010 24 13 74 3e c5 16 a1 bd 30 ee 80 be a7 4c a9 bd
       0.23835427 -0.07865671 -0.25181723 -0.082665734

l2_3.weight f4 [8, 8]
000000 12 5e 1f be c3 cc 9e be c8 b8 33 3d d0 52 c2 bc
       -0.15563229 -0.31015596 0.043877393 -0.023721129
000010 80 07 7c 3b 6a 5a 80 be 5c 3e a0 be d6 79 45 be
       0.0038456619 -0.2506898 -0.31297576 -0.19284758
000020 99 db 51 be fc 82 90 3d 40 51 9c bd ae 98 07 3e
       -0.20493926 0.07056233 -0.07632685 0.13241836
000030 78 6d e3 3d fd 70 a7 3e 4e 7f 13 3e a5 23 a3 3e
       0.11104864 0.3270339 0.14404032 0.31863132
000040 6c 82 04 3e fe f1 7a 3e 77 08 b3 3e 0a 40 63 be
       0.12940377 0.24506375 0.34967396 -0.22192398
000050 58 86 7c 3d 42 0d 8a be 50 a3 a6 3c f5 c2 aa 3e
       0.061651558 -0.2696324 0.020341545 0.33351865
000060 c3 55 a0 3e 73 4c 96 3e 8a 13 7e be 6e ac 3e 3e
       0.3131543 0.293552 -0.24812141 0.18620464
000070 27 c8 9e 3e 8d 76 b2 be c6 29 05 be 5c 8f 85 be
       0.3101208 -0.34856072 -0.13004217 -0.26085937
000080 e2 ff 52 3e 58 8d 16 3d fe db 26 3e 0b 48 51 be
       0.20605424 0.03675589 0.16294858 -0.20437638
000090 7c 5f c4 bd cf ff 9b 3e b4 22 74 be c6 45 62 3e
       -0.09588525 0.30468604 -0.23841363 0.22096929
0000a0 16 c5 18 3e 00 b7 9b be e2 03 58 be 28 be 2d 3d
       0.14918932 -0.30413055 -0.21095231 0.042417675
0000b0 e2 d3 1a 3e 26 ba f0 bd bc f9 41 be dc 53 8b be
       0.1511989 -0.11754255 -0.18942922 -0.27212417
0000c0 44 64 83 be 92 0f 5f 3e 5f 7f 87 be 23 a8 4c be
       -0.25662434 0.21783283 -0.26464364 -0.19986014
0000d0 d3 cb 95 3e 9c b8 8e 3d 00 92 b8 bd 64 96 dc 3d
       0.29257068 0.06968805 -0.09012222 0.10770872
0000e0 20 8f 5d bd 00 27 db bc c8 e6 1d 3d 07 c1 a8 3e
       -0.054091573 -0.026751995 0.03855017 0.32959768
0000f0 c8 e9 93 bd 9d 11 2e be de ac 39 be 38 c0 2e bd
       -0.072223246 -0.16998906 -0.1813235 -0.042663783

l2_3.bias f4 [8]
000000 88 ca 97 be 80 9b 51 bb bc 5e 93 3d da 26 26 3e
       -0.29646707 -0.0031983554 0.071958035 0.16225758
000010 82 68 92 be 3a d1 fa bd c1 a8 a6 3e 0e c5 85 be
       -0.28595358 -0.12246938 0.32550624 -0.26126903

l2_4.weight f4 [1, 8]
000000 84 63 f0 be 75 b7 d5 3b 73 51 88 be dd 39 96 be
       -0.46950924 0.006522114 -0.2662464 -0.2934102
000010 66 05 de 3d 61 15 24 3d 85 5e 9d be c5 66 96 3e
       0.108408734 0.04005945 -0.30736175 0.29375282

l3_1.weight f4 [8, 6]
000000 9f 64 85 bd 8d 35 4a 3e d0 77 f7 bd eb 95 a7 be
       -0.065133326 0.1974699 -0.12083399 -0.32731566
000010 33 61 85 be 14 0f 64 3e 6c 66 82 3b 96 70 e4 be
       -0.2605072 0.22271377 0.003979495 -0.44617146
000020 a1 ed 00 3f 3d 7e cc 3e 79 ed 35 bd e0 cd d6 be
       0.5036259 0.39940062 -0.044415925 -0.41953945
000030 af 32 a1 be 2d 29 35 3f 0c 8b 78 be 18 9f b1 be
       -0.3148398 0.70765954 -0.24271792 -0.3469169
000040 b7 61 e8 be 3f 66 18 3f 86 2e 13 3e 83 e6 1c be
       -0.4538705 0.59531015 0.14373216 -0.15322308
000050 d9 d1 9b bd bd 2f 6f bf f7 f8 1f bf af 7d ba bd
       -0.07608385 -0.9343222 -0.62489265 -0.091060035
000060 3d eb 00 3d 0e 42 6d be c7 37 a0 3e 7e eb 4e 3f
       0.03147434 -0.23169729 0.31292555 0.8082808
000070 03 17 84 3e c5 a0 1f bd 6b 94 f3 3a 6e cd 85 be
       0.25798807 -0.03897168 0.0018583661 -0.26133293
000080 52 c8 2f bd 15 bc 65 be c8 8e 17 3e 8a ee 2e bd
       -0.04291565 -0.22435029 0.1480056 -0.042707957
000090 3e ae 4a bd 96 99 d8 3e 79 05 6b 3c 4a 5f 06 bf
       -0.049482577 0.42304677 0.0143445665 -0.5248915
0000a0 b6 a5 21 bf 4a e6 3c 3c ae 58 25 bd 30 91 83 3e
       -0.6314348 0.011529515 -0.040367775 0.25696707
0000b0 68 64 ab bc 54 21 76 bf c1 34 1b bf 9f 7f de 3e
       -0.0209219 -0.96144605 -0.6062737 0.43456742

l3_1.bias f4 [8]
000000 85 a9 20 be 9d aa d6 3e ae 92 27 bf 1b cd 5b 3d
       -0.15689667 0.41927043 -0.6545819 0.0536624
000010 41 90 42 3e bc fc ae bd 7b 2b 42 be cb 05 e2 3d
       0.19000341 -0.08544299 -0.18961899 0.11036261

l3_2.weight f4 [8, 8]
000000 83 80 38 bd fd ca 8d 3e 09 32 a0 be 02 9a 23 bf
       -0.045044433 0.2769393 -0.31288174 -0.6390687
000010 2d a4 a0 3e df 25 71 3e 94 38 eb bd 27 61 bf bd
       0.31375256 0.23549603 -0.11485401 -0.09344702
000020 cc 45 28 3d 18 59 55 3e a9 f4 04 3e 2d ef 24 3e
       0.04108219 0.20834768 0.12983955 0.16106863
000030 3a b8 33 bd 97 c6 4e bd 3c 1d fe be 6b 7d b9 3e
       -0.043876864 -0.05048236 -0.4963168 0.362285
000040 08 75 9f 3d 03 fb 55 bd e2 4f 88 be f2 c9 13 be
       0.07785994 -0.052241337 -0.26623446 -0.14432505
000050 54 9b 74 bd a2 23 7e 3e 4d 41 99 3d 97 29 a2 3e
       -0.059718445 0.2481828 0.07483158 0.31672356
000060 ae a1 52 be 4c 2e 04 be ed dc 6b be 1e a3 b2 bc
       -0.20569488 -0.12908286 -0.23033495 -0.021806296
000070 e3 96 ac bd 18 9b b2 3a 6b f5 27 bd b9 a8 9c be
       -0.08427217 0.0013626544 -0.041005533 -0.30597475
000080 69 6b 4d 3b 87 c1 83 3e 24 92 1e 3e 08 69 a9 3d
       0.003134454 0.25733587 0.15485436 0.08271986
000090 04 80 24 be 02 81 f3 3d 9f 16 bc be fe a2 7a be
       -0.16064459 0.11889841 -0.3673601 -0.24476239
0000a0 a5 4c 54 be f6 7d b2 3d 90 8f c8 bd 72 fd 1d bf
       -0.20732363 0.087154314 -0.097930074 -0.6171485
0000b0 3b 70 03 3d 95 35 04 be 65 27 cb bd 21 40 89 be
       0.032089453 -0.12911065 -0.09919623 -0.2680674
0000c0 dd 53 89 3c df 95 92 be e4 e0 9c 3e 4b e4 fb 3e
       0.016763622 -0.28629968 0.30640328 0.4919761
0000d0 1a 25 4a be f8 73 5b be 88 9c cb bd 46 9c 80 bc
       -0.19740716 -0.21430957 -0.09941965 -0.015699517
0000e0 c0 4d 8b 3d 26 81 5e bc 27 e6 07 be 21 d5 0a be
       0.06801939 -0.013580596 -0.1327139 -0.13557865
0000f0 41 f7 d4 be c7 10 27 3d b4 cc 2e bd ab ab 77 3d
       -0.4159489 0.040787484 -0.04267569 0.06046645

l3_2.bias f4 [8]
000000 77 23 ee 3e ef f1 b8 be 18 37 a5 be 9b 76 a6 3e
       0.46511433 -0.3612208 -0.32268596 0.32512364
000010 a5 0b b5 3e e0 bc bc 3e d2 6f 95 3c f1 4d 6a bd
       0.35360447 0.3686285 0.018241797 -0.057203237

l3_3.weight f4 [8, 8]
000000 4d 29 af 3e 10 21 71 bd d0 c4 f4 bc b3 74 80 3e
       0.34211197 -0.05886942 -0.029879004 0.25089034
000010 40 5a 23 bd 80 28 97 3c 82 e6 6c 3e a0 bb 94 3d
       -0.03988099 0.01845193 0.23134807 0.07262349
000020 36 05 81 be a8 92 90 bd 68 57 65 be 48 03 40 bd
       -0.25199288 -0.070592225 -0.22396624 -0.04687813
000030 9d 0a 0c be 6d 5a b3 3e 93 f4 89 3e 49 9c b4 3e
       -0.13675924 0.35029927 0.26944408 0.35275486
000040 16 e4 18 3e b0 6a 8c 3c e3 dd a5 3e 11 a8 89 3e
       0.14930758 0.017140716 0.3239585 0.26886037
000050 7a 6a 68 3e e3 d7 46 be 82 c4 87 be 00 5d 14 3b
       0.22696868 -0.19418292 -0.2651711 0.002263844
000060 c2 e5 56 3e 7a 42 31 3e c3 12 90 3e b6 d6 b3 be
       0.20986083 0.17310515 0.28139314 -0.3512475
000070 00 b2 af be 71 bd 9e 3e 24 a2 9a be b7 93 b3 3e
       -0.3431549 0.31003907 -0.30201828 0.35073635
000080 60 0f a4 bc 2a 1c 38 3e 06 28 8a be 88 89 0d 3d
       -0.020026863 0.17979494 -0.2698366 0.03455499
000090 da 93 62 3e 28 da 60 3d 06 20 6b be 9f cf 91 3e
       0.22126713 0.05489555 -0.22961435 0.28478715
0000a0 40 73 d5 bc 26 76 28 3e 74 e8 d1 bd 0e 1d 55 be
       -0.026055932 0.1645132 -0.10249415 -0.20811865
0000b0 7b 16 8d 3e e7 f2 b2 3e 20 05 a3 bd a2 c8 98 be
       0.27556214 0.34950945 -0.07959962 -0.2984057
0000c0 02 37 1a be 9e 6c 4b 3e ab f6 87 3e f5 6f ae be
       -0.15060046 0.19865653 0.2655538 -0.3406979
0000d0 d3 73 a4 3e 9d 9d 80 be a4 ee 83 bd e4 d3 a4 3d
       0.32119617 -0.2512025 -0.064420015 0.080482274
0000e0 ea 74 68 be 2a 1b 3f 3e f0 33 5a bd c7 da a6 3e
       -0.22700849 0.18662706 -0.053272188 0.3258879
0000f0 03 a7 8c 3e ad 90 ad 3e 5b 1f 9e be 5a fd 12 3e
       0.2747117 0.3389944 -0.30883297 0.14354458

l3_3.bias f4 [8]
000000 44 f6 0c 3e 6c 1a c4 bd c6 e6 7d 3e 00 94 c8 bb
       0.13765818 -0.09575352 0.24795064 -0.0061211586
000010 ce c0 1c 3e 56 c7 32 3e 58 73 10 3d 45 8c 8c 3e
       0.15307924 0.17458853 0.03526625 0.27450767

l3_4.weight f4 [1, 8]
000000 49 35 d4 bd 20 61 9d 3d 7b 84 41 3c 30 5d d8 bd
       -0.10361726 0.07684541 0.011811371 -0.10564649
000010 9f f3 83 bd 72 96 8d be 60 1c e0 3d a1 43 2e 3b
       -0.064429514 -0.27653843 0.10942912 0.0026590603

exp_avg f4 [8, 6]
000000 a8 31 9d bc e1 a9 3f bc 63 97 70 3c c7 1b 25 bc
       -0.019188717 -0.011698217 0.014684531 -0.010077423
000010 fe be 87 bc 1f 0d 63 3c 26 3d 80 bc 49 fa 1c bc
       -0.016570564 0.013858109 -0.015654158 -0.009581157
000020 39 28 45 3c 6d 3e 07 bc 05 53 5e bc 8a c2 39 3c
       0.012033516 -0.00825463 -0.013569598 0.011337886
000030 ab d6 29 3d cf 10 d0 3c eb ac 02 bd 76 44 b3 3c
       0.04146449 0.02539864 -0.03190319 0.02188323
000040 6b 56 13 3d 71 33 f6 bc 27 8c d0 3c 5a 67 7f 3c
       0.035971086 -0.030053826 0.025457455 0.015588606
000050 e1 65 a0 bc 09 0a 5c 3c f7 dd b4 3c 69 16 97 bc
       -0.01957983 0.013430127 0.022078497 -0.018443303
000060 c4 bd fa bc 80 69 99 bc 7a ab c0 3c 5c 2b 84 bc
       -0.030608065 -0.018727064 0.023519266 -0.016133957
000070 07 49 d9 bc 65 8d b5 3c df 48 52 bd e4 aa 00 bd
       -0.02652408 0.022162149 -0.051339027 -0.031412974
000080 3c 98 21 3d 13 b3 dd bc 61 3d 36 bd 80 41 18 3d
       0.039451823 -0.027062928 -0.04449213 0.03717184
000090 a4 1e 66 3d 8a d1 0c 3d 29 db 30 bd f8 a3 f2 3c
       0.056181565 0.03437952 -0.043177757 0.029619202
0000a0 ba 73 47 3d 6c ad 26 bd c2 6b 1b 3a dd e4 b9 39
       0.04869435 -0.04069273 0.0005928838 0.00035456466
0000b0 57 aa e8 b9 86 02 a0 39 4d c9 03 3a 7e 0f de b9
       -0.000443774 0.00030519458 0.00050272496 -0.00042354682

exp_avg_sq f4 [8, 6]
000000 bc 8c 22 3e a1 8e f6 3b d3 f9 ba 3c 9e f7 de 3b
       0.15873998 0.007524327 0.022824204 0.0068044206
000010 f1 21 25 3c 2a 7a 6f 40 27 58 19 3e 74 a6 d9 3b
       0.010078893 3.7418313 0.14975034 0.006642157
000020 f8 14 a9 3c 0c 63 d3 3b a2 c9 0c 3c 38 80 a5 40
       0.020639881 0.0064510163 0.008592995 5.1719017
000030 77 37 78 3f f9 dc 31 3d ab 18 09 3e 14 f7 27 3d
       0.9695963 0.043423627 0.13388316 0.041007116
000040 8e 5a 69 3d 5c f5 e4 41 45 6d c1 3e c7 99 8c 3c
       0.056971125 28.619804 0.3777868 0.01716317
000050 1f 58 59 3d f2 5e 86 3c 19 5b b7 3c c5 46 43 41
       0.053062554 0.016402695 0.022382306 12.204778
000060 de 62 f1 3e bf e5 b2 3c 4e da 88 3d 05 9d a5 3c
       0.47145742 0.021838067 0.06682263 0.020216474
000070 8f fa ec 3c a5 f7 4b 41 65 69 af 3f f7 41 81 3d
       0.02892807 12.74796 1.3704039 0.0631141
000080 be 3b 46 3e 43 0d 71 3d f1 9f aa 3d b2 78 1a 42
       0.19358727 0.058850538 0.08331288 38.617867
000090 94 27 ca 3f 7a 42 97 3d 79 a9 67 3e 97 c2 8c 3d
       1.5793328 0.07385726 0.22623242 0.068730526
0000a0 5e e3 c7 3d fe 5d 33 42 60 a0 80 3b a0 3c c1 38
       0.09760164 44.84179 0.003925368 9.2142494e-05
0000b0 5b 27 a0 39 a4 11 e1 38 ca 80 df 38 f9 e1 18 3e
       0.000305469 0.00010732122 0.000106574575 0.14929952

exp_avg f4 [8]
000000 4d 15 b0 3c 8b 37 90 3c e8 26 3f bd 57 a4 ea bc
       0.021494532 0.01760461 -0.046667963 -0.028642816
000010 f4 f0 0c 3d 96 6a 6c 3d 13 5f 81 bd 5a c8 2a ba
       0.03440948 0.057718836 -0.06316962 -0.000651484

exp_avg_sq f4 [8]
000000 d7 19 d0 3c d8 b3 b7 3c 1b 1f 16 3e 87 57 6d 3d
       0.025402946 0.022424623 0.14660303 0.0579448
000010 96 fe 96 3d dd 31 5a 3e db 55 7f 3e ef 18 a3 39
       0.07372777 0.21308084 0.24935095 0.0003110836

exp_avg f4 [8, 8]
000000 ae fd 0a 3a ae e0 ec ba 42 61 4e 3b 7d 50 cf 3b
       0.00053020834 -0.0018072331 0.0031491076 0.0063267336
000010 79 23 52 ba c6 4f b5 bb f8 8d 26 3c 13 f8 f9 39
       -0.000801615 -0.0055331914 0.010165684 0.0004767781
000020 6e 30 ba 3a 3b af 9f bb 1f 2b 0b 3c 94 b8 8b 3c
       0.0014205107 -0.004873184 0.008494168 0.017055787
000030 95 57 0e bb c8 bc 74 bc 48 a5 e0 3c 5e a4 a8 3a
       -0.0021719683 -0.014937587 0.027422562 0.0012866368
000040 fa e6 0f b9 7c 40 f3 39 2f 99 53 ba 78 e7 d4 ba
       -0.00013723588 0.00046396616 -0.00080718374 -0.00162433
000050 72 ba 54 39 bd 92 b9 3a e7 bc 2a bb 80 15 00 b9
       0.00020287352 0.0014158111 -0.0026052536 -0.0001221504
000060 17 1d 7c 3a 47 0e 58 bb 80 4b bc 3b b5 0e 3d 3c
       0.0009617372 -0.0032967494 0.005746305 0.011539151
000070 ec 79 c0 ba ea 8c 25 bc 98 f9 97 3c e8 2b 64 3a
       -0.0014684773 -0.010104397 0.018551633 0.00087040523
000080 c2 93 90 b8 a8 ff 7c 39 5a b5 dc b9 3d 3d 5d ba
       -6.893977e-05 0.00024127832 -0.00042096787 -0.0008439606
000090 cb a9 e4 38 44 94 42 3a 0b 34 b2 ba 49 f2 85 b8
       0.000109035136 0.0007422606 -0.0013595832 -6.387063e-05
0000a0 a7 c4 83 38 e3 c5 4f b9 56 30 b4 39 fb 39 36 3a
       6.283196e-05 -0.00019814777 0.00034368288 0.0006951389
0000b0 68 1e ad b8 48 8d 1c ba 13 27 91 3a 9f 74 58 38
       -8.2549464e-05 -0.000597198 0.0011074267 5.1607025e-05
0000c0 44 37 e1 b6 d3 4a ee 37 de 5f 50 b8 a9 4b cf b8
       -6.7119563e-06 2.8406654e-05 -4.9680348e-05 -9.884622e-05
0000d0 be cc 66 37 3c 39 bb 38 ab ec 28 b9 93 be 00 b7
       1.3756739e-05 8.9275156e-05 -0.00016109894 -7.673766e-06
0000e0 ed 28 21 ba 16 e4 09 3b a8 50 70 bb 7d 4f f1 bb
       -0.0006147761 0.002104049 -0.0036669169 -0.007364212
0000f0 b7 6d 75 3a ff 3b d3 3b 7f f1 41 bc 42 91 11 ba
       0.0009362357 0.006446361 -0.011837362 -0.0005552956

exp_avg_sq f4 [8, 8]
000000 cd 3b 86 3c a2 53 df 3c d5 f7 ed 3a 13 f5 4f 3e
       0.016385937 0.027261559 0.0018155525 0.20308332
000010 a2 54 78 3e 54 9c 39 3e dd 9b 1d 3d b2 a8 0e 3c
       0.24251035 0.1812604 0.03847872 0.008707212
000020 bd 8b 0a 3e 59 f1 6b 3e 21 a5 76 3c 1e 93 db 3f
       0.13529868 0.23041286 0.015054018 1.7154272
000030 58 07 03 40 dc 62 c3 3f 3a 42 a5 3e 22 34 97 3d
       2.0473232 1.5264544 0.3227709 0.073829904
000040 2d 84 1f 3a 71 7c 61 3a c7 0c 88 38 20 bb d2 3b
       0.00060850644 0.0008601612 6.487365e-05 0.0064309984
000050 16 79 fc 3b 96 8c c0 3b 95 44 a8 3a 3a a5 8c 39
       0.0077048643 0.005876134 0.0012837822 0.00026825984
000060 87 58 74 3d a2 a4 ce 3d 92 3c d9 3b 9b 57 40 3f
       0.05965474 0.10089995 0.006629535 0.75133675
000070 07 98 65 3f d4 4d 2b 3f 1e 0e 11 3e 73 4d 04 3d
       0.896851 0.6691563 0.14165542 0.032300424
000080 7c 46 a4 3a 08 dd 21 3b c3 a1 0f 39 02 f4 95 3c
       0.0012533213 0.0024698395 0.00013697804 0.018304829
000090 93 8b b1 3c 14 90 82 3c ed 0d 57 3b 68 9f 60 3a
       0.021673 0.015937842 0.0032814697 0.0008568675
0000a0 f5 ea 37 38 f3 21 71 38 df ec 92 36 ee bc e0 39
       4.384942e-05 5.7490495e-05 4.3787145e-06 0.00042865373
0000b0 65 3b 07 3a a5 38 d3 39 a1 5c bc 38 70 4f 66 37
       0.0005158692 0.0004028726 8.981792e-05 1.3727564e-05
0000c0 06 33 f1 39 4c d7 66 3a 3a 37 4f 38 de 6a d6 3b
       0.00046005117 0.00088058854 4.940408e-05 0.0065435013
0000d0 91 d2 fd 3b 3f a0 ba 3b b0 fd 99 3a 49 4a a0 39
       0.0077460487 0.0056953724 0.0011748578 0.00030572925
0000e0 36 71 b7 3c b8 c0 18 3d 65 70 22 3b e9 39 8e 3e
       0.02239285 0.037293166 0.002478623 0.27778557
0000f0 c8 d1 a9 3e 09 dd 7d 3e 95 85 57 3d 1b 57 43 3c
       0.33167863 0.2479135 0.052617628 0.011922623

exp_avg f4 [8]
000000 45 5a 55 3c ed e4 0f 3d 8e c4 5a bb 0c b1 c2 3c
       0.01302201 0.03513043 -0.0033381316 0.023766063
000010 06 5d e4 ba 24 c0 b9 3a 16 7f 59 b9 cb 71 78 bc
       -0.0017422743 0.0014171642 -0.00020742076 -0.015163849

exp_avg_sq f4 [8]
000000 2d 72 32 3c 1c 4c ad 3d 69 45 14 3a 1e 9e 1b 3d
       0.010891479 0.08461782 0.0005656095 0.03799259
000010 6d 09 d9 39 8c 4c 59 38 f6 36 0e 39 06 db 73 3c
       0.00041396488 5.180812e-05 0.0001356265 0.014883762

exp_avg f4 [1, 8]
000000 89 f3 2d bd fa 73 5f bd b8 3e 19 3d 43 90 12 bd
       -0.04246858 -0.054553963 0.03741333 -0.03578211
000010 e6 65 13 bb 65 6c c7 bb 28 fd 7e 3b 6c fb 10 3d
       -0.0022491156 -0.0060859197 0.0038908217 0.035396025

exp_avg_sq f4 [1, 8]
000000 2d cf 04 40 a2 f3 e0 40 8c 01 26 3f 38 a9 a5 40
       2.075145 7.0297403 0.6484611 5.1769066
000010 1b 1f 63 3f a6 d1 d0 3c 68 c8 db 3e 6c 6f de 40
       0.8871934 0.025490593 0.42926335 6.9511013

exp_avg f4 [8, 6]
000000 3c 6d 8e 3b 96 26 e3 b9 c3 6d 86 3a 9d a9 aa b9
       0.004346518 -0.00043325563 0.00102561 -0.00032551299
000010 17 ff 23 ba dc 7c 5b 3a e4 62 23 3e 5d c8 6b bc
       -0.0006255968 0.00083727925 0.15955693 -0.014391032
000020 d4 d9 10 3d bd ec 29 bc df 49 af bc 9b 63 05 3d
       0.035363987 -0.010371384 -0.02139753 0.032565694
000030 cb 54 bd be 8d e5 08 3d e3 10 a8 bd d9 76 c5 3c
       -0.36978754 0.03342204 -0.08206346 0.024104523
000040 57 6f 4b 3d 29 6d 9a bd 19 e5 2a 3b 90 5c df b8
       0.04966673 -0.07540352 0.0026076494 -0.0001065071
000050 f6 93 c9 39 32 b7 1e b8 ec 7f 64 b9 5b 93 41 3a
       0.00038447947 -3.784075e-05 -0.00021791429 0.00073843234
000060 22 93 48 3e d1 1a 91 bc 91 1b 32 3d c1 61 51 bc
       0.19587377 -0.017712982 0.04348332 -0.012779654
000070 dc 91 d7 bc bb 74 23 3d 6b c6 e6 bd 10 14 27 3c
       -0.026314668 0.039906245 -0.11268314 0.010197654
000080 13 04 cd bc 8c 1a f1 3b 29 36 78 3c 85 2a bc bc
       -0.025026357 0.007357901 0.015149632 -0.022969494
000090 59 7a 88 3e 50 3e c5 bc c5 34 72 3d e0 34 8e bc
       0.26655844 -0.024077564 0.059132356 -0.017359197
0000a0 5b 94 12 bd 5f 91 5e 3d 98 37 16 bf 8a d5 58 3d
       -0.035786014 0.054337855 -0.5867858 0.05293802
0000b0 e0 31 05 be 02 42 1c 3d 82 31 a1 3d 7e 21 f5 bd
       -0.13007307 0.038148887 0.07870771 -0.11969279

exp_avg_sq f4 [8, 6]
000000 89 1e 46 3c a0 91 96 3a b0 6e 6c 3b 54 58 a9 3a
       0.012092241 0.0011487491 0.0036076717 0.0012920001
000010 1f f4 a9 3a 31 df e3 3f 5a 1e 33 3f 52 91 84 3d
       0.001296643 1.7802488 0.6996819 0.0647303
000020 76 65 45 3e f7 d7 7d 3d 56 56 a0 3d 5f 65 55 42
       0.19276986 0.06197354 0.07828967 53.348995
000030 a5 9b 37 40 c8 6a 87 3e 64 16 47 3f d3 68 79 3e
       2.8688748 0.26448655 0.7776854 0.24356394
000040 c3 3e a6 3e af 2a 2f 43 96 de 78 3b 6c 41 8f 39
       0.32469758 175.16673 0.0037974468 0.00027323829
000050 ac e3 49 3a da 39 5a 39 2a 32 b9 39 d2 72 04 3c
       0.0007701467 0.00020811651 0.00035323325 0.008084016
000060 fa 29 43 3f 65 13 90 3d 5b 40 53 3e 55 a4 83 3d
       0.76235926 0.07034949 0.20630018 0.06427828
000070 08 76 b1 3d 76 0c 31 42 25 92 82 3e 59 07 c0 3c
       0.08665091 44.26217 0.25502124 0.023441004
000080 05 89 8c 3d 27 67 ae 3c 3e e4 ec 3c a4 b3 63 41
       0.06862072 0.021289421 0.028917428 14.231358
000090 f1 f5 b9 3f a2 12 09 3e aa 44 c9 3e d4 6c fb 3d
       1.452818 0.13386014 0.393102 0.12276617
0000a0 7a 85 28 3e 3b ea ac 42 ba c3 e6 40 f8 42 2a 3f
       0.16457167 86.45748 7.2113924 0.66508436
0000b0 23 8f fa 3f 81 34 1d 3f 0b d1 50 3f c1 da df 43
       1.9574932 0.6140824 0.81568974 447.709

exp_avg f4 [8]
000000 86 af 50 3a a7 9d d8 3c 65 89 7b bd 67 34 4d 39
       0.00079607253 0.026442362 -0.061410327 0.00019569845
000010 26 4f 05 3d 1e 7f 99 bc 9e 35 35 3d 2c 35 c7 bd
       0.032546185 -0.018737372 0.044240586 -0.097269386

exp_avg_sq f4 [8]
000000 1a 2b 7e 3b 13 c8 5f 3e 73 97 64 3f 98 d2 71 3a
       0.0038783015 0.21853666 0.89293593 0.00092248013
000010 15 35 73 3e df 13 a2 3d e7 62 e7 3e a4 b4 0f 40
       0.23750718 0.07913946 0.45192644 2.2454004

exp_avg f4 [8, 8]
000000 59 29 0c 3c 0f c0 95 bc c7 9b 21 3d c5 7a cc bc
       0.00855478 -0.018280057 0.0394552 -0.024960885
000010 c4 50 b5 3c 82 45 19 3d 08 bc a3 3c bd 8d 18 bc
       0.022133239 0.037419803 0.019987121 -0.009311137
000020 ea 16 02 b9 ea 59 83 39 d9 c8 0f ba c9 06 b8 39
       -0.00012406302 0.00025053258 -0.0005484946 0.0003510027
000030 de 9f a2 b9 94 e2 08 ba 77 6c 90 b9 5e ad 00 39
       -0.00031018158 -0.0005221751 -0.00027546633 0.00012271616
000040 14 8f 9e 3b 81 03 2a bc 9c 56 b7 3c 4d c8 67 bc
       0.0048388336 -0.010376812 0.022380166 -0.0141468765
000050 80 92 4d 3c 4e d6 ad 3c fd d4 39 3c cd c1 ad bb
       0.012547135 0.021220353 0.011342284 -0.005302644
000060 49 38 af 3b 32 33 3b bc b3 02 ca 3c 2b 9d 7f bc
       0.005347286 -0.01142578 0.02465949 -0.015601437
000070 7f a9 62 3c 19 97 bf 3c 0d b1 4c 3c 7d c1 be bb
       0.013834356 0.023387479 0.012493384 -0.0058214054
000080 e9 03 f9 ba a5 ae 8b 3b b1 1d 15 bc 26 b3 ba 3b
       -0.0018998358 0.0042627626 -0.009101317 0.0056976257
000090 da 08 a6 bb bb f5 0c bc 0f 07 98 bb 34 68 13 3b
       -0.005066973 -0.008603509 -0.0046395133 0.002249253
0000a0 f9 8b 42 ba 18 84 cb 3a 70 c3 5c bb a9 45 0c 3b
       -0.000742137 0.0015527038 -0.0033685826 0.0021403825
0000b0 f1 71 f8 ba ff ab 51 bb 8d f9 de ba 3b 3c 4c 3a
       -0.0018954856 -0.0031993387 -0.0017011628 0.00077909575
0000c0 5f ee b5 3b 41 5b 44 bc 14 00 d3 3c f1 62 85 bc
       0.0055520977 -0.011984647 0.025756873 -0.01628253
0000d0 b7 c3 6c 3c 56 ff c7 3c 54 97 56 3c 72 75 c9 bb
       0.014450959 0.024413746 0.013097603 -0.006148034
0000e0 99 90 af bb 85 5c 3b 3c b2 3a ca bc 51 f5 7f 3c
       -0.0053578136 0.011435633 -0.024686191 0.015622453
0000f0 b4 f3 62 bc 03 d0 bf bc 8e e3 4c bc 54 bb be 3b
       -0.013852049 -0.023414617 -0.012505425 0.005820671

exp_avg_sq f4 [8, 8]
000000 6e da 27 40 dc 76 75 41 18 2a 59 3f 06 41 ed 3d
       2.622707 15.341518 0.84829855 0.11584668
000010 a3 30 da 3e ff e0 01 40 26 e5 33 41 bd bc 68 3f
       0.42615232 2.0293577 11.243444 0.9091299
000020 fc 57 84 3c 2d 75 c1 3d d8 83 a5 3b 4e 40 16 3a
       0.016155235 0.09446178 0.0050511174 0.0005731628
000030 78 69 25 3b 30 86 49 3c 40 7f 8d 3d c5 43 b0 3b
       0.0025239866 0.012300059 0.06909037 0.0053791725
000040 7d 01 47 3f 6f 75 91 40 5e f2 80 3e b3 f9 0e 3d
       0.77736646 4.545585 0.2518491 0.0349061
000050 78 9a 01 3e c8 10 1a 3f a4 33 55 40 aa 44 8a 3e
       0.12656581 0.60181856 3.331277 0.27005512
000060 9e 15 77 3f 4b 98 b4 40 dd 16 a0 3e 60 fd 30 3d
       0.9651736 5.6435905 0.31267443 0.043210387
000070 07 ea 20 3e 3d 4a 3f 3f c1 5c 84 40 fe a1 ab 3e
       0.15714274 0.74722654 4.1363225 0.33522028
000080 96 b6 e6 3d cd 19 28 3f cb f9 15 3d 23 26 af 3b
       0.11265294 0.6566437 0.036615174 0.0053451224
000090 d9 f2 96 3c 15 95 b2 3d 1f 56 f6 3e 65 09 21 3d
       0.018426346 0.087198414 0.4811258 0.0393156
0000a0 a7 82 79 3d 21 8e b6 3e 15 3d 9e 3c b6 f4 18 3b
       0.060915615 0.3565531 0.019316236 0.0023339218
0000b0 9f 74 1e 3c e2 5c 3f 3d df ac 85 3e 0f da a8 3c
       0.009671359 0.04671944 0.26108453 0.020611791
0000c0 82 75 cc 3f 29 70 15 41 5a 5f 03 3f 76 15 8b 3d
       1.597336 9.339883 0.5131737 0.06791203
0000d0 18 da 83 3e f3 aa 9d 3f dd f3 da 40 22 90 0c 3f
       0.2575233 1.2317795 6.8422685 0.5490743
0000e0 aa ed 75 3f 32 c4 b3 40 df 63 9f 3e 77 54 30 3d
       0.9606577 5.6176996 0.31130883 0.043049302
0000f0 87 36 20 3e 85 6e 3e 3f 22 c2 83 40 db e3 aa 3e
       0.156458 0.7438739 4.117448 0.33376965

exp_avg f4 [8]
000000 0c b6 f9 3c d4 84 e3 b9 ec 60 8d 3c 32 10 9c 3c
       0.030482315 -0.0004339578 0.01725813 0.019050691
000010 98 42 e1 bb 2b 23 2c bb 0e 74 a2 3c ad 52 9c bc
       -0.0068743937 -0.002626608 0.01983073 -0.019082392

exp_avg_sq f4 [8]
000000 2d 30 68 3e d0 b3 35 3a 05 9d 8e 3d 4a 2c b0 3d
       0.22674628 0.0006931396 0.06963543 0.086021975
000010 0b 4c 36 3c c1 3a 69 3b ed d1 fd 3d ac ed af 3d
       0.0111265285 0.0035587999 0.12393556 0.08590254

exp_avg f4 [1, 8]
000000 7c 32 57 3d a0 18 ad bb 60 d4 90 bb 10 7c 21 ba
       0.05253838 -0.0052824765 -0.0044198483 -0.00061601494
000010 4e b0 c7 bc a1 1c b9 3b 2c bb 4e 3d 35 db 42 bc
       -0.02437606 0.005649165 0.05047147 -0.011893083

exp_avg_sq f4 [1, 8]
000000 d5 a9 03 42 f5 a4 e7 41 bc 46 1b 41 6d 75 b8 41
       32.91585 28.955545 9.704769 23.057337
000010 f7 5a 85 3f 97 07 65 41 19 31 b4 3e df 5c 43 42
       1.0418385 14.314353 0.3519371 48.840694

exp_avg f4 [8, 6]
000000 57 c8 43 bc da b6 96 3a 3d 3d 41 bb 41 37 96 3a
       -0.01194962 0.0011498586 -0.0029485964 0.0011460559
000010 fb d7 b5 3a d2 8e e3 ba d2 bd 1c 3c 8b 76 71 ba
       0.0013873571 -0.0017361289 0.009566741 -0.00092110847
000020 9e c3 1a 3b 94 a7 70 ba 07 a8 91 ba 19 21 b6 3a
       0.0023615132 -0.00091802445 -0.0011112698 0.0013895362
000030 08 ed 78 bc 4c a8 bf 3a 5b b9 75 bb a3 05 bf 3a
       -0.015193231 0.00146223 -0.0037494514 0.0014573823
000040 ea 3b e7 3a 22 a7 10 bb 4a 3c 22 bd 01 68 79 3b
       0.0017641757 -0.0022072275 -0.039608277 0.0038056376
000050 18 f7 1f bc 7c 9b 78 3b ef 7f 96 3b 2b b8 bc bb
       -0.009763502 0.0037934473 0.0045928876 -0.005759259
000060 5c 20 d6 3b b8 e7 24 ba 82 69 d3 3a f2 59 24 ba
       0.0065346193 -0.00062906323 0.0016129466 -0.00062695064
000070 0b f2 46 ba e6 cc 78 3a 23 09 36 3b a9 47 8c b9
       -0.0007589168 0.00094909815 0.0027776442 -0.00026756272
000080 c5 cb 33 3a 30 ce 8b b9 a4 38 a9 b9 d4 62 d3 39
       0.0006858672 -0.00026665768 -0.00032276392 0.0004031869
000090 c6 d5 26 bb a7 5d 7e 39 ef a7 23 ba 56 9c 7d 39
       -0.0025457009 0.00024258216 -0.00062429806 0.000241862
0000a0 0b 97 99 39 f5 d4 c1 b9 5a c6 b0 bc 35 0f 08 3b
       0.0002929497 -0.00036970494 -0.021578956 0.0020761017
0000b0 17 75 ae bb 65 9c 07 3b f5 2a 24 3b e7 7b 4d bb
       -0.005324017 0.0020692584 0.0025050018 -0.003135437

exp_avg_sq f4 [8, 6]
000000 0e 24 7f 3b 6a d8 a5 39 60 76 92 3a 10 fb d0 39
       0.0038931402 0.00031632493 0.0011174195 0.00039859908
000010 64 2c af 39 02 a5 fc 3e 10 09 3e 3b ac a4 79 39
       0.00033411675 0.4934464 0.00289971 0.00023807836
000020 87 34 5c 3a 65 6d 9e 39 d3 84 83 39 44 50 c6 3e
       0.0008400161 0.00030217614 0.0002508523 0.38733113
000030 c2 f3 c3 3b 25 85 fe 39 b1 da e0 3a b7 4b 20 3a
       0.005979986 0.00048545856 0.0017155019 0.0006114798
000040 19 71 06 3a 14 2a 41 3f e9 e7 f5 3c e3 b8 1a 3b
       0.0005128547 0.7545483 0.03001781 0.0023608736
000050 98 f9 08 3c c6 52 3e 3b d5 bb 24 3b 7c 77 4b 40
       0.008360289 0.0029041036 0.002513637 3.1791677
000060 d2 08 aa 3a 5e 64 de 38 f6 39 c4 39 cf 9a 0c 39
       0.0012972599 0.0001060448 0.00037427217 0.00013409111
000070 51 99 ea 38 52 38 2d 3e b8 74 f9 39 f0 12 32 38
       0.00011186547 0.16916016 0.00047579943 4.2456144e-05
000080 e4 55 19 39 00 0a 6c 38 fa ab 38 38 e2 12 b9 3d
       0.00014623214 5.6276098e-05 4.4029184e-05 0.09036805
000090 66 f5 98 37 67 54 ca 35 51 bd a0 36 40 d5 e0 35
       1.8234085e-05 1.5074737e-06 4.790411e-06 1.6751364e-06
0000a0 ab 39 dd 35 6f 9f d2 3a 7b a0 49 3c 06 77 82 3a
       1.6482567e-06 0.0016069243 0.012306328 0.0009953685
0000b0 bd ab 66 3b 30 f1 a3 3a a3 ef 89 3a 71 13 c3 3f
       0.003519758 0.0012507793 0.0010523688 1.5240308

exp_avg f4 [8]
000000 72 76 0a bb a4 d5 dd 3a da 13 30 bb cc 21 e5 bb
       -0.0021127728 0.0016924632 -0.0026867301 -0.0069925543
000010 02 80 97 3a 68 e0 00 3a 3b b0 e9 b9 8c ff 79 bb
       0.0011558535 0.00049162516 -0.00044572525 -0.0038146703

exp_avg_sq f4 [8]
000000 69 fa 8b 3a c7 b4 52 3a 78 d2 d6 3a 07 97 02 3c
       0.0010679486 0.0008037802 0.0016389629 0.007970578
000010 7f b4 bb 39 a8 4c 16 39 a0 c5 aa 36 68 3b 5c 3b
       0.000358019 0.00014333671 5.0894014e-06 0.0033604745

exp_avg f4 [8, 8]
000000 84 8d 33 ba d6 82 0a 3b 23 b0 af bb 29 f7 85 3b
       -0.00068493956 0.0021135113 -0.0053615733 0.0040883017
000010 e9 c4 40 3a 88 e1 1a 37 21 28 28 b7 36 c0 1c 3b
       0.00073535606 9.231626e-06 -1.0022924e-05 0.0023918278
000020 83 14 05 3a 51 48 cd ba 16 37 82 3b 1e 94 46 bb
       0.0005076604 -0.0015661811 0.003973852 -0.0030300687
000030 aa e1 0e ba 0b af e4 b6 45 f6 fb 36 08 58 e8 ba
       -0.00054504967 -6.815307e-06 7.5090525e-06 -0.0017726431
000040 53 6e a2 38 a7 79 7a b9 74 ee 1e 3a 4b 5e f2 b9
       7.7453114e-05 -0.00023887177 0.0006062754 -0.0004622809
000050 da 54 ae b8 0f 5d 8a b5 6e c0 97 35 20 c0 8d b9
       -8.3127714e-05 -1.0308885e-06 1.1306381e-06 -0.0002703676
000060 6c 16 37 ba 07 3b 0d 3b f6 24 b3 bb 71 99 88 3b
       -0.0006984237 0.0021550076 -0.0054670526 0.0041686823
000070 d2 90 44 3a c6 d5 1d 37 4e 19 2c b7 92 d4 1f 3b
       0.00074983865 9.407702e-06 -1.0257891e-05 0.0024388176
000080 b8 5a df b9 04 58 ac 3a 28 8a 5a bb d9 a4 26 3b
       -0.00042601465 0.0013148789 -0.0033346508 0.0025427847
000090 2c c2 ef 39 de df c1 36 a6 56 cd b6 ed fc c2 3a
       0.00045730302 5.77791e-06 -6.1195633e-06 0.0014876403
0000a0 64 6c ef ba b6 aa b8 3b 16 4a 6a bc 01 a7 32 3c
       -0.0018266556 0.0056355847 -0.01429989 0.010904075
0000b0 0d 8b 00 3b bd 4f cd 37 f9 cd e2 b7 d8 0b d1 3b
       0.001961413 2.4475035e-05 -2.7037213e-05 0.0063795857
0000c0 98 95 3d 3a f6 3c 12 bb 9b 81 b9 3b 95 73 8d bb
       0.0007232069 -0.0022314168 0.005661202 -0.004316757
0000d0 4a 8c 4b ba ee 32 23 b7 ae 7b 32 37 88 82 25 bb
       -0.000776474 -9.727415e-06 1.0638423e-05 -0.0025254805
0000e0 5a dd 96 37 8f 81 6a b8 12 a5 13 39 b2 5d e1 b8
       1.7984468e-05 -5.591061e-05 0.00014080506 -0.00010746288
0000f0 e3 be a1 b7 91 b8 94 b4 9e 25 23 34 ee 10 84 b8
       -1.9281584e-05 -2.7701438e-07 1.5194243e-07 -6.297404e-05

exp_avg_sq f4 [8, 8]
000000 f3 62 fb 3c 13 4b af 3d ab 9d 27 3e 3d bf 17 3a
       0.030686831 0.08559241 0.1636874 0.00057886896
000010 9f 79 1f 3b 4b 8e 29 3b 61 da cb 38 58 2a fc 3d
       0.0024333966 0.0025872167 9.7204706e-05 0.12312764
000020 e0 fa 9f 3c fc 2a 5f 3d ac 66 d5 3d ae cd b0 39
       0.019528806 0.054484352 0.10419974 0.0003372258
000030 b6 15 cb 3a b8 93 d8 3a b9 be 7e 38 e4 36 a0 3d
       0.0015494141 0.0016523516 6.0735943e-05 0.078229696
000040 18 b4 3e 3b 20 3d 05 3c a6 cd 7e 3c 5d 10 16 38
       0.0029099043 0.008132249 0.01555196 3.5778026e-05
000050 d5 cf 72 39 4c 5a 7a 39 6f 86 25 37 26 43 3e 3c
       0.00023156342 0.00023875496 9.866067e-06 0.011612689
000060 cf 10 01 3d 98 fe b3 3d a0 1c 2c 3e 62 35 1c 3a
       0.03151017 0.08788794 0.16807795 0.00059588824
000070 e5 bd 23 3b c6 1f 2e 3b 50 3e d1 38 9e 78 01 3e
       0.0024985012 0.0026569231 9.977503e-05 0.12643668
000080 9a fe 7b 3c 0c c4 2f 3d cc 0f a8 3d 99 ff 89 39
       0.015380526 0.042911574 0.08206138 0.0002632111
000090 71 15 a0 3a 23 8a a9 3a e5 ec 4c 38 b6 66 7c 3d
       0.0012213421 0.0012934845 4.8858015e-05 0.06162139
0000a0 a7 28 28 3e 81 6c ea 3e 64 24 60 3f a4 fa 71 3b
       0.16421758 0.45785907 0.8755553 0.0036923075
0000b0 97 2b 55 3c 8b 27 61 3c 5a f6 0d 3a 40 3b 29 3f
       0.013010881 0.013742338 0.00054154324 0.66106033
0000c0 1c 02 09 3d 51 12 bf 3d 07 b4 36 3e 1e 13 27 3a
       0.033449277 0.093296655 0.17842112 0.0006373393
0000d0 47 d2 2d 3b 03 cd 38 3b 79 7a de 38 7a 73 09 3e
       0.002652304 0.0028198368 0.00010608597 0.13422957
0000e0 4c 50 ab 3a c2 3c 6f 3b b1 c7 e4 3b fa 05 39 37
       0.0013070195 0.003650472 0.006981813 1.1028251e-05
0000f0 47 9e da 38 3a 22 ef 38 f6 cd 67 36 4c e8 a9 3b
       0.000104245315 0.00011402783 3.4541567e-06 0.0051851626

exp_avg f4 [8]
000000 c2 1e 20 3b 2c 52 ed ba 6e ca 90 b9 a9 43 23 3b
       0.0024432396 -0.0018106154 -0.00027616642 0.0024912155
000010 8e 35 c7 3a 4d 81 d5 3b 23 0f 29 bb 0e 47 87 b8
       0.0015198456 0.006515658 -0.0025796376 -6.4505366e-05

exp_avg_sq f4 [8]
000000 02 44 98 3a d0 c6 38 3a 28 52 b9 38 c6 91 9c 3a
       0.0011616948 0.00070486683 8.83679e-05 0.0011945299
000010 89 f0 10 3a b0 92 e0 3b 6c d4 a6 3a 2f ca 10 38
       0.00055290066 0.006853424 0.0012728102 3.4520574e-05

exp_avg f4 [1, 8]
000000 ba 52 04 bc 6c 60 4b bb 37 87 bc bb a0 e7 21 bc
       -0.008076364 -0.0031032814 -0.0057534236 -0.009881884
000010 9e 34 0d bb b8 ed 59 3c ac bf 7a 3b 73 04 0b 3b
       -0.0021546255 0.0133013055 0.0038261218 0.0021212369

exp_avg_sq f4 [1, 8]
000000 c4 f4 9f 40 57 09 be 3f 65 7f 37 3e b1 28 38 40
       4.9986286 1.48466 0.17919691 2.8774836
000010 b9 70 60 3f 0d 8d 26 40 95 77 79 40 36 6e bc 3d
       0.87672 2.602359 3.8979237 0.092007086
