trained_models/binaries/model_down.pth (torch, 26043 bytes, 51 tensors)

l1_1.weight f4 [8, 6]
000000 dc f8 21 3d 6d 2c 69 3d d1 78 e7 3e 18 1b e9 be
       0.03954397 0.056927133 0.45209363 -0.45528483
000010 10 38 21 bf d8 4f 7a be a1 b4 ba 3d 74 f2 a1 3e
       -0.6297617 -0.2444452 0.091164835 0.3163029
000020 88 07 6d 3e b4 38 d4 be a1 7a 7b bf c7 90 c8 be
       0.23147404 -0.4144951 -0.9823399 -0.39172956
000030 4c 9d 2d 3c 85 a1 3e 3f e1 22 3a 3d f8 55 b5 be
       0.0105965845 0.7446521 0.04544342 -0.3541715
000040 4e 7f a3 bf e9 f3 6d bc 04 e5 a3 bb 3f 0d e0 3d
       -1.2773225 -0.014523485 -0.005001666 0.109400265
000050 57 58 17 3e a4 5e a5 bf 37 e5 0c 3f 3b b0 a1 3c
       0.14779793 -1.2919507 0.55037254 0.019737354
000060 2f 7e b9 bc 02 0b 99 3e a4 9a 74 be bd cd 84 3e
       -0.022643177 0.2989121 -0.23887116 0.25938216
000070 74 46 d8 bf ab 9c 8f bd 50 06 50 be 13 04 d5 be
       -1.68965 -0.07012304 -0.20314908 -0.4160467
000080 4f 12 88 be 8c 08 28 3f 31 b9 7b 3e ed 40 d9 3e
       -0.26576468 0.6563804 0.24582364 0.42432347
000090 30 e3 89 bb de 67 95 3e d9 0d 58 be 8d 6f 1a bf
       -0.004207991 0.29180807 -0.21099032 -0.60326463
0000a0 81 e5 e0 be 2e 67 1c 3c 13 cd 6c 3e 95 e1 6d be
       -0.43925098 0.009546084 0.23125105 -0.23230584
0000b0 06 64 56 3e fd 61 8e 3e 48 a4 ba 3f b7 29 e2 bd
       0.20936593 0.27809134 1.4581385 -0.11043113

l1_1.bias f4 [8]
000000 99 22 7d be 30 8c a8 be 42 bf b4 be 6b 9c 7c be
       -0.24720229 -0.32919455 -0.35302168 -0.24669044
000010 ca 8f db be d3 b2 e5 3e 98 b8 6f be 56 fb 83 3e
       -0.4288314 0.44862995 -0.2341026 0.25777692

l1_2.weight f4 [8, 8]
000000 70 b6 33 3d e4 3e 2e 3e b7 78 0e 3f 0c 37 fb bc
       0.043875158 0.17016178 0.55652946 -0.030665897
000010 cd d3 20 3f 5f c7 0f 3e 6d 44 0e be fd 8c 63 bd
       0.6282318 0.14040898 -0.1389329 -0.05555438
000020 55 19 dc 3d 5e e0 e3 be 45 f6 20 bf 29 2f 5c 3d
       0.10747019 -0.44507116 -0.6287578 0.053755913
000030 29 28 4f be 55 e9 91 be 26 c6 3a 3c 95 bd c5 bd
       -0.20230164 -0.2849833 0.011399781 -0.096553005
000040 4a af 30 be 93 33 6f 3e 9a 7d 40 3f 49 04 87 3d
       -0.17254367 0.23359518 0.7519165 0.06592614
000050 e3 45 86 3f 6c b4 89 be eb a7 1c be 7c 1c 85 bd
       1.0490078 -0.26895463 -0.1529843 -0.064995736
000060 1f ca b1 bc 4d f8 44 be 82 16 19 3f 9b df d8 3e
       -0.021702824 -0.19235344 0.5979997 0.42358097
000070 ec a0 8d 3f 36 8e 9a bb 47 f1 aa be cf 31 02 3e
       1.1064734 -0.00471666 -0.33387205 0.12714313
000080 92 75 fd 3e 13 44 18 3e 0d 90 91 3e 11 09 d1 bd
       0.49503762 0.14869718 0.28430215 -0.102068074
000090 47 85 8c 3f 55 2d 8c 3c 07 55 4a be 68 4b dd bd
       1.0978173 0.01711146 -0.19758998 -0.10805398
0000a0 ad fb 99 bd 87 c6 a5 be cd 76 c4 be 6f 70 1e be
       -0.075187065 -0.32378027 -0.38371888 -0.15472578
0000b0 f1 60 89 bf 7a 57 4c 3e 11 8d 95 be 28 74 7a 3d
       -1.0732709 0.19955245 -0.29209188 0.06114593
0000c0 8e cc fe 3e d8 78 8f 3e a8 eb 11 3f 81 85 3b bd
       0.49765438 0.28021884 0.5700021 -0.045781616
0000d0 8e 5e b0 3f 10 23 b6 be c0 e4 7c 3e 3f af 59 be
       1.3778856 -0.35573626 0.24696636 -0.21258257
0000e0 db e2 d0 3c bd 61 2c 3d fa 51 0c 3f 0e c2 90 bb
       0.025498798 0.042085398 0.54812586 -0.0044176644
0000f0 fa a2 6c 3f 35 53 00 be a6 b9 2e be 0e 20 36 bd
       0.9243618 -0.12531741 -0.17063007 -0.044464163

l1_2.bias f4 [8]
000000 20 94 01 bf d8 fa c4 3e a1 af 6b be 83 da 35 be
       -0.50616646 0.3847263 -0.23016216 -0.17759137
000010 65 cd 2b bf 0c 8a 04 3c 0b 98 a4 be ce 35 da be
       -0.6711028 0.008089554 -0.3214725 -0.42619175

l1_3.weight f4 [8, 8]
000000 ec 20 53 be aa b5 5d 3e 90 f0 ae 3d 73 55 9d be
       -0.20618027 0.2165133 0.085419774 -0.30729255
000010 08 ab 25 3d 77 60 95 3e 69 3a 53 be 38 f5 e2 3d
       0.04044631 0.2917516 -0.2062775 0.11081928
000020 d4 46 86 3d 90 75 7b be 90 10 92 bd 28 3f 50 be
       0.06556478 -0.24556565 -0.07132065 -0.20336592
000030 d2 41 21 3e 24 5d 83 3d d3 d6 2d be df d9 81 3e
       0.15747765 0.064142495 -0.1697648 0.25361535
000040 ac 99 94 be ef 82 9f 3e 40 3c 73 3d 7e 8a 36 3e
       -0.29023492 0.31154582 0.05938363 0.17826268
000050 87 c7 ad be f0 8c 8c bc c4 ae fb 3d 86 70 32 be
       -0.3394129 -0.017157048 0.12289193 -0.17425737
000060 a1 0f 1f be 8f 49 a1 3e d8 57 b4 bd 39 b7 a1 3e
       -0.15533306 0.31501433 -0.08805817 0.315851
000070 c9 64 aa 3e d0 1a f2 3c 86 ed 38 3e 80 06 e1 bc
       0.33280018 0.0295538 0.18059358 -0.02746892
000080 98 02 80 be 46 d2 2b 3e 3c 2d 9f 3d e1 18 a9 be
       -0.2500198 0.16779432 0.077723 -0.33026794
000090 69 f0 6f be ce 08 21 3e 3a 52 16 3e 2b e7 a8 3e
       -0.23431553 0.15726015 0.14679804 0.32988867
0000a0 4f 1a 02 be 0d 74 1c be c7 13 b2 3e d6 e4 56 3e
       -0.12705348 -0.15278645 0.34780714 0.20985731
0000b0 0f 9b b0 be 7e b2 41 3e 05 43 b4 3e f0 63 fd 3c
       -0.344933 0.18915746 0.35207382 0.030931443
0000c0 e6 26 65 3e 50 7d 96 3c 6c 99 0f be 9d 09 aa be
       0.2237812 0.0183703 -0.1402337 -0.3321046
0000d0 f0 e2 66 3d 60 d2 4d 3d 6f 68 67 be be cb f7 bd
       0.05636877 0.050249457 -0.22598432 -0.120994076
0000e0 ca a8 20 3e 01 ab a3 be ce 0f 22 3e 89 5d b3 3e
       0.15689388 -0.31966403 0.15826342 0.350323
0000f0 f0 4c 81 be f9 5f a9 3e 3e 48 3b 3e 0e 0a 19 3e
       -0.2525401 0.33081034 0.18289277 0.14945242

l1_3.bias f4 [8]
000000 6f 33 88 be 08 3c b6 bd b6 a6 91 be 88 cc 7a 3d
       -0.2660174 -0.08898169 -0.28447503 0.061230212
000010 d0 52 ec 3c 94 e1 4e be 00 a5 c5 bb 4a 06 24 3e
       0.028848082 -0.20203239 -0.0060316324 0.16018024

l1_4.weight f4 [1, 8]
000000 30 52 02 bd f5 66 1c 3d 2c 51 b1 be 21 6d f5 bc
       -0.03181666 0.038184125 -0.34632242 -0.029959263
000010 bf 1e cb be f7 7c 9e 3e fe e1 e2 be 0d 9e 63 be
       -0.39671895 0.30954716 -0.44313043 -0.2222826

l2_1.weight f4 [8, 6]
000000 f2 41 7a bc 3b 0a ab be f3 5b 19 be 60 a5 4b 3f
       -0.015274512 -0.33406243 -0.14976482 0.7954922
000010 01 35 41 bf 80 bb 66 3e c9 08 ad bc c8 a9 77 bd
       -0.754715 0.22532463 -0.021122353 -0.06046465
000020 e9 f8 af bd dd 04 1b 3f a7 a8 f3 be 09 e8 87 3c
       -0.08592398 0.60554296 -0.4758961 0.016590135
000030 45 a8 90 3e 93 e0 c4 bd 71 8d c2 bd 6b fc d9 be
       0.2825338 -0.09613147 -0.09499634 -0.42575392
000040 21 b7 31 3f 15 54 da 3d 61 18 3e be ad 32 2f 3e
       0.6942006 0.106605686 -0.18563987 0.17109175
000050 27 aa 12 bd 84 5d 9a 3f 17 76 7f bf da 7d 60 3d
       -0.0358068 1.2059789 -0.99789566 0.05480752
000060 15 6c c4 3d f4 be 6f be 66 89 ef bc 93 94 7e bf
       0.095909275 -0.23412687 -0.029240321 -0.99445456
000070 ec 29 50 3f 17 8d ac bd c6 60 53 3e 8a 09 8e 3d
       0.8131397 -0.08425348 0.20642385 0.06935413
000080 d8 48 b0 be 54 ff 82 3f 1d ec 5b bf 96 9d ea be
       -0.34430575 1.023417 -0.85907155 -0.45823354
000090 5d 8c 33 3d 85 21 17 be 65 75 a0 be 59 2c b7 3f
       0.043835033 -0.1475888 -0.31339565 1.4310409
0000a0 4d ce 7e bf a5 5c 3e be 7c 57 52 bd b8 e8 2d be
       -0.9953354 -0.18590029 -0.051352963 -0.16983306
0000b0 ff 07 93 3d 58 d5 a7 3f 81 4c ca be d7 c2 e2 3c
       0.071792595 1.3111982 -0.39511493 0.027680798

l2_1.bias f4 [8]
000000 68 6b 44 be e3 f2 5f 3c c1 a4 e6 bd 13 f7 0b be
       -0.19181597 0.013668749 -0.11261893 -0.1366847
000010 52 0c 45 3c 55 ec 21 3e 68 97 ff 3d 1d bc 3d 3e
       0.012026863 0.1581281 0.1248005 0.18528791

l2_2.weight f4 [8, 8]
000000 1f d5 ca 3d 93 ec 63 be af 4f b5 3e 1e 24 34 be
       0.09903931 -0.22258215 0.35412356 -0.17591903
000010 a8 63 74 3e 44 36 f3 be 4f 94 3a bf b3 5e 9a be
       0.23866141 -0.4750234 -0.7288255 -0.30150375
000020 10 01 65 be 76 49 4e be c3 78 48 3e 8f 24 80 be
       -0.22363687 -0.2014521 0.19577317 -0.25027892
000030 c6 04 83 3e 8c b5 be be 53 2e 42 bf fd 4d af bc
       0.2558958 -0.37247884 -0.75851935 -0.021399492
000040 80 85 00 3e fb 4c a3 bc 8d 20 86 be ab 51 86 3e
       0.12550926 -0.019934168 -0.2619671 0.26234183
000050 7e 60 20 3e 55 5b b8 3e 3d ba 84 3f db a0 52 be
       0.15661809 0.3600718 1.0369335 -0.20569174
000060 89 6d f1 3e 71 e0 44 be 43 ea 74 bc 4f 97 87 bd
       0.4715388 -0.19226243 -0.0149484305 -0.06620657
000070 d4 27 01 be 97 22 8f 3e 85 d5 23 3c ff 89 40 bc
       -0.1261285 0.27956077 0.0099996375 -0.011751651
000080 6b b0 96 bd f8 a4 97 3d 5e 1f 20 be 9a df d3 3e
       -0.07357868 0.07404512 -0.15636966 0.41381532
000090 83 fb 69 be 11 2d 31 be 0b 7e 23 bf f7 f6 8c be
       -0.2284985 -0.17302348 -0.638642 -0.2753217
0000a0 d4 86 1a be e5 04 85 3e b1 80 f9 3e dc 5e 56 3d
       -0.15090495 0.25980297 0.48730996 0.05233656
0000b0 0f 1b b7 bd b3 ec 2e be 1e 04 84 bf b7 31 10 3e
       -0.08940708 -0.17082481 -1.0313756 0.14081465
0000c0 c6 bc 60 be e5 65 15 3d 0e 30 28 3e d8 a5 d3 3d
       -0.21947011 0.036474127 0.16424581 0.103343666
0000d0 30 a3 e4 bc 7d 80 ac bd 01 2f 68 3f 07 a4 13 3e
       -0.027909845 -0.08422945 0.9069672 0.1441804
0000e0 4d 3c 95 be a1 51 e0 bd b4 da ea 3d 6c 3a ea bd
       -0.29147568 -0.109530695 0.114674956 -0.11436924
0000f0 66 8f 98 3e c3 28 8b be 4a 3e 76 bf 9d 29 45 3e
       0.29796904 -0.27179536 -0.96188796 0.19254155

l2_2.bias f4 [8]
000000 80 8b 57 be 87 49 72 be 3d 67 bc 3e dd 70 01 bd
       -0.21049309 -0.23660861 0.36797515 -0.031601775
000010 69 73 92 be 70 cd b8 be 4c 68 79 3e 72 af 05 be
       -0.28603676 -0.36094236 0.24356192 -0.13055208

l2_3.weight f4 [8, 8]
000000 96 37 03 3e f0 44 7e be d2 3e 52 3e 11 86 85 be
       0.12814173 -0.24830985 0.20531777 -0.26078847
000010 a2 13 34 3e be 44 95 be cd 04 9e 3e 98 e4 3f 3d
       0.17585614 -0.2915401 0.30863038 0.046848863
000020 08 d5 e8 3d 50 5f b9 bd 80 01 b2 bd 0b 26 8f 3e
       0.113687575 -0.090513825 -0.08691692 0.27958712
000030 0b 6e 4c be bc ff 0c be a3 48 b3 3e 40 7e 00 3d
       -0.19963853 -0.1376943 0.35016355 0.0313704
000040 13 0f 08 be ff 57 92 3e 6a 8b 87 be 90 a0 c7 bc
       -0.13287 0.2858276 -0.26473552 -0.024368554
000050 64 8f 9c bd 60 a2 2a 3c 30 f6 f1 3c 00 14 77 bb
       -0.07644537 0.01041469 0.029536337 -0.003770113
000060 72 0a 1a 3e f6 fc a5 be 7f 4f ac 3e f0 53 c3 3d
       0.15043047 -0.32419556 0.336544 0.09537494
000070 9d 87 9b be 50 fc 7d be f6 b9 5e 3e b0 c0 0d 3d
       -0.30376902 -0.24803281 0.21750626 0.03460759
000080 58 a5 3f be 7b 22 ac be 06 ab 6e 3e ca d7 01 3e
       -0.18715417 -0.33620057 0.23307428 0.12679973
000090 d2 81 7f be 93 95 ae be 6c 1e a1 bd 8a 81 75 be
       -0.24951866 -0.3409849 -0.07867131 -0.23975196
0000a0 08 46 07 3e c0 ac 72 3d 78 25 3d be e3 a5 a4 3e
       0.13210309 0.05924678 -0.18471324 0.32157812
0000b0 38 ab 7a bd f0 f9 80 3c 4a 37 24 be 00 f4 b4 bc
       -0.061198443 0.01574418 -0.16036716 -0.022089005
0000c0 5c 80 4f be 00 0c 77 bc c0 4e 1f 3d 50 ed be 3c
       -0.20263809 -0.015078545 0.03889346 0.023306519
0000d0 9f b2 b4 be e8 8d 77 bd 7b a0 4a be 3e 91 6a be
       -0.35292527 -0.060438067 -0.19787781 -0.22906968
0000e0 58 15 f5 bd fc 55 b3 3d 38 b2 ce bd c6 47 67 be
       -0.119669616 0.087566346 -0.10092586 -0.22585973
0000f0 7a 17 a4 be ae 62 06 3e b3 73 86 3e 70 72 6b 3d
       -0.3204916 0.13123581 0.26260146 0.057482183

l2_3.bias f4 [8]
000000 40 c0 4d 3c 9a 8d 34 be 6e 81 35 3e 58 68 3b 3d
       0.012558043 -0.17632142 0.17725155 0.045753807
000010 1e 2d 9f be 4a 12 1d be 05 42 8b be 17 a6 89 3e
       -0.3108911 -0.15339008 -0.27198806 0.2688453

l2_4.weight f4 [1, 8]
000000 22 61 6d be 18 ba 43 be 1e 93 f1 3e ce bf 9a bc
       -0.23181584 -0.19113958 0.47182554 -0.018890288
000010 b4 c0 fb be 98 8b b6 be c9 c1 e1 3d 8f 80 ad be
       -0.49170458 -0.35653377 0.1102329 -0.33887145

l3_1.weight f4 [8, 6]
000000 37 10 9f 3c 8d d3 8e 3c 50 39 a2 bd 06 60 1f bf
       0.019416912 0.01743486 -0.07921088 -0.62255895
000010 de 1d 3c be ba 22 5f 3c 57 0b 8c bc a1 40 66 be
       -0.18370768 0.013619119 -0.017095251 -0.22485591
000020 68 e7 1e bb 12 69 56 be 0e 17 b5 3e d4 9e cd ba
       -0.0024246816 -0.20938519 0.35369152 -0.0015687593
000030 b3 b0 98 3c 36 99 4c 3d 84 21 fa 3d 58 9b 3d 3f
       0.018638944 0.0499508 0.12213424 0.7406516
000040 43 82 46 3e 90 f9 7e be be 01 86 3e 1d 1a 7a be
       0.19385628 -0.24899888 0.26173204 -0.24424024
000050 6a 0d 82 bd 90 55 ab 3e 61 6e 16 3f c1 87 d2 be
       -0.06350215 0.33463717 0.58762175 -0.41119197
000060 26 d8 0a 3e 97 2a 36 3e c5 b4 ff bd 71 be 50 bf
       0.13559017 0.17789684 -0.12485651 -0.8154059
000070 62 c8 0a bf 55 f6 a9 bc fe cc 86 3d 52 a2 74 bb
       -0.5421201 -0.020747343 0.06582068 -0.0037328196
000080 b4 a4 d7 3e d6 fd 09 3f 11 bf ce 3e 52 b9 ef be
       0.42117846 0.5390295 0.40380147 -0.46821076
000090 83 a5 d1 bd fa 86 30 bf c9 62 36 3d 90 f6 b2 3e
       -0.10236647 -0.6895596 0.044527803 0.34953737
0000a0 1c 1f 38 be 86 e6 9b be 5f 96 b2 3c 18 96 09 bb
       -0.17980617 -0.30449313 0.021800218 -0.0020994004
0000b0 57 cd cf be 90 90 a1 3d 31 78 19 be c7 89 e2 3c
       -0.4058635 0.07888901 -0.14987256 0.027653588

l3_1.bias f4 [8]
000000 7d ee bd be ca 11 c2 3d cb 3b b0 bd e4 7f b6 3d
       -0.37096015 0.09476049 -0.086051546 0.08911112
000010 05 4f 16 3e 87 f4 13 3f 89 13 30 3f 5e b1 36 3e
       0.14678581 0.57794994 0.6877981 0.17841098

l3_2.weight f4 [8, 8]
000000 9d 05 61 3e 82 56 26 3e db b0 3e 3e 4b 17 14 bd
       0.21974798 0.16243938 0.18622153 -0.036155026
000010 25 41 fd 3d b2 a5 c6 3d 14 d7 87 be 6d 50 db 3c
       0.12365941 0.096995726 -0.2653128 0.026771748
000020 be ae b1 3d ac 0e 0a bd 09 c8 79 3e 2d f9 92 be
       0.086759076 -0.0337054 0.24392714 -0.2870573
000030 7f 4e 05 bf 5e 8c 69 be b1 6b 99 bd 47 b2 ee bd
       -0.520729 -0.22807452 -0.07491244 -0.116550975
000040 00 22 92 3e 09 02 b7 bd 56 f8 82 3c bc 9f 91 be
       0.28541565 -0.08935935 0.015987556 -0.2844218
000050 f8 7d a9 3d 58 a8 25 be 3b 63 7f bc 25 ea 39 3e
       0.0827598 -0.161775 -0.015587623 0.18155725
000060 89 14 01 bd 66 78 9b bd 73 97 a0 3c b9 9a 4d 3e
       -0.031513724 -0.075913236 0.019603467 0.20078553
000070 ec 5f f7 be 68 9c b6 3e 08 9a e8 3d 4e 04 bf 3d
       -0.4831537 0.35666203 0.11357504 0.09326993
000080 7d b2 56 3e cd 1d 6d be 0a 67 36 be 94 0c 13 be
       0.20966525 -0.231559 -0.17812744 -0.14360267
000090 74 ef 03 bd 6e ba 1a be e8 fd 45 be 7f 16 8d 3e
       -0.032210782 -0.1511018 -0.19335139 0.27556226
0000a0 58 cd 30 3e e6 9f 49 be c2 32 43 3e cd 94 95 3e
       0.17265832 -0.19689903 0.19062331 0.29215088
0000b0 12 69 63 be 3c dc bc 3e da 77 9b 3e 55 88 9b 3e
       -0.2220805 0.36886775 0.30364877 0.3037745
0000c0 4a 2a 57 3d 56 00 9c 3e 3b e2 a6 3d 9a 0d be bc
       0.052530564 0.30469006 0.08148619 -0.023199845
0000d0 5b dd bc bd a1 73 6d 3e 28 f9 5f 3c 21 dd 83 bd
       -0.09221908 0.2318864 0.013670243 -0.06438661
0000e0 3b 41 f1 3d 55 b1 a9 be a6 b4 9c 3e ee 24 97 be
       0.1178002 -0.33143106 0.30606574 -0.29520363
0000f0 89 c6 6d 3e 3a 69 9d 3d 99 b9 10 bc 0b df a0 3e
       0.23220266 0.07686086 -0.008833312 0.31420168

l3_2.bias f4 [8]
000000 25 4f 41 bd f2 5f cb 3c df 13 68 bc 4e bd da 3e
       -0.04719462 0.024826024 -0.014164894 0.42722553
000010 ee 6c c3 3d 6d dd 28 3e 2f 36 54 bd 92 4c 09 bd
       0.09542261 0.16490717 -0.051809486 -0.03352029

l3_3.weight f4 [8, 8]
000000 20 60 94 be 20 8f 4e 3d b6 09 6b 3e c5 d4 87 3e
       -0.28979588 0.050429463 0.22952923 0.26529518
000010 c6 78 70 be d0 dc 81 be b6 5b 0e 3e ac ca 80 bd
       -0.23483571 -0.2536378 0.13902172 -0.062886566
000020 7e d1 43 3e 58 ff 3f 3d 4d 47 49 be 00 48 d1 3a
       0.19122884 0.046874374 -0.19656105 0.0015966892
000030 04 24 90 3d 15 76 94 be ed 86 96 be 00 30 da 3d
       0.070381194 -0.2899634 -0.29399815 0.106536865
000040 78 4e 61 bd f9 4b 9c 3e 09 ec 9e 3e 30 d0 86 3d
       -0.055006474 0.30526713 0.31039456 0.06582677
000050 c0 14 4e 3c f2 3a 23 3e a0 27 7c 3c 89 6f af 3e
       0.012578189 0.15940455 0.015390307 0.34264782
000060 20 83 35 3d 6e 6a 30 3e a8 93 47 3d c9 41 86 be
       0.044314504 0.172281 0.0487248 -0.26222065
000070 92 d5 83 be fb 8f ae be ee 00 64 3e 2c d6 4d be
       -0.2574888 -0.34094223 0.2226598 -0.20101231
000080 70 7f b9 3c 12 da 39 3e bc c5 a3 be e6 2e 14 3e
       0.022643775 0.18149593 -0.31986797 0.14471015
000090 ac 4f b3 3d a6 78 21 3e d8 6d 4b bd ec 53 bf 3d
       0.087554306 0.1576868 -0.049665302 0.09342179
0000a0 54 b3 c7 3d 8d ae 91 3e 2e 82 3b 3e d8 3d 2b 3d
       0.09751001 0.28453484 0.18311378 0.041807026
0000b0 84 f0 11 3e 20 6c df 3c e1 b5 20 be 60 65 f5 3c
       0.14251906 0.027273238 -0.15694381 0.029955566
0000c0 90 b4 a6 3d 28 79 41 3d 28 42 87 bd c7 53 a8 be
       0.08139908 0.047234684 -0.06604415 -0.32876417
0000d0 48 94 a1 3d 00 60 c5 3c dc d7 95 bd 5c 3e 11 3e
       0.078896105 0.024093628 -0.073165625 0.14183944
0000e0 b0 91 db 3d 10 04 b6 bc 1e 4a d6 bd f8 a0 29 bd
       0.10721147 -0.022218734 -0.104633555 -0.041413277
0000f0 80 04 5d 3c a4 87 55 be f5 40 9d be 27 30 45 be
       0.013489842 -0.20852524 -0.3071362 -0.1925665

l3_3.bias f4 [8]
000000 be a0 a9 be c3 31 b3 be e2 37 26 be 2c 6b aa be
       -0.3313045 -0.34998903 -0.16232255 -0.3328489
000010 88 1e 8f 3d cf d3 a5 3e a0 f2 0a bc d0 22 ac bc
       0.06988245 0.3238816 -0.008480698 -0.021012694

l3_4.weight f4 [1, 8]
000000 e5 36 d6 ba 52 cb 87 be de 08 6d 3e ff f4 85 be
       -0.0016343264 -0.2652231 0.23147914 -0.2616348
000010 21 3b d0 3d a0 e2 80 be 36 b1 d3 bd 3a 4b 2e 3c
       0.10167528 -0.251729 -0.10336535 0.010638053

exp_avg f4 [8, 6]
000000 4c 0a 23 3c 63 16 f0 bb e4 e4 69 3c e2 0d 19 bc
       0.009951185 -0.0073268875 0.014275763 -0.009341689
000010 36 ee 13 bc 3c 97 83 bc 48 17 24 3c ff 54 f2 bb
       -0.009028962 -0.016063325 0.010015316 -0.007395386
000020 50 6b 6c 3c a3 f7 1a bc 31 54 15 bc ac b7 85 bc
       0.014429882 -0.009458455 -0.009114311 -0.016322933
000030 bf d8 c4 3c db 02 91 bc 2b 4c 0d 3d 72 f6 b8 bc
       0.024029134 -0.017701557 0.034496468 -0.022578452
000040 bf bd b2 bc a6 16 1f bd ef 05 2b 3a df 1a f8 b9
       -0.021818994 -0.03883996 0.00065240165 -0.00047322267
000050 32 19 69 3a a3 85 13 ba 0d 28 18 ba a7 e1 62 ba
       0.0008891999 -0.00056275184 -0.0005804308 -0.00086548406
000060 f3 0c 51 3d 25 d1 1a bd 0e 2b 97 3d b5 6a 46 bd
       0.05103774 -0.037797112 0.07381259 -0.048441608
000070 bf d1 3e bd 45 8b ab bd bc 9d 05 bc 65 59 c5 3b
       -0.04658675 -0.08376173 -0.008155283 0.0060226195
000080 9c 95 40 bc 58 8c fc 3b 1f 33 f3 3b a6 07 5a 3c
       -0.01175442 0.00770716 0.0074218656 0.013307488
000090 c3 f5 c2 39 04 e8 9a b9 95 c2 16 3a f5 d5 c7 b9
       0.0003718567 -0.00029546034 0.0005751041 -0.00038115648
0000a0 af 97 be b9 2c d4 29 ba 9c 0a 9a bb 79 c3 64 3b
       -0.00036352637 -0.00064784545 -0.004700972 0.003490655
0000b0 e8 cf de bb 1c f7 91 3b 27 f4 8c 3b 92 c8 fa 3b
       -0.0067996867 0.0044545066 0.004301566 0.0076533044

exp_avg_sq f4 [8, 6]
000000 16 2d 69 3e 6b b7 33 3c 06 83 08 3d 5a 55 1a 3c
       0.22771105 0.010969023 0.03332808 0.009419763
000010 71 21 73 3c a0 bf 03 40 d1 d4 77 3e 93 b0 3f 3c
       0.014839516 2.0585709 0.24202277 0.011699813
000020 0f c1 11 3d d2 85 24 3c b7 b8 81 3c 16 b2 08 40
       0.035584506 0.010041671 0.01583515 2.1358695
000030 65 b4 b7 3f 02 4f 8a 3d 21 61 52 3e ff 3b 71 3d
       1.4351927 0.06753351 0.20544864 0.058895107
000040 ab f8 b9 3d 97 40 8c 41 e8 6b a9 3a 85 a4 3f 38
       0.09080633 17.531538 0.0012925835 4.569117e-05
000050 7f 13 0d 39 2b 9f 1e 38 3e c7 83 38 10 6c 83 3b
       0.0001345407 3.7818372e-05 6.2836785e-05 0.004010685
000060 27 fa cc 40 d6 36 9b 3e 57 b1 6b 3f 08 7e 86 3e
       6.405536 0.30315274 0.92067474 0.2626803
000070 a2 36 d1 3e 41 b3 8d 42 78 24 20 3e f6 6c f6 3b
       0.40861994 70.850105 0.15638912 0.0075203134
000080 bd 2c bb 3c f9 38 d3 3b f4 d6 26 3c 88 57 ac 3f
       0.022848481 0.0064460007 0.010183085 1.3464212
000090 84 eb 94 3a 65 98 0e 38 14 c2 d3 38 22 e4 fc 37
       0.0011361693 3.3997367e-05 0.00010097414 3.0146974e-05
0000a0 42 38 3f 38 b8 10 77 3c ed 99 4c 3d 36 9a 15 3b
       4.5590343e-05 0.01507967 0.049951483 0.0022827513
0000b0 15 bf e1 3b a5 78 03 3b 07 3d 48 3b 6e dc 3a 3f
       0.006889234 0.0020060923 0.0030553953 0.729926

exp_avg f4 [8]
000000 14 92 5c 3c 04 a2 5e 3c 24 39 05 3d c2 ef 63 3a
       0.013462562 0.013588432 0.032525197 0.00086950895
000010 60 3b 8e 3d 84 4e 35 bc 5c 50 0e 3a e0 2a d2 bb
       0.06944919 -0.011066083 0.00054288446 -0.0064138025

exp_avg_sq f4 [8]
000000 8d af 17 3d a4 ca 21 3d 02 79 69 3e 77 c0 21 39
       0.037032653 0.039499894 0.22800067 0.00015425855
000010 57 01 83 3f 6e fd cf 3c 62 b5 f0 38 7c 89 fc 3b
       1.0234784 0.0253894 0.00011477877 0.007706819

exp_avg f4 [8, 8]
000000 89 67 b7 3a 33 fe b2 3a 63 3b 00 3a c4 6d dc 39
       0.0013992648 0.001365608 0.0004891662 0.00042043452
000010 16 c2 6d 39 ff c6 83 ba 83 76 fe 38 1b b9 a8 b9
       0.00022674384 -0.0010053812 0.00012133738 -0.0003218137
000020 30 21 df ba 81 86 d9 ba 0b ee 1b ba 5b d6 04 ba
       -0.001702344 -0.0016595871 -0.0005948252 -0.0005067342
000030 1c f0 90 b9 e3 b1 9f 3a 5f 4a 18 b9 9c 04 cd 39
       -0.00027644716 0.0012183752 -0.00014523555 0.0003910408
000040 20 0c 7f 3c 7c 53 78 3c dc 11 b2 3b 99 4d 97 3b
       0.015566856 0.015156623 0.005434258 0.0046174047
000050 fa 5b 25 3b 45 d2 35 bc 59 88 ac 3a de 17 6b bb
       0.0025231824 -0.011097495 0.0013163193 -0.003587238
000060 3b bf b9 3a 73 40 b4 3a 51 64 02 3a 85 a6 d3 39
       0.0014171371 0.0013752118 0.0004974055 0.00040369123
000070 02 28 79 39 11 2a 82 ba 41 9d ef 38 d5 c1 ae b9
       0.00023761395 -0.000993075 0.00011425699 -0.00033332282
000080 30 c1 91 3c 04 f0 8d 3c b6 82 cb 3b 6e 37 ad 3b
       0.017792314 0.017326362 0.0062106503 0.0052861487
000090 8c d1 3c 3b 7a f7 4f bc 6e a9 c5 3a df 48 86 bb
       0.0028811423 -0.01269328 0.0015080401 -0.0040980424
0000a0 f8 bf 64 bc 95 a8 5e bc 30 b9 9f bb 07 60 87 bb
       -0.013961785 -0.013589998 -0.004874371 -0.0041313204
0000b0 8c 82 14 bb 55 e1 22 3c e7 31 9a ba 74 0f 53 3b
       -0.002266082 0.009941419 -0.001176414 0.0032205256
0000c0 ea 32 a3 3c 8c e4 9e 3c 00 e1 e3 3b 43 9f c1 3b
       0.019921739 0.019396089 0.0069543123 0.005908878
0000d0 44 9a 53 3b d1 a9 68 bc 1f c3 dc 3a d0 72 96 bb
       0.0032287994 -0.014200644 0.0016842819 -0.0045913234
0000e0 21 54 23 3c 48 0f 1f 3c 29 12 64 3b 08 11 42 3b
       0.009968788 0.009708233 0.0034800863 0.0029612202
0000f0 f2 ac d3 3a d9 10 e9 bb 87 81 5d 3a 1a 76 16 bb
       0.0016149564 -0.007112604 0.0008449782 -0.0022958578

exp_avg_sq f4 [8, 8]
000000 f5 f0 fe 3a 29 30 b7 3b 61 39 53 38 55 2e 07 38
       0.0019450473 0.005590458 5.035976e-05 3.222966e-05
000010 93 c4 4d 39 d5 c6 de 3b 42 fa 29 38 76 90 5f 3a
       0.00019623553 0.006798605 4.052581e-05 0.0008528301
000020 b6 b0 f9 3a ff 21 ad 3b f2 5a 6c 38 2a 99 1b 38
       0.0019049856 0.0052835937 5.6351484e-05 3.7097525e-05
000030 9e 5f 5b 39 63 1c d1 3b 1a fa 0c 38 3c be 4f 3a
       0.00020921088 0.006381558 3.3611526e-05 0.00079247705
000040 93 60 bb 3d e9 07 81 3e 38 10 35 3b 45 81 dc 3a
       0.091492794 0.25201347 0.0027628075 0.0016823193
000050 b6 41 1a 3c f5 d8 9b 3e c1 4e dc 3a 37 23 20 3d
       0.009415081 0.30438963 0.0016808138 0.039096083
000060 e6 f3 c3 3b 5b aa 97 3c 76 dd de 38 6a 9f 80 38
       0.0059800027 0.018513849 0.00010627035 6.133209e-05
000070 3b 35 ff 39 af 00 bb 3c 77 83 2e 39 db 94 3f 3b
       0.0004867705 0.022827474 0.00016642908 0.0029233012
000080 90 b9 f5 3d 80 71 a9 3e 77 74 6c 3b 3e 86 0f 3b
       0.11998284 0.33094406 0.003608016 0.0021900083
000090 f8 58 49 3c 07 b7 cc 3e 0b aa 11 3b 61 8c 52 3d
       0.012289278 0.3998339 0.0022226598 0.051403407
0000a0 64 01 94 3d b5 2c 4b 3e 88 ad 10 3b 1b ed b0 3a
       0.07226828 0.19841273 0.002207609 0.0013498397
0000b0 9c 8d f5 3b da 3d 75 3e 64 8d ab 3a a0 de fb 3c
       0.007493688 0.23949376 0.0013088402 0.030745804
0000c0 57 fb 17 3e ea 7c d1 3e a2 aa 92 3b 75 d7 31 3b
       0.14841972 0.40915614 0.0044759074 0.002713648
0000d0 8f f6 78 3c a8 13 fd 3e 78 3d 34 3b f8 4d 82 3d
       0.015195503 0.4942906 0.0027502459 0.063625276
0000e0 f8 be 1e 3d 8d 52 da 3d 66 bf 99 3a f4 17 3d 3a
       0.03875634 0.106602766 0.0011730015 0.0007213347
0000f0 77 19 84 3b ba cb 03 3e 36 91 37 3a 4f c4 86 3c
       0.004031356 0.12870684 0.0007002534 0.01645103

exp_avg f4 [8]
000000 60 2b 8b 3a a2 44 aa ba 78 87 43 3c ba 14 91 3a
       0.0010617785 -0.0012990425 0.011934154 0.0011068799
000010 9c 48 5f 3c 62 9d 2f bc 7c 41 7a 3c 30 2d fa 3b
       0.013628151 -0.010718675 0.015274402 0.0076347813

exp_avg_sq f4 [8]
000000 a9 02 05 3a 7a bb 1f 3a 2a e4 ec 3c 72 a8 4a 3a
       0.0005073944 0.0006093305 0.02891739 0.0007730789
000010 5b 34 1a 3d 3c 56 be 3c c5 4a 3f 3d be 75 4a 3c
       0.037647586 0.02323448 0.046702165 0.0123571735

exp_avg f4 [1, 8]
000000 80 85 71 ba 59 68 1d 3b d9 51 c6 bc 37 b1 b2 bb
       -0.00092133135 0.0024018495 -0.02420895 -0.0054532546
000010 6f 28 8d bc 4f 82 2b 3d 0a 57 69 bd 00 e9 04 bc
       -0.017231194 0.04187232 -0.056967773 -0.008112192

exp_avg_sq f4 [1, 8]
000000 b2 51 9e 3d 37 36 59 3d 47 ec 37 3f aa c2 bd 3c
       0.07730426 0.05303022 0.71844906 0.023164112
000010 c9 57 48 3f 5e 8d 87 3f 4b cf 24 40 87 ff 8f 3e
       0.7825895 1.0590017 2.5751522 0.2812464

exp_avg f4 [8, 6]
000000 13 33 fd bb 8e d1 9c 3c 85 ff ca bc fa 80 3d 3c
       -0.007727036 0.019142892 -0.024780044 0.011566395
000010 76 83 c7 3c 86 bc b0 bc d0 24 f5 38 95 09 93 b9
       0.024354678 -0.02157427 0.00011689367 -0.00028045164
000020 b5 8f b9 39 26 e5 25 b9 f8 b5 bd b9 3e 68 b8 39
       0.0003539302 -0.0001582099 -0.00036184466 0.0003517288
000030 6d e3 44 3c 87 87 f0 bc 0f ac 1b 3d 1f 28 91 bc
       0.012017113 -0.0293615 0.038005885 -0.017719327
000040 15 10 19 bd 65 e6 07 3d 25 fe 09 bb 75 9b 6c 3b
       -0.037368853 0.033178706 -0.0021056023 0.0036103402
000050 32 8c 9c bb 98 84 10 3b 66 13 96 3b 86 5d 68 bb
       -0.004777455 0.0022051688 0.004579949 -0.0035456135
000060 6b d7 5a b9 80 00 74 3a 30 94 99 ba 6a 00 10 3a
       -0.0002087035 0.0009307936 -0.0011717137 0.0005493226
000070 72 29 9c 3a c1 fe 9f ba 66 ef 98 bc f1 a8 3f 3d
       0.0011914207 -0.001220666 -0.018668842 0.046791974
000080 28 eb 77 bd a1 7b e7 3c 75 e3 73 3d ff 25 59 bd
       -0.060526997 0.028257193 0.05954309 -0.05301475
000090 d5 65 80 bd ff 6e 1f 3e ea 4e 4e be e9 8e c0 3d
       -0.06269423 0.15569685 -0.20147291 0.09402258
0000a0 73 e0 4a 3e 28 38 34 be 8f d9 a9 b9 79 47 89 3a
       0.19812183 -0.17599547 -0.00032396286 0.0010473571
0000b0 54 70 b1 ba b6 6d 29 3a 0d 27 ae 3a 96 b2 9f ba
       -0.0013537505 0.00064631866 0.0013286785 -0.001218396

exp_avg_sq f4 [8, 6]
000000 c1 03 38 3e b7 c8 61 3c 41 52 24 3d cf 57 3b 3c
       0.17970182 0.013780764 0.040117506 0.011434509
000010 75 24 8f 3c bb f3 8c 40 51 14 66 3a 04 fd 93 38
       0.017473439 4.4047523 0.0008776831 7.056634e-05
000020 33 9b 5d 39 01 9f 8b 38 c1 7b b4 38 c0 bd 5a 3d
       0.00021134019 6.657653e-05 8.60612e-05 0.053403616
000030 41 a8 00 3f 67 96 22 3d 5d f4 ea 3d ed c8 01 3d
       0.50256735 0.039694216 0.1147239 0.03168576
000040 5a 35 50 3d 4c ee f0 40 8d bc 67 3c c6 16 91 3a
       0.05083213 7.529089 0.014144075 0.0011069409
000050 f3 a5 58 3b 85 44 84 3a 66 ee b2 3a 42 53 37 3f
       0.0033057898 0.0010091221 0.001365137 0.71611416
000060 2f ec f3 3a 56 95 1e 39 48 22 ea 39 fd 43 0a 39
       0.0018609817 0.00015123686 0.000446575 0.00013186033
000070 ad 44 46 39 14 e3 91 3d b9 28 94 3f 1b 96 b9 3d
       0.00018908335 0.0712339 1.1574928 0.090618335
000080 a4 02 86 3e ef 2d 94 3d d1 b4 ed 3d 33 ee 8a 41
       0.2617389 0.07235324 0.116067536 17.366308
000090 0b 63 46 41 de 63 77 3f f8 ce 32 40 6c 9a 46 3f
       12.39918 0.9663676 2.7938824 0.7757938
0000a0 23 37 9e 3f d3 8e 4a 43 67 28 42 3b e5 8a 7a 39
       1.2360576 202.5579 0.0029626132 0.000238936
0000b0 e9 4f 44 3a a2 e8 88 39 21 bd 90 39 14 b6 a7 3e
       0.0007488714 0.00026113266 0.00027606732 0.32756102

exp_avg f4 [8]
000000 1f 12 10 bd b0 15 07 3a 0a fa 5c 3d 9d 5f d9 bb
       -0.03517353 0.0005153073 0.053949393 -0.0066337124
000010 be 2a e0 ba 70 14 b0 bd 25 79 92 be 4a 3d fc ba
       -0.0017102582 -0.08597648 -0.2860805 -0.001924434

exp_avg_sq f4 [8]
000000 49 91 3e 3d 3f d0 79 39 88 3a 09 3e e4 ea 74 3b
       0.046525273 0.00023824068 0.13401234 0.003737145
000010 34 d9 05 3a cd a3 9c 3e db cd 50 40 07 77 53 3a
       0.0005105913 0.3059372 3.2625644 0.00080667477

exp_avg f4 [8, 8]
000000 ac bb 19 3c ac c1 8d 3b 44 19 3c bc 2e 2e 6f 3a
       0.009383123 0.004326066 -0.011480633 0.0009124008
000010 f4 f0 ae bb b8 7a 7a bb e6 f4 48 3b ce ff c3 3b
       -0.0053387824 -0.0038220119 0.003066355 0.005981422
000020 70 96 fd 3b d9 b3 69 3b 1c 1a 1b bc 09 b5 47 3a
       0.007738881 0.0035660176 -0.009466674 0.0007618224
000030 f6 5b 90 bb 94 e9 4f bb 3d 14 25 3b 6c 8c a1 3b
       -0.004405494 -0.0031724917 0.0025189065 0.0049300697
000040 95 67 9c bc 00 49 10 bc e1 6c bf 3c c8 2b f1 ba
       -0.01909236 -0.008806467 0.023367347 -0.0018399889
000050 a3 eb 31 3c c5 9c fd 3b db 13 cd bb 3e 83 47 bc
       0.010859403 0.0077396357 -0.0062584705 -0.012177287
000060 60 ac 46 3a 23 20 bb 39 f1 1e 71 ba 66 49 1e 38
       0.00075787865 0.00035691363 -0.0009198031 3.7738493e-05
000070 5b 4f dd b9 c4 e9 66 b9 22 d3 98 39 24 f2 01 3a
       -0.0004221153 -0.00022021594 0.00029149005 0.0004957041
000080 0a 10 a3 3c 33 5e 16 3c 24 83 c7 bc 21 e9 fe 3a
       0.019905109 0.009177732 -0.024354525 0.001944814
000090 f9 9c 39 bc 28 e0 04 bc 3a 33 d5 3b 0f eb 4f 3c
       -0.011328929 -0.008110084 0.006506351 0.01269032
0000a0 99 72 6c 3c 1f 0f da 3b 48 9f 90 bc ff f1 b7 3a
       0.014431619 0.0066546346 -0.017654076 0.0014033912
0000b0 15 8a 06 bc 78 4b c0 bb 1b bc 9a 3b 85 c2 16 3c
       -0.008211632 -0.0058683716 0.004722131 0.0092016505
0000c0 5d 77 92 bb 97 bd 06 bb f8 ee b2 3b db a5 f1 b9
       -0.0044697956 -0.0020559782 0.005460616 -0.00046090674
0000d0 45 1b 27 3b 8f 1f f5 3a 33 4e bc ba a0 3c 3a bb
       0.0025498432 0.0018701422 -0.0014366567 -0.0028417483
0000e0 20 aa 60 3c 89 35 cf 3b 0a 83 89 bc 39 b0 ad 3a
       0.013712436 0.0063235206 -0.016786117 0.0013251371
0000f0 d5 97 ff bb dc ab b6 bb 71 02 93 3b 15 40 0f 3c
       -0.007800082 -0.0055746865 0.004486375 0.008743306

exp_avg_sq f4 [8, 8]
000000 02 20 23 3e 49 4d 58 3b b7 c2 28 3d 14 c3 a8 3c
       0.15930179 0.003300505 0.04120132 0.020600833
000010 c6 1c fa 3c 25 38 1a 3f 3b ff da 3d 76 3e cc 3b
       0.030531298 0.6024192 0.106932126 0.006233032
000020 89 8e e4 3d d0 58 17 3b 2c 2c ed 3c 29 5a 6d 3c
       0.11159999 0.0023093708 0.028951727 0.014486828
000030 cc 17 af 3c 5c 72 d8 3e 73 d3 99 3d 7f 90 8e 3b
       0.021373652 0.4227475 0.07511034 0.0043507214
000040 00 d7 2e 3f 98 61 6c 3c c0 b5 2f 3e 31 fa ac 3d
       0.68296814 0.014427565 0.17159176 0.08446158
000050 8e 8b 06 3e d7 b4 23 40 5a 56 e7 3e fb 38 dd 3c
       0.13139173 2.5579126 0.4518307 0.02700471
000060 9b 1e 72 3a 1c 4b e7 36 58 d5 92 39 ea a5 9e 38
       0.0009236128 6.8930804e-06 0.00028006244 7.564931e-05
000070 88 8c 0f 39 3e 53 82 3b 0e fc 41 3a 5d e6 9e 37
       0.00013689895 0.0039772084 0.0007399925 1.8942339e-05
000080 f0 e7 3b 3f 88 90 7d 3c 84 21 3d 3e d7 20 ba 3d
       0.73400784 0.0154763535 0.18469816 0.09088295
000090 14 87 10 3e 9d 07 30 40 38 ce f8 3e f9 98 ed 3c
       0.14114028 2.7504647 0.48594832 0.029003607
0000a0 cb 04 c7 3e 44 88 05 3c 5c ba c9 3d 44 21 47 3d
       0.38870844 0.008150164 0.09849998 0.04861571
0000b0 20 e0 98 3d 6f ee ba 3f 7d 49 84 3e 13 ba 7a 3c
       0.074646235 1.4604014 0.25837317 0.015303153
0000c0 d3 70 0e 3d 1e 37 34 3a 77 5d 1c 3c 7b 40 a0 3b
       0.034775566 0.0006874668 0.009543768 0.004890499
0000d0 e6 25 d8 3b d9 9d 09 3e 72 85 c5 3c 16 66 ad 3a
       0.0065963147 0.1343912 0.024111483 0.0013229277
0000e0 c9 21 b6 3e 09 b6 f5 3b 57 1a b8 3d 9a e1 35 3d
       0.3557265 0.007498507 0.08989399 0.044404604
0000f0 cf 15 8c 3d c5 e7 aa 3f 54 ca 71 3e 49 b6 65 3c
       0.06840097 1.335198 0.23612338 0.014020511

exp_avg f4 [8]
000000 0f 38 0e 3d 0e 55 ea 3c aa d1 90 bd 67 62 3e 3b
       0.03472143 0.02860501 -0.0707124 0.0029050352
000010 77 cd 96 3d e0 b9 5a 3d 3d be 86 bc 56 fd 4f 3d
       0.07363408 0.05339992 -0.016448135 0.05077871

exp_avg_sq f4 [8]
000000 55 f7 43 3d 2d 3e 0a 3d 15 66 43 3e 09 8f 43 39
       0.047843296 0.0337507 0.1908191 0.00018649934
000010 26 79 52 3e 97 cb e2 3d fc 7f 43 3c b5 ab ce 3d
       0.20554027 0.11073988 0.011932369 0.10091344

exp_avg f4 [1, 8]
000000 81 80 84 3d 48 37 8d 3d 40 59 94 bd 26 ce 23 bc
       0.06469823 0.0689531 -0.072435856 -0.00999788
000010 20 f4 2c 3d 16 44 ac 3d a2 6e 1b bd 4e ff 49 3d
       0.042225003 0.08411424 -0.037947305 0.049315743

exp_avg_sq f4 [1, 8]
000000 1e 32 db 40 43 0c 34 40 5c 3b d7 40 14 5d 9c 3d
       6.849868 2.8132484 6.725996 0.07634941
000010 7a 23 f6 3f 02 11 97 40 c2 ee 85 3f c2 40 1a 40
       1.9229577 4.720826 1.0463488 2.4102025

exp_avg f4 [8, 6]
000000 34 0f c3 39 2d 41 85 39 e2 01 bc b9 1a 79 66 39
       0.00037204626 0.00025416297 -0.00035859557 0.00021979623
000010 d4 39 a9 39 1c 3f 1e ba cb b2 54 b7 84 9b 89 b7
       0.00032277277 -0.0006036626 -1.2677813e-05 -1.640409e-05
000020 98 f0 cc 37 94 b4 74 b7 80 18 a7 b7 70 57 d6 37
       2.443073e-05 -1.4585577e-05 -1.991936e-05 2.5551504e-05
000030 ca 88 0d bb 5d 3a b7 ba 8d c1 00 3b a2 0f 9f ba
       -0.0021596425 -0.0013979186 0.0019646615 -0.0012135396
000040 17 2c e9 ba ed 7a 60 3b 40 e7 04 bb d2 67 af ba
       -0.0017789629 0.0034252957 -0.0020279437 -0.0013382381
000050 5d e5 f6 3a e6 1e 98 ba d4 0e df ba 43 c7 54 3b
       0.0018836666 -0.0011605888 -0.0017017969 0.0032467402
000060 4d 22 b4 3b 20 dc 66 3b 75 17 a2 bb c9 7f 48 3b
       0.005497253 0.003522642 -0.004946644 0.0030593744
000070 ff f2 92 3b 00 27 0e bc e0 7e 4d bb 44 f2 06 bb
       0.004484534 -0.0086762905 -0.003135614 -0.002059118
000080 e5 e3 3d 3b 1b 2d ea ba cc 9e 2b bb 24 0a a4 3b
       0.0028974947 -0.0017866226 -0.002618718 0.0050060917
000090 90 10 e0 ba b8 a0 94 ba 50 56 d1 3a cd ef 80 ba
       -0.001709478 -0.0011339402 0.0015971158 -0.0009837091
0000a0 fb e7 bc ba 91 7f 33 3b d2 76 0b 39 7d 3c eb 38
       -0.0014412397 0.0027389268 0.00013300337 0.0001121694
0000b0 16 f8 28 b9 6d 9d cb 38 56 d2 13 39 60 65 7a b9
       -0.00016114148 9.709117e-05 0.00014097369 -0.00023879623

exp_avg_sq f4 [8, 6]
000000 b5 fc 81 39 b8 a8 9b 37 61 67 84 38 4a 59 c6 37
       0.0002479308 1.8556006e-05 6.313506e-05 2.3645018e-05
000010 86 c7 a3 37 2e 44 12 3d ef 5d f1 37 54 0c 0f 36
       1.9524025e-05 0.035709552 2.877318e-05 2.1315836e-06
000020 b7 82 ec 36 bc 8d 31 36 2f 92 17 36 6b e8 81 3b
       7.0485653e-06 2.6457556e-06 2.2585843e-06 0.003964474
000030 7c ad af 3b 2d 67 9c 39 16 84 8b 3a 42 11 b4 39
       0.005361257 0.0002983151 0.0010644223 0.00034345133
000040 68 5c aa 39 f9 ff 8d 3e 79 55 95 3b 3e 2b 8c 39
       0.00032493775 0.27734354 0.0045573083 0.000267351
000050 04 1c 75 3a c6 db a3 39 93 df 97 39 49 e0 9c 3e
       0.0009350183 0.00031253527 0.0002896754 0.30639866
000060 ea f7 12 3d 91 ba f8 3a d7 69 e2 3b 9a 1c 0d 3b
       0.03588096 0.00189765 0.0069095897 0.002153194
000070 60 24 08 3b 1d 85 ae 3f c6 fc 33 3c 7a e8 23 3a
       0.0020773634 1.3634373 0.010985559 0.0006252598
000080 75 c3 10 3b e6 cb 3d 3a 82 2c 32 3a 03 02 24 3f
       0.0022089158 0.0007240161 0.00067967933 0.6406557
000090 88 47 55 3b 5a f7 4c 39 ca b2 32 3a 79 a5 71 39
       0.0032543857 0.00019547102 0.0006816803 0.00023045194
0000a0 a1 7a 5d 39 5e 40 74 3e 1c 0b 02 38 c6 4c ff 35
       0.00021121885 0.23852679 3.100476e-05 1.9021325e-06
0000b0 fe df d1 36 93 0e 14 36 63 50 0a 36 ba f4 2f 3b
       6.2547615e-06 2.2062202e-06 2.0610394e-06 0.002684875

exp_avg f4 [8]
000000 3c d8 f4 b9 be d7 fc 37 57 55 28 3b 95 25 21 3b
       -0.00046700414 3.0141204e-05 0.0025685632 0.002458905
000010 df 17 d4 bb fc f3 77 3b bc 8b 08 3b 29 1d 58 b9
       -0.006472572 0.0037834635 0.0020835241 -0.00020610228

exp_avg_sq f4 [8]
000000 70 61 83 38 f8 78 f1 36 43 02 84 3a ce 9c 6c 3a
       6.264716e-05 7.1964423e-06 0.0010071475 0.0009026051
000010 1e ef d1 3b be 57 0a 3b 38 ff 2c 3a 08 7b d7 36
       0.006406679 0.0021109427 0.000659931 6.421822e-06

exp_avg f4 [8, 8]
000000 6f 81 b7 b4 b3 c5 e7 35 5d 80 be b7 29 f6 16 b8
       -3.4180582e-07 1.7268379e-06 -2.2709539e-05 -3.599204e-05
000010 9e 0e 28 37 c5 3f 89 b7 76 8d 50 37 09 74 d9 b4
       1.0016984e-05 -1.6361368e-05 1.2430703e-05 -4.0503826e-07
000020 c9 bd f8 b8 74 b3 d5 39 49 d0 88 bb e3 d9 ba bb
       -0.00011860912 0.0004076023 -0.00417522 -0.0057022437
000030 03 41 37 3b 5f 36 c5 ba aa 83 71 3b e4 74 8a b9
       0.0027962334 -0.0015046111 0.003685216 -0.000264085
000040 ac 10 db 38 84 d2 ba b9 fa e7 6e 3b a3 d7 a2 3b
       0.00010445839 -0.0003563353 0.0036454187 0.0049695536
000050 20 a0 20 bb 77 52 aa 3a 11 bb 53 bb f1 5b 73 39
       -0.0024509504 0.0012994547 -0.0032307545 0.00023208537
000060 18 a6 f7 b8 73 3a d3 39 48 08 87 bb fb 10 b8 bb
       -0.00011808815 0.00040288604 -0.0041208602 -0.0056172586
000070 ca 9a 35 3b 99 6e c0 ba 21 65 6f 3b 96 9c 89 b9
       0.002771067 -0.0014681398 0.0036528783 -0.00026247342
000080 d7 09 41 38 58 34 24 b9 27 e3 d1 3a fd fc 0e 3b
       4.602395e-05 -0.00015659758 0.0016013131 0.0021818273
000090 22 47 8d ba 3b 20 15 3a fa 42 ba ba 31 38 d6 38
       -0.0010778646 0.00056887016 -0.0014210634 0.00010214782
0000a0 71 40 ee b8 cc 34 cb 39 d9 e9 81 bb 3d 18 b1 bb
       -0.000113607275 0.00038758514 -0.0039646444 -0.0054045008
0000b0 2e b5 2e 3b d1 2d b9 ba e4 4c 66 3b da 5e 84 b9
       0.0026658284 -0.0014128034 0.0035141045 -0.00025247672
0000c0 7d d6 43 b8 8c dd 26 39 ac 59 d5 ba 9d 69 11 bb
       -4.669138e-05 0.00015913526 -0.0016277335 -0.0022188195
0000d0 69 79 8f 3a ae fb 17 ba 7c 27 bd 3a 3b 6a d9 b8
       0.0010946217 -0.0005797696 0.0014431323 -0.00010367153
0000e0 94 46 aa 36 59 b9 88 b7 93 b6 2e 39 55 bb 6b 39
       5.074611e-06 -1.6298773e-05 0.00016661947 0.00022481133
0000f0 0b e8 ef b8 b9 27 6b 38 1c f3 1d b9 27 db 36 37
       -0.000114396295 5.606536e-05 -0.00015063252 1.0899071e-05

exp_avg_sq f4 [8, 8]
000000 f9 39 80 37 ac a9 9c 35 b2 9e 03 3a 02 4d 8f 3a
       1.5285785e-05 1.1672287e-06 0.0005020901 0.0010932984
000010 a4 31 43 37 9e 1a a9 3a 65 a0 0b 3a 20 5f ef 35
       1.1634464e-05 0.0012901609 0.000532633 1.7834573e-06
000020 cf 01 8c 3a 1b ed b0 39 02 55 5f 3d 40 79 f1 3d
       0.0010681691 0.00033745993 0.05452443 0.11790705
000030 a4 72 2a 3b 39 bd 0c 3e d9 9d 61 3d 81 ff 62 39
       0.0026008273 0.13744058 0.055082176 0.00021648222
000040 25 df a1 3a 57 f5 90 39 e5 f9 5b 3d 7d 50 ef 3d
       0.0012349827 0.00027648613 0.053705115 0.11685274
000050 4f 1f 09 3b da 52 0c 3e a3 69 63 3d 9b a0 4f 39
       0.0020923202 0.1370348 0.055520665 0.00019800889
000060 60 1a ca 3a 5a e0 b7 39 d8 25 8a 3d 39 49 16 3e
       0.0015419237 0.00035071635 0.06745499 0.1467637
000070 ec 6f 2d 3b fb 37 30 3e f3 bc 8e 3d 99 ab 82 39
       0.0026464416 0.17208855 0.06969633 0.00024923382
000080 db 5a 9e 39 f0 f7 6b 38 75 87 48 3c d7 98 da 3c
       0.000302038 5.6259276e-05 0.012239327 0.026684208
000090 94 86 e0 39 a8 7c 00 3d 4b 42 51 3c 40 26 36 38
       0.00042824878 0.03136888 0.012772153 4.3427804e-05
0000a0 62 91 bc 3a 54 d9 aa 39 cd 9e 80 3d e7 f3 0b 3e
       0.0014386589 0.0003258685 0.06280289 0.1366726
0000b0 c0 ab 20 3b ca 20 24 3e e4 f7 84 3d d2 f8 72 39
       0.0024516433 0.16028133 0.06492594 0.00023171611
0000c0 5c 20 a4 39 a1 29 76 38 65 8f 50 3c 22 43 e3 3c
       0.00031304627 5.868974e-05 0.0127295 0.027741972
0000d0 ec f0 ea 39 f7 8a 05 3d 86 67 59 3c 1c 08 3e 38
       0.0004481146 0.03260323 0.013269311 4.5307082e-05
0000e0 eb 3e 70 36 54 ef d5 35 b3 ac 53 39 44 69 eb 39
       3.579941e-06 1.593939e-06 0.00020186864 0.00044901122
0000f0 9b 17 be 36 b9 f6 0a 3a 63 df 5c 39 5c 82 4f 35
       5.6651893e-06 0.0005301047 0.00021064053 7.7303207e-07

exp_avg f4 [8]
000000 cc ab b1 37 c7 27 a2 3b 3a ec 8d bb 24 73 a0 3b
       2.1180043e-05 0.0049485895 -0.004331139 0.0048965383
000010 08 8f f9 ba 40 5c 9a 3b e5 87 fd 3a c9 42 52 b9
       -0.0019039819 0.004710704 0.0019342868 -0.0002005204

exp_avg_sq f4 [8]
000000 57 ab 1d 37 bc c9 7b 3b 99 11 37 3b b5 93 68 3b
       9.397822e-06 0.0038419804 0.0027934073 0.003548843
000010 8e d7 0b 3a a7 f3 56 3b d5 23 13 3a f0 c9 0d 37
       0.00053345494 0.0032799037 0.00056129444 8.451272e-06

exp_avg f4 [1, 8]
000000 ae 7c bf 3b 60 e2 1b 3b 7c 7b d9 bb 2c d1 15 3b
       0.0058437204 0.0023786053 -0.006637035 0.0022860272
000010 45 95 99 bb cc 21 e5 3b 1f b6 55 3b 97 21 f3 ba
       -0.004686984 0.0069925543 0.0032609773 -0.0018549439

exp_avg_sq f4 [1, 8]
000000 07 fe e1 3c bb 90 64 3e ea a6 17 3f ce 3d 85 3f
       0.02758695 0.22320835 0.59239066 1.0409486
000010 f1 5a 51 3f 5a 95 0a 40 5c 06 86 3e b8 1f 32 3b
       0.8177939 2.1653657 0.26176727 0.002717955
