trained_models/binaries/model_down.pth (torch, 26043 bytes, 51 tensors)

l1_1.weight f4 [8, 6]
00000000: 3941 9c3c c86b b4bd b37d 93be 41e1 98be
00000010: 9057 a8be 1c08 8d39 0899 323c 1712 013e
00000020: 81d1 a6bc 8f9f f53e a2d1 42bf b286 4c3c
00000030: bf94 5e3e 75c1 353e 4f9f a93d 9d90 e13d
00000040: ee7a 83bf 887e 0c3f 1aca cf3c e8ad 1ebd
00000050: e063 2c3e 91db ee3d 784b 813f 7150 2a3e
00000060: 9146 0a3d eeff c7bd b5ea 30bd 0ad6 2ebe
00000070: 8827 973f f32c ecbd 6487 bc3c 4311 40be
00000080: 1292 9ebe 43a2 a43c e073 a2be c283 913b
00000090: 3fd8 5f3d 4ed1 3d3d a150 eebc 7edf f6bd
000000a0: ddc0 3f3f aa8d dfbe 6ad7 b93c d587 6a3e
000000b0: c88a 8fbe 492a 89bd b6a1 64be e20c f03a
0.01907407 -0.0880962 -0.28806838 -0.29859355 -0.32879305 0.00026899658 0.010900743 0.12604557
-0.020363571 0.47973296 -0.76101124 0.012483286 0.2173643 0.17749579 0.08282339 0.11013911
-1.027189 0.5488057 0.025364924 -0.03874007 0.16834974 0.11662973 1.0101156 0.16632248
0.033758704 -0.097656116 -0.043192584 -0.17073837 1.1808939 -0.11532011 0.023013778 -0.18756585
-0.30970818 0.020096904 -0.3172903 0.0044407556 0.054649588 0.046342187 -0.029091181 -0.120543465
0.7490366 -0.4366277 0.022685725 0.22903378 -0.2803557 -0.066975184 -0.22327313 0.0018314386

l1_1.bias f4 [8]
00000000: 548f 3ebe 0478 2cbe 1b7c eebd f98e d43e
00000010: f39d de3e 475a 36bd 6f45 c53e 4715 2a3e
-0.18609363 -0.16842657 -0.11644765 0.4151533 0.4347988 -0.04451969 0.38529536 0.16609679

l1_2.weight f4 [8, 8]
00000000: 4517 83be 10a3 aa3d fb5e dabe 7b08 1f3c
00000010: 0743 dd3f 8262 f2bd 6810 3a3d 4243 933d
00000020: 0ad3 42be a641 1e3c c5ab ca3d fa88 ce3d
00000030: d24f 9e3f a036 3c3e c392 b9bc fa50 c9bd
00000040: 26ee debe 6cef 733d 7058 813e 56b1 83be
00000050: e51e 97bf 51c6 1b3d 4b5f 91bc f312 90be
00000060: 2b91 d4be d3c1 58be 1a19 6d3d 40b9 91be
00000070: 866a c7bf f317 cc3c 3a7d 54be 3280 b63d
00000080: a0f1 1ebe d4d2 143d ca82 cfbe 4c0f 85bd
00000090: 2aab ad3f 1933 3abe ce2c 7b3e a89d a63d
000000a0: feb5 6ebe 413c c83d df07 8ebe 061d aa3e
000000b0: a127 ef3f dede f9bd e035 a53d 1ee8 aa3b
000000c0: 6b56 7abe a36a 933e 2c77 803e 291c a13e
000000d0: 23bf c5bf 9f00 1bbe 7555 a8be b8aa 093d
000000e0: 4ed8 c8bd 7e74 51bd de7f 8c3e 333e 98be
000000f0: 360e 91bf 168a ccbe d831 64be d88c 663e
-0.2560369 0.08331883 -0.4265059 0.009706612 1.728608 -0.11835195 0.045425802 0.07190563
-0.19025818 0.0096592065 0.09896044 0.1008472 1.2368109 0.18380213 -0.02265299 -0.09829898
-0.43541068 0.059554502 0.25262785 -0.25721234 -1.1806303 0.038030926 -0.017745635 -0.28139457
-0.41517004 -0.21167688 0.057885267 -0.28461647 -1.5579383 0.024913764 -0.20750895 0.0891117
-0.1552186 0.036333874 -0.40529472 -0.06497058 1.356786 -0.18183555 0.2452881 0.08135539
-0.23311612 0.097771175 -0.2774038 0.33225268 1.8683969 -0.12200712 0.080669165 0.005215659
-0.24447028 0.28792295 0.2509092 0.31466797 -1.5448955 -0.15136956 -0.328777 0.033610076
-0.09806882 -0.051136486 0.27441305 -0.29734954 -1.1332462 -0.399491 -0.22284639 0.22514665

l1_2.bias f4 [8]
00000000: 6a30 42be 8804 afbd 05ea ccbe 37f4 1fbe
00000010: 93e3 d9bd b6a4 32be 9c9c 8fbe 9859 0dbe
-0.18963781 -0.08545786 -0.40022293 -0.15620504 -0.106391095 -0.17445645 -0.2804917 -0.13803709

l1_3.weight f4 [8, 8]
00000000: 2930 943e c01d bfbd 3eab 333e c0f6 bc3c
00000010: 2681 ddbd b491 acbd d7f7 88be c5ea 9abe
00000020: a022 c73d 2ebc 403e a071 b03d 4459 e4bd
00000030: ab8a 803e 61dc 823e 1f0c 993e 829a 633e
00000040: 8a9b 03be a0c8 6b3c a59f 4dbe e28f 713e
00000050: 8a10 4b3e 033f 06be 4885 a8be 24c1 fd3d
00000060: 7f3d 9d3e 91a5 9a3e e287 523e 4023 7ebc
00000070: 14dd bfbd 64c5 bd3d f4e3 063e 90de a23c
00000080: a085 cd3c 1ace 503e e207 443e ce10 eabd
00000090: 5860 61bd 242a ecbd aba1 b3be 4f01 30be
000000a0: 010e b3be fe53 61be bb66 26be 1005 833d
000000b0: 5981 15be a6cd 5b3e 0ed0 603e b068 c03d
000000c0: d0c7 423d 60d1 3abc b59a 4fbe 9453 dabd
000000d0: c13e 0dbe 0829 3cbe f889 17bd 8fa7 ad3e
000000e0: 006d bd3b c0c9 343c 58b3 4fbd 00bf 93ba
000000f0: 1809 96bd 7ee0 693e 208a 1bbd 3ae8 a7be
0.28942993 -0.09331846 0.17545792 0.023066878 -0.10815649 -0.08426228 -0.26751587 -0.3025724
0.09723401 0.18821785 0.08615422 -0.111498386 0.25105795 0.2555876 0.2989206 0.22226909
-0.12852302 0.014391094 -0.20080431 0.23590043 0.19830528 -0.13109975 -0.32914186 0.12390354
0.3071098 0.30204442 0.20559648 -0.015511334 -0.09368339 0.09266165 0.13172895 0.019881517
0.025088131 0.20391122 0.19143632 -0.114289865 -0.05502352 -0.11531475 -0.3508428 -0.17187999
-0.34971622 -0.22004697 -0.16250126 0.0639745 -0.14600123 0.21465167 0.21954367 0.093949676
0.047553837 -0.011402458 -0.2027386 -0.106604725 -0.1379347 -0.18375027 -0.03699681 0.339169
0.005780816 0.011034429 -0.050708145 -0.0011272132 -0.07325953 0.22839543 -0.037973523 -0.32794362

l1_3.bias f4 [8]
00000000: d021 67bd 88b1 fd3d c46f 8f3d e4e4 7bbe
00000010: 00e4 a13b a2af 94be 7dab 4bbe b84f 47bd
-0.05642873 0.12387377 0.070037395 -0.24599034 0.00494051 -0.29040247 -0.19889636 -0.04866001

l1_4.weight f4 [1, 8]
00000000: ae0d d83e 5676 a93d e940 cabd 6a23 45be
00000010: 3fde 263e 9975 0c3f 91d9 11bf 03c5 05be
0.42197937 0.08274524 -0.09875662 -0.1925179 0.16295718 0.5486694 -0.56972605 -0.13063435

l2_1.weight f4 [8, 6]
00000000: f113 08bd b699 aa3e e167 9ebe b7a3 8abf
00000010: b9bd 8b3d 4478 6bbe 94ad 87bc bbf4 823e
00000020: e028 e63d e9ad 393f bce9 14be f78f 083e
00000030: c2b6 fa3b 524c 143f 4e53 b63e a296 92bf
00000040: 8a0a a13c b6b6 15bf df75 043d 00f2 f5be
00000050: acb9 c3be 7ddd 163f e65b 1dbe 99a4 933d
00000060: 9ad0 60be 1cb1 2ebd 2925 b33e f1ab 9e3f
00000070: 7cb3 cdbe 0c34 f2b8 58d5 c1bb b12f a93e
00000080: 4b66 ff3d 14c3 68be 9cb2 dfbe dda0 8b3b
00000090: bb7d 9dbe 1c3d 8bbc d1d7 54be 5b19 a2bf
000000a0: f15a 3e3e 12ef f1be 1fb7 cc3c d128 9bbd
000000b0: 13be 81be da83 89be 428d d4bd 492a 9dbd
-0.033222143 0.33320397 -0.30938628 -1.0831212 0.06823296 -0.22995096 -0.01656226 0.2557734
0.11238265 0.7253099 -0.14542288 0.13336168 0.007651181 0.57928956 0.3561043 -1.145222
0.019658346 -0.5848192 0.032338973 -0.48036194 -0.38227594 0.58931714 -0.15367088 0.07209129
-0.21954575 -0.042649373 0.34989288 1.2396222 -0.40175998 -0.00011549154 -0.005915325 0.33044198
0.12470683 -0.22730666 -0.43690956 0.0042611198 -0.30759987 -0.016996913 -0.20785452 -1.2663988
0.18589379 -0.4725271 0.024989663 -0.075761445 -0.25340328 -0.26858407 -0.10378505 -0.07674081

l2_1.bias f4 [8]
00000000: 0256 c93d ec2b 813e 870d 1cbf 8188 393e
00000010: dad1 aa3e 2b94 97be d9fd 97be b7f0 9cbb
0.09830858 0.25228822 -0.6095814 0.18118478 0.3336323 -0.2960523 -0.29685858 -0.0047894376

l2_2.weight f4 [8, 8]
00000000: 8e2c ea3c d179 eb3c 3957 89bf 0ce0 223e
00000010: a464 273f 5095 393e 647b e3be a417 85be
00000020: a398 bcbd bac2 a03e a1ae 8e3f b7c8 d4bd
00000030: 1826 8abe 8272 5ebd a20e 563e 7d0b 5bbd
00000040: f0f0 d43d 96e2 52be 679b 2b3f 8296 be3d
00000050: f113 17bf 2a8e c9bd 25c5 a33e ae77 f6bd
00000060: 90fc 873e 7957 5c3e d854 23bf 79b7 2c3c
00000070: d438 133f 0724 98be 2f7e a3be b722 fbbd
00000080: 63a6 b4be fd35 753d cfe9 dfbe 0a37 06be
00000090: 162b 053f 07b1 91be cb06 03bf 65ae 39be
000000a0: dc15 f63d a908 eabc 5cc6 633f 710c be3c
000000b0: dbe7 873c fd18 503e fbad e43e bbf1 bdbc
000000c0: e6f5 46be 376d 3b3e ee26 eebe e39e b8bd
000000d0: fab4 033f 7a6f a73e ad45 1ebe e7c6 763e
000000e0: e037 803d 910c 14be 15a2 f43c c92d 57bd
000000f0: 9995 f8bc 9629 5fbe b66a 04bc 1f06 63be
0.028585698 0.02874461 -1.0729743 0.1590578 0.6538794 0.18123364 -0.44430077 -0.259946
-0.09208801 0.31398565 1.1147043 -0.10389846 -0.26982188 -0.054308422 0.2090402 -0.053477753
0.10397518 -0.20594248 0.67034 0.09306051 -0.59014803 -0.09841569 0.31986347 -0.12034546
0.26559877 0.21517743 -0.63801336 0.01054179 0.5750859 -0.29714987 -0.31932208 -0.12262481
-0.35283193 0.05986594 -0.4373307 -0.13106933 0.5201887 -0.28455374 -0.5118224 -0.18132932
0.12015888 -0.028568583 0.8897455 0.023199292 0.01659005 0.20322032 0.44663987 -0.023186555
-0.1942974 0.18303381 -0.46514076 -0.0901468 0.51448023 0.32702237 -0.15456267 0.24099313
0.06260657 -0.14457919 0.029862443 -0.0525339 -0.030344771 -0.21793208 -0.0080820825 -0.22170304

l2_2.bias f4 [8]
00000000: f4ea 88bd 81f6 6bbd 9ea8 03bf 97e5 b03d
00000010: 73bc f83e a1e6 83be cb3e d13e ac3e 463c
-0.06685439 -0.05760813 -0.51429164 0.08637541 0.48581275 -0.25761893 0.4086822 0.012099903

l2_3.weight f4 [8, 8]
00000000: c8de b03d 9b9e 2abe a6e2 fdbd 5838 403d
00000010: ccde ddbd be6a 703e 4c72 e5bd 849c b4bd
00000020: 24aa 8ebe 62bd 9ebe ca63 76be 5073 b2bc
00000030: f047 2dbd 0333 b33e d0f3 c2bd 1516 8a3e
00000040: fc5c babd 6684 6e3e fe98 703e 8c61 72be
00000050: 3028 083e 131b 9a3e 1b40 80be 9f7d 09be
00000060: 70ed 8d3c 5f3e 8f3e 5696 4d3e e9df 853e
00000070: 405f ee3d e0e1 84bc af96 41be 2a9d f7bd
00000080: 808b 86bb 80d3 663c 4b3c 80be 1bbf 40be
00000090: a9bf 5fbe 95b2 a53e 40d0 a03d a019 c6bc
000000a0: a05e 9cbe 6b51 a93e 051b 883e 1602 2bbe
000000b0: 0068 cc3c fa55 323e 593f 92be 4931 81be
000000c0: 50c9 92be 96f0 b4be c164 acbe f2a1 083e
000000d0: 284c 1e3d c048 ae3b d2e0 683e 6fc4 913e
000000e0: f00f 47bd f81b 933d cf33 a73e fe91 6a3e
000000f0: a221 733e 2820 0fbd 449f 33be 0008 3039
0.08636242 -0.16662066 -0.123967454 0.046928734 -0.10833511 0.23478219 -0.11203441 -0.088189155
-0.27864182 -0.31003863 -0.24061504 -0.0217835 -0.042304933 0.34999856 -0.0951916 0.26969972
-0.090997666 0.23292693 0.23495862 -0.23670024 0.1329658 0.3009878 -0.2504891 -0.13426827
0.017325133 0.27977273 0.2007688 0.26147392 0.11639261 -0.016220987 -0.18905137 -0.120905235
-0.004105985 0.0140885115 -0.25046 -0.18822901 -0.21850456 0.3236281 0.078522205 -0.02418214
-0.30540943 0.3306993 0.26583114 -0.16700014 0.024951935 0.1741561 -0.28563955 -0.25232914
-0.28669214 -0.35339803 -0.3367062 0.13343027 0.038646847 0.005318731 0.22742012 0.2847018
-0.048599184 0.07183069 0.32656714 0.22907254 0.23743299 -0.034942776 -0.17541224 0.00016787648

l2_3.bias f4 [8]
00000000: 8c8c ea3d 7e05 263e 4059 cd3c 2836 60bd
00000010: b0ca f33d d096 6b3d 2893 c03d d272 32be
0.114525884 0.16213033 0.025066972 -0.054739147 0.11903894 0.057516873 0.09403068 -0.17426613

l2_4.weight f4 [1, 8]
00000000: 89ec 1f3f fab9 3ebf d8c3 26bf 447c bb3e
00000010: 46da b73e ecbd fabe 0f6f ac3e a13c 59bc
0.624703 -0.7450253 -0.65142584 0.36618245 0.35908717 -0.48973024 0.3367848 -0.013259084

l3_1.weight f4 [8, 6]
00000000: 5286 08bd e18c bbbe aad6 bdbe 14fe 9bbf
00000010: 4095 d13e 9fad b63f e89c ae3c 6e42 eebc
00000020: 9a7b 1f3e 6b4b 703e 5409 43be 6457 523e
00000030: 2f10 f93d 4475 a63e 27dc 2d3f 7fa4 3e3f
00000040: c498 273e 6e73 34bf a5e6 f43d b54c 463f
00000050: 363c 143f da29 663f e6a4 c4be 4046 5bbf
00000060: 7685 9dbc ff39 e3be 4504 90be 80d1 5dbf
00000070: 2ee5 45bd 050a 8e3f d019 86bd 1bb3 fd3e
00000080: 7c00 ce3e dad3 623f 5eb4 0bbf b124 2dbf
00000090: 3a1f 913c 5147 a8be c34e 11bf 27b5 3ebf
000000a0: b316 fa3e 45fa 7e3f 7dee b6bc cbe6 5c3e
000000b0: ee86 1b3f 4993 2b3e 5392 24bf 3d34 aabe
-0.033331223 -0.3663092 -0.37077838 -1.2186913 0.4093418 1.4271735 0.021315053 -0.02908441
0.15574494 0.2346627 -0.19046527 0.2054115 0.1216129 0.32511342 0.6791405 0.7446975
0.16366869 -0.7048863 0.119580545 0.77460796 0.57904375 0.8990761 -0.38407058 -0.8565407
-0.019228678 -0.44380185 -0.28128257 -0.86647797 -0.048314266 1.1096808 -0.06547892 0.4955071
0.40234745 0.8860451 -0.54572093 -0.6763411 0.017715085 -0.3286691 -0.56760806 -0.74495167
0.48845443 0.9960063 -0.022330517 0.21572416 0.6075276 0.16755404 -0.64285773 -0.3324298

l3_1.bias f4 [8]
00000000: 430f 1b3f 213c 13be 03d8 d0be a566 01be
00000010: 8016 303e a99b b0bc 2bc5 0c3e 9798 b6be
0.6057016 -0.14378406 -0.40789804 -0.12636812 0.17196083 -0.0215586 0.13747089 -0.35663292

l3_2.weight f4 [8, 8]
00000000: bc21 55be 0726 57bc b364 5dbc 3efe 6d3d
00000010: 48d8 9d3e 556f 69ba 7715 d5bc 04b2 313e
00000020: 650f 15bf 6a72 a43b 31d2 643e 4fe5 bf3e
00000030: f7c0 dbbd 56b0 b53e cac9 07bf 1147 c73e
00000040: 851c 98bd 2473 8bbd d57b bc3d 01de 2abe
00000050: fb03 523b 945d 55be 171b a5be 5d5e 3f3d
00000060: ed2a 1a3f 0e8e ca3d ce4d 8bbd cd52 9ebe
00000070: 2f65 183e 4369 9ebe 29b0 d93e 9b99 64be
00000080: d1a5 22bf 47c6 babd 864c 0d3e d0a6 033e
00000090: 5bac a1be 3500 873e 622c 24bf 4040 79bd
000000a0: a291 a3bd 2414 d13e 1ffd ce3d a318 1e3e
000000b0: 605f 793e 4a3f f13e 7eea dabe e56e 873e
000000c0: 3f4f 653e 3739 d3be c2fd 07be f908 ca3d
000000d0: 3670 01be e2d4 c6be a9d8 133f 9ad7 31be
000000e0: 69ea 093e dc71 aebc 546b 54bd 7a8a 683e
000000f0: aae4 993e e14f d43d 41d6 64be 5aa7 843e
-0.2081365 -0.013131625 -0.013512778 0.058103792 0.30829072 -0.00089048344 -0.026011212 0.17353064
-0.58226615 0.005018522 0.22345807 0.37479636 -0.107301645 0.35486096 -0.5304228 0.38921407
-0.07427315 -0.06809071 0.092033066 -0.1668625 0.003204583 -0.20836478 -0.3224723 0.04672085
0.6022175 0.09890376 -0.068019494 -0.30922547 0.14882348 -0.30939683 0.42517212 -0.22324221
-0.63534266 -0.0911985 0.13798723 0.12856603 -0.3157681 0.26367345 -0.6413022 -0.06085229
-0.07986762 0.4083568 0.10106873 0.15439086 0.24352789 0.47118598 -0.42757028 0.26451793
0.22393511 -0.4125459 -0.13280395 0.09864993 -0.12640461 -0.38834292 0.5775247 -0.17367402
0.13468327 -0.021294527 -0.05186017 0.22709075 0.3005727 0.10366798 -0.22347356 0.2590893

l3_2.bias f4 [8]
00000000: bcce 9abd 9639 00bf 58d1 79bb 7e8a ab3d
00000010: 715e 7cbe bf0d bfbe 21fc 913d 6de4 c3be
-0.07558963 -0.5008787 -0.0038119163 0.08376025 -0.24645402 -0.37315175 0.07128168 -0.38260213

l3_3.weight f4 [8, 8]
00000000: e4b8 b43d 6082 4abd 36ae 1a3e d021 15bd
00000010: 7542 b23e a480 47be f080 db3d ddf0 843e
00000020: 52fc 9cbe 3018 553d aa17 4abe 297e 863e
00000030: fe9b eabd d966 b13e 569c 623e b535 a9be
00000040: 8659 f2bd 6ec4 343e a7ab 8d3e f11b 37be
00000050: c887 86be 8ccc 8bbe be71 86be 5c18 bbbd
00000060: de73 19be 5c4b 68be f5db 9bbe 2634 293e
00000070: 6e9e 333e ea46 21be c61a acbe 987e fdbd
00000080: 388e 16bd 560f 65be e201 9abe 3f94 893e
00000090: c204 6d3e 001a 92be ff0b aabe 20bb 84bc
000000a0: 7d2e a3be 8068 883b 309d 9b3c c0a7 b43d
000000b0: ee49 783e 7ecf 283e b27e 173e fab7 6abe
000000c0: d07c bb3d 3816 aabe 9624 233e c04f bdbb
000000d0: 589f 073e 9133 32be 1d51 1fbe 6d98 973e
000000e0: 1063 61bd d80a 6dbe e06a b33d ace5 91be
000000f0: d6ef 763e ad0c 0cbe 81a6 9bbe 1847 0f3e
0.088243276 -0.04944074 0.15105519 -0.0364092 0.34816328 -0.19482666 0.10717952 0.25965014
-0.30661255 0.05202502 -0.1973559 0.26268128 -0.114555344 0.3464878 0.2212995 -0.33048788
-0.118334815 0.17653057 0.27670023 -0.17881753 -0.26275468 -0.27304494 -0.26258653 -0.091355056
-0.14985606 -0.22684997 -0.3044125 0.165238 0.17540905 -0.15749708 -0.33614177 -0.123776615
-0.036756724 -0.22369131 -0.3007956 0.26870915 0.23146346 -0.2853546 -0.33212277 -0.01620251
-0.31871405 0.004162848 0.018995851 0.08821058 0.24246952 0.16485402 0.14794424 -0.22921744
0.091546655 -0.33220077 0.15931925 -0.005777329 0.13244379 -0.17402484 -0.15558286 0.2960848
-0.055026114 -0.23148668 0.08760619 -0.28495538 0.24114928 -0.1367671 -0.3040047 0.13991964

l3_3.bias f4 [8]
00000000: 66f1 acbe 70c6 183d 5b73 18be 8244 393e
00000010: 7a28 1c3e dac4 4ebe 2361 48be 10b9 88bc
-0.33777922 0.03729862 -0.14887755 0.1809254 0.15249816 -0.2019228 -0.19568305 -0.016689807

l3_4.weight f4 [1, 8]
00000000: 81fd 913c a6ff 0c3e 6ffc dc3c 2821 17be
00000010: 458f e33e 93d8 7e3d a464 a1bd bcac 303c
0.017821075 0.13769397 0.026975838 -0.14758742 0.44445243 0.06221826 -0.07880524 0.010783371

exp_avg f4 [8, 6]
00000000: e239 8338 7375 8d38 e69c 04b9 2948 9338
00000010: 436b d836 8386 8d38 a4c2 153b 1c9c 8538
00000020: 0017 6a39 391c 89b8 46fa ec39 aaa9 b7b8
00000030: 9e63 5f3d 5001 5939 3aa9 083c 5295 55bb
00000040: 8180 423c 0214 80bb e8d9 37bc 7dc5 c237
00000050: 8fe6 e8ba 87fd 383a bc08 14bb 1c4d 4d3a
00000060: 57f2 a1be f284 cfba 350d 44bd ed6f 983c
00000070: 0d5e 8ebd 5c2d b93c 8644 08b7 f621 8238
00000080: 3f0a 08b9 5a6b 9638 766a 7eb7 3666 9038
00000090: e2aa 03bd 1d1c 62b9 c3a9 9cbb 73b4 f13a
000000a0: 6fab e9bb 83ef 143b 9585 27b9 fd47 7d38
000000b0: 6ef0 1ab9 c9b9 a238 05aa 29b8 8b14 9e38
6.257348e-05 6.7452806e-05 -0.0001264695 7.022947e-05 6.4497885e-06 6.748459e-05 0.002285161 6.371012e-05
0.00022324547 -6.537926e-05 0.00045199896 -8.7577224e-05 0.05453836 0.00020695222 0.008341128 -0.0032590223
0.011871458 -0.003908635 -0.0112213865 2.3218565e-05 -0.0017768907 0.00070568215 -0.0022588214 0.00078316196
-0.31630203 -0.0015832467 -0.047864158 0.018608058 -0.069515325 0.022604637 -8.122186e-06 6.205209e-05
-0.00012973788 7.172553e-05 -1.5164367e-05 6.885493e-05 -0.03214539 -0.00021563513 -0.0047809794 0.0018440619
-0.007131032 0.0022725768 -0.00015976124 6.0386945e-05 -0.00014776152 7.759367e-05 -4.0451083e-05 7.5378535e-05

exp_avg_sq f4 [8, 6]
00000000: e8a6 aa39 a11c ad37 e40a 8a38 56f3 9037
00000010: 9975 0238 dce6 ce38 b79b d939 be8d dd37
00000020: 7cea ae38 10fa b537 adfe 2138 d99c e538
00000030: bee7 053f a7d4 e93c c411 b33d c9b9 c33c
00000040: 03b7 2a3d d643 ba3d 31fb a53c 4491 923a
00000050: ad51 653b bf9c 743a 4fda d93a bc96 983b
00000060: 6c6b 8c41 95d9 743f 0bb5 3b40 a6dc 4c3f
00000070: 031f b33f 886a 4640 ea12 d239 00ea dc37
00000080: f88b ae38 e2bc b437 fb83 2438 7ccd db38
00000090: 735a 433e c0c9 303c 89b8 063d c431 143c
000000a0: 8384 803c 34f9 043d c8e2 b939 b7e6 c137
000000b0: e792 9838 20fa 9e37 8d83 1038 818e b338
0.00032549282 2.0636538e-05 6.582381e-05 1.727945e-05 3.1103937e-05 9.8658464e-05 0.00041505482 2.6411257e-05
8.340643e-05 2.1693326e-05 3.8622577e-05 0.00010948786 0.52306736 0.028543783 0.08743623 0.0238923
0.04167844 0.0909497 0.020261379 0.0011182209 0.003499131 0.00093312183 0.0016620847 0.004656641
17.552452 0.95644504 2.932925 0.8002418 1.3993839 3.1002522 0.00040068413 2.6335008e-05
8.323038e-05 2.1545628e-05 3.9223563e-05 0.00010481008 0.19077472 0.010790288 0.03289083 0.009045068
0.015688187 0.03246422 0.00035454915 2.3114828e-05 7.2752875e-05 1.8951541e-05 3.445479e-05 8.5619286e-05

exp_avg f4 [8]
00000000: aaf5 01b9 4e7f f5b8 d05c c7b9 f8f0 32b8
00000010: a0a6 3e3b bf1b efb8 48ba cf39 24b1 e8b8
-0.00012393916 -0.00011706223 -0.00038025388 -4.2662927e-05 0.0029091015 -0.00011401576 0.00039620907 -0.00011095617

exp_avg_sq f4 [8]
00000000: 851c 9238 6dff ba38 155c c53d fd69 773b
00000010: fba8 4e40 2475 ba38 c436 153d 6fa8 a338
6.967135e-05 8.916748e-05 0.09636704 0.0037752383 3.2290637 8.89099e-05 0.03642918 7.803819e-05

exp_avg f4 [8, 8]
00000000: da74 4c3b 4cc1 e03b 771f a43a 7f3f 17bc
00000010: 5e94 36bc 4abf 773b 962a 17bc 8d16 2e3b
00000020: 2849 1d3a dcb5 ac3a e43b 3739 e24a e8ba
00000030: b3fc 0bbb 157f 3e3a 42ba e9ba d9d6 053a
00000040: 38d0 3aba b329 ceba cc8c 91b9 529d 0b3b
00000050: d65d 283b 60e7 62ba 8beb 0a3b 9718 1fba
00000060: 73db b8ba 7065 4bbb 6a6d 0fba fe18 893b
00000070: ca6d a53b f51f e0ba 29f2 883b 9065 9dba
00000080: 2361 9d3a c4f1 2c3b d42d ea39 1baf 68bb
00000090: b762 8cbb b5ac be3a cdfe 68bb 14fc 853a
000000a0: 3be7 843b ac1d 123c f871 d73a 9bb0 44bc
000000b0: aa71 6dbc c80d a13b f883 44bc 9954 623b
000000c0: d1e1 89bb 97ad 17bc a539 e6ba ca58 4c3c
000000d0: 8ab4 763c 5324 a7bb e8e3 4b3c bcd4 6abb
000000e0: 2bc2 7aba 84e5 09bb 12b7 b7b9 7eca 393b
000000f0: 4e20 603b bbfb 97ba 95e2 393b 0e7d 55ba
0.0031197579 0.0068589803 0.0012521584 -0.009231447 -0.011143772 0.0037803226 -0.009226462 0.0026563734
0.0005999976 0.0013176757 0.00017474551 -0.0017722512 -0.0021360337 0.00072668615 -0.0017831998 0.0005105562
-0.0007126364 -0.001572898 -0.00027761457 0.0021303487 0.0025690696 -0.00086556934 0.0021197523 -0.0006069033
-0.0014103487 -0.0031035803 -0.0005471321 0.0041838875 0.0050484883 -0.0017099368 0.0041792584 -0.0012008417
0.0012007098 0.002638922 0.00044666103 -0.0035504762 -0.0042842287 0.001454732 -0.0035552264 0.001022222
0.004055885 0.008918207 0.0016437164 -0.012004997 -0.014492432 0.004914973 -0.011994354 0.0034535287
-0.0042078276 -0.009257696 -0.0017564787 0.012472341 0.015057692 -0.0051007657 0.012444474 -0.0035832366
-0.00095656764 -0.0021041343 -0.00035040878 0.0028349455 0.0034198943 -0.0011595407 0.0028363813 -0.000814394

exp_avg_sq f4 [8, 8]
00000000: 0b6a 3239 20fe 083a 6eeb 803d d47e 033b
00000010: cefb 643b e31a 7d39 9ca2 1a3c 7a81 5939
00000020: ea17 db36 6876 ac37 8d1c 213b 7ad5 a638
00000030: d43e 0f39 9de8 1837 ac33 c339 cd78 0337
00000040: e4da 2a37 9d99 0738 c996 753b 6f79 fe38
00000050: 2e5d 5c39 c32c 7537 6dfa 133a 414a 5137
00000060: cba7 1738 66cb ec38 e337 5b3c c75a e139
00000070: 459f 433a d2a5 5738 61b1 033b 22b2 3838
00000080: e714 d537 8fb5 a538 b709 193c eee6 9c39
00000090: e79b 083a 9c76 1838 9dec b63a 7368 0238
000000a0: ffd1 9639 0d4f 673a 794f da3d b091 5e3b
000000b0: 43bb c13b e594 d539 7b0c 833c e1ad b739
000000c0: fcaf a439 fe80 7d3a f3b8 ed3d 4ab4 723b
000000d0: ad57 d33b cde2 e939 af8e 8e3c 85d9 c839
000000e0: bb88 8c37 b292 5c38 c507 ca3b b00e 5039
000000f0: b4b8 b439 d83d c937 f916 723a c2f1 ab37
0.00017014907 0.0005225856 0.06294905 0.002006461 0.0034940126 0.00024137976 0.009438183 0.00020742966
6.5294926e-06 2.0559135e-05 0.0024583668 7.95526e-05 0.00013660948 9.1140655e-06 0.00037231797 7.836335e-06
1.0183754e-05 3.232957e-05 0.0037473908 0.000121342826 0.00021015547 1.461356e-05 0.00056449213 1.2474659e-05
3.6157475e-05 0.00011291243 0.013380024 0.0004298298 0.00074623927 5.1414427e-05 0.002009474 4.4034918e-05
2.5401312e-05 7.901631e-05 0.009340695 0.00029926695 0.00052112195 3.6350088e-05 0.0013956014 3.109169e-05
0.0002876669 0.000882373 0.106596895 0.0033961348 0.005912216 0.0004073746 0.015997162 0.0003503403
0.00031411636 0.00096704054 0.11607542 0.003703373 0.0064496608 0.00044610203 0.017402021 0.00038309037
1.675297e-05 5.2588708e-05 0.006165477 0.00019841897 0.0003446989 2.3989865e-05 0.00092349906 2.0497366e-05

exp_avg f4 [8]
00000000: a4bc b539 004a 6a36 5eb6 08b9 00f3 31b9
00000010: b05a cc38 d021 f839 8445 18ba 6863 bdb8
0.00034663558 3.491179e-06 -0.00013037908 -0.0001697056 9.74437e-05 0.00047327438 -0.00058086985 -9.030738e-05

exp_avg_sq f4 [8]
00000000: 7367 3b3d 75c1 eb3a d0a2 393b 04e8 213c
00000010: e2af e23b 6f36 9e3d 234c ad3d bad5 963b
0.045752954 0.0017986732 0.0028325804 0.009881977 0.0069179395 0.07725226 0.084617876 0.004603115

exp_avg f4 [1, 8]
00000000: b8a8 49bd 2c76 0bbd 1b9b 093d 0c09 3c3d
00000010: a116 2ebd 902f 77bd bd2c 303d ea96 1b3d
-0.04923317 -0.034048244 0.033595186 0.045907065 -0.04250205 -0.060348094 0.043011416 0.03798572

exp_avg_sq f4 [1, 8]
00000000: e7a9 9b3e 7683 d93c 4869 003d 0f81 4c3d
00000010: 05d5 763e 33aa 703e 446a de3d ad51 a33d
0.30403063 0.026551943 0.031350404 0.049927767 0.24104698 0.23502426 0.10860112 0.07974563

exp_avg f4 [8, 6]
00000000: 5c90 283c ed63 6ebb 0548 da3b aa28 94bb
00000010: 8a4c a1bb e1fd 913a fafa f5bb 185c 283b
00000020: 7c0d 9bbb 9612 523b c7a3 643b 5356 5aba
00000030: 45e7 683e 3406 90bd a0c0 073e dd5a babd
00000040: b25c c8bd 036c 023d 3ea7 23bb 4493 7c3a
00000050: f521 e3ba ec0e 983a 8556 a73a 4228 40b9
00000060: 02d4 f8bd f67e 173d 2d52 8fbd 3325 453d
00000070: f885 533d af08 8fbc 0c24 a6ba 1de6 4e3a
00000080: faf2 abba 9f4c 5a3a 2b10 7a3a ba9b 1739
00000090: c4a4 c03d ed62 efbc d371 613d fbd7 1abd
000000a0: 8e6b 26bd f264 573c 9536 9b3b ba31 d9ba
000000b0: 5298 463b a8b4 04bb 0677 12bb a204 f939
0.010288324 -0.0036375478 0.0066614174 -0.004521449 -0.0049224542 0.0011138284 -0.0075067254 0.0025689658
-0.004731832 0.0032054535 0.0034887658 -0.00083289034 0.22744472 -0.07032433 0.13257074 -0.09099362
-0.09783305 0.03184129 -0.002497151 0.00096349814 -0.0017328846 0.0011601127 0.0012766874 -0.00018325544
-0.12149812 0.036986314 -0.06998096 0.04813118 0.051641434 -0.017460195 -0.0012675538 0.0007892566
-0.0013118677 0.00083274575 0.00095391524 0.00014458495 0.094064265 -0.029221976 0.05504019 -0.03780363
-0.040629916 0.013146626 0.0047367313 -0.0016570606 0.0030303192 -0.002024928 -0.0022348776 0.00047496433

exp_avg_sq f4 [8, 6]
00000000: c025 953c c6a6 b63a 3d6c 7a3b 34b3 9e3a
00000010: 135c e83a a93c 1c3b e2a2 703b 71a7 7939
00000020: 6654 313a a32f 4639 e87b a339 0bb9 7239
00000030: 86a3 8141 231e a13f b2f5 5c40 5cb9 8c3f
00000040: a94a cc3f db7b 2140 c188 e93a 4354 0639
00000050: 2760 be39 147b dc38 8837 2c39 2698 6739
00000060: 3c65 9240 3191 b53e 550e 793f 7f1a 9e3e
00000070: e34d e63e 1d93 363f b88a 563a aa94 8b38
00000080: 7e4f 3b39 1476 7d38 9ddd ad38 9f65 3c39
00000090: 8642 3440 963e 5e3e b37b 183f 4a23 423e
000000a0: cfe4 8c3e 51eb dd3e 766d e33a 1672 1039
000000b0: 4931 ca39 1881 f538 c8ef 3839 90c8 3439
0.018206477 0.00139352 0.0038211488 0.001210785 0.0017727636 0.0023839867 0.003671818 0.00023808867
0.00067645905 0.00018900498 0.000311821 0.00023147852 16.204845 1.2587322 3.452496 1.0994067
1.5960284 2.5231845 0.0017817245 0.00012810626 0.00036311263 0.000105133426 0.00016423885 0.00022086556
4.5748577 0.35462335 0.97287494 0.3087959 0.44981298 0.7131823 0.0008184123 6.655727e-05
0.00017863323 6.042987e-05 8.2905615e-05 0.00017966934 2.8165603 0.21703562 0.5956375 0.18958774
0.27518317 0.43343595 0.0017351347 0.0001377541 0.00038565163 0.00011706556 0.00017636933 0.00017240853

exp_avg f4 [8]
00000000: fb02 db3b 7bac 9abb 0451 043e 200b e8ba
00000010: 4e2e 8bbd 7d14 beba 3fed 5b3d e089 473b
0.006683705 -0.0047202683 0.1292153 -0.0017703511 -0.06795941 -0.0014501956 0.053693052 0.003044717

exp_avg_sq f4 [8]
00000000: be29 9a3b fab6 523a d4fc 8740 37c1 e239
00000010: 723f 993f b59e 6b39 8994 3b3f 0fd5 f339
0.004704683 0.000803813 4.249613 0.00043250035 1.1972487 0.0002247047 0.7327352 0.00046507313

exp_avg f4 [8, 8]
00000000: 9eed c7bb fdc1 c13b 8aa5 5abb 2fb9 ad3b
00000010: 0a04 ea3b 6194 60bb ebeb 2f3c 2eb1 3fbb
00000020: 7133 ee3b e9fe e6bb 373c 823b d31e cfbb
00000030: 36b3 0bbc 45f2 853b 20fe 51bc ed8d 643b
00000040: 9491 cf3b e6bd c9bb 4e19 633b 7ff3 b4bb
00000050: 20b0 f5bb e582 6a3b 4ce7 37bc 979b 473b
00000060: 6f3b 69bb 41cc 623b 5e75 ffba 8074 4b3b
00000070: 1c64 8a3b 8ae4 03bb cec3 ce3b 475d e0ba
00000080: 5e8c 64bb 3f48 5e3b 2e43 faba b76d 473b
00000090: 53d1 873b 4f55 01bb ec83 ca3b bade dbba
000000a0: 42a0 9c3b c2d2 97bb 5e4c 2b3b 5224 88bb
000000b0: 529e b7bb ac0f 303b 1fc7 09bc a12f 163b
000000c0: 02b0 55bb 8f4c 503b 0a2c eaba d7ec 3a3b
000000d0: 5b05 803b d0db f2ba c37a be3b 6210 ceba
000000e0: 053b 1f39 a079 0cb9 059f ae38 2116 f8b8
000000f0: 6d87 f0b8 a69b 8f38 32de 5ab9 7720 8a38
-0.006101324 0.005913018 -0.003336283 0.0053016166 0.007141595 -0.0034268128 0.0107374 -0.0029249894
0.007269316 -0.0070494306 0.0039744633 -0.006320813 -0.008526614 0.0040877187 -0.012816936 0.0034874633
0.006334493 -0.006156671 0.0034652534 -0.005522191 -0.0074978024 0.0035783586 -0.011224579 0.003045773
-0.0035588404 0.0034606608 -0.0019489934 0.0031044781 0.0042233597 -0.0020125234 0.006309963 -0.0017117643
-0.0034873704 0.0033917574 -0.0019093507 0.0030430385 0.0041448264 -0.0019734686 0.006180277 -0.0016774752
0.0047798464 -0.0046332786 0.0026138048 -0.0041547203 -0.00560359 0.002686481 -0.008409291 0.0022916573
-0.003260613 0.0031783914 -0.0017865908 0.0028522515 0.0039068884 -0.0018528644 0.005812974 -0.0015721435
0.00015185408 -0.0001339675 8.326586e-05 -0.00011829683 -0.00011469317 6.847763e-05 -0.00020872874 6.5864e-05

exp_avg_sq f4 [8, 8]
00000000: a1f5 c53b 5219 aa3a 0338 0f3d 0c0f c63a
00000010: 810c bf3c 4f82 d539 72dc bc3d 6bed 033a
00000020: 64b8 0e3c 9df5 f43a 1890 4e3d e197 0e3b
00000030: cc88 093d 78a1 193a e130 083e d4c1 3d3a
00000040: a287 da3b fbab bb3a 9409 1e3d b646 da3a
00000050: 26bc d23c 4ee5 ea39 33e0 d03d 35af 113a
00000060: f9b5 053b 2635 e639 9aff 413c befb 053a
00000070: 374c 013c 4490 1039 a304 ff3c a882 3239
00000080: 3250 023b 0220 e039 4b9e 3c3c e46f 023a
00000090: f258 fc3b e394 0c39 1b38 f93c 4049 2e39
000000a0: 6d5d 753b 609c 523a 2382 b13c 206a 753a
000000b0: 6a28 6d3c 5355 8439 8a56 6a3d 6d78 a339
000000c0: 4ccf e33a 9702 c439 245a 253c 5eed e339
000000d0: 2013 dc3b 56a5 f538 ba85 d93c 6bda 1739
000000e0: 3942 bc35 9af7 b334 f1a9 8936 c3db ba34
000000f0: 3cdd 9636 49b8 a933 fcdd a437 c8f6 1634
0.006041244 0.0012977517 0.034965526 0.0015110685 0.023321392 0.00040723613 0.09221734 0.00050326315
0.008710954 0.0018688921 0.050430387 0.0021758007 0.033577725 0.00058605475 0.13299896 0.00072386605
0.0066690007 0.0014318222 0.038583353 0.0016653154 0.025724482 0.00044802803 0.101990126 0.0005557419
0.0020402654 0.00043908617 0.011840725 0.000511106 0.007891706 0.00013786653 0.03113014 0.00017024076
0.0019884226 0.00042748457 0.011512349 0.00049757794 0.007701033 0.00013406905 0.030422261 0.00016621221
0.003743972 0.0008034166 0.0216685 0.0009361822 0.0144749675 0.00025240573 0.057211436 0.00031179507
0.0017380505 0.00037385963 0.010092292 0.00043473666 0.006716147 0.000117133066 0.026553024 0.00014481849
1.4026365e-06 3.3521502e-07 4.102702e-06 3.4805097e-07 4.4961034e-06 7.903197e-08 1.9653693e-05 1.4059617e-07

exp_avg f4 [8]
00000000: 74cb e2bc 2923 073d 8c4b eb3c 6416 84bc
00000010: 1b4e 81bc 7983 b13c dad0 71bc b5de 383a
-0.027684905 0.032992516 0.028722547 -0.016123958 -0.015784314 0.021669136 -0.014759267 0.0007052229

exp_avg_sq f4 [8]
00000000: 16b2 4b3e 27a2 923e 89dd 5f3e e0ff 893d
00000010: bce5 853d 3364 fc3d b95f 6a3d 3b66 1e38
0.19892153 0.28639337 0.21861853 0.067382574 0.06537959 0.12323799 0.057220194 3.7765345e-05

exp_avg f4 [1, 8]
00000000: 5a60 2c3c 2089 6539 aae5 863c 1817 3a3b
00000010: fb9d 85bc c450 423c 2ef9 44bc 2ea3 01bb
0.010521019 0.00021890225 0.016466934 0.0028395113 -0.016310683 0.011860076 -0.0120223 -0.00197811

exp_avg_sq f4 [1, 8]
00000000: 11fb 413e 7412 263e 82ab bd3e 74c6 e93d
00000010: c156 b83e 008c 903e 3ec3 493e d322 0b3a
0.1894343 0.16217977 0.37044913 0.11414805 0.36003688 0.28231812 0.19703385 0.00053076184

exp_avg f4 [8, 6]
00000000: 97d4 a63d f19c a4bc 048f 0b3d 1ba9 7dbc
00000010: 0105 c1bc 727b dfbc ae62 67b8 1fe2 9438
00000020: 650e e9b8 e297 8538 f384 a738 8538 6738
00000030: 5ae8 a6bc 0cd0 a63b 9d41 0dbc a6da 803b
00000040: 547d c33b 04f1 e03b e859 d7bc 385d d63b
00000050: ee95 35bc 5773 a53b 863f fb3b edd7 103c
00000060: f5bb c73c a6f2 c5bb 88c8 273c 78a8 98bb
00000070: a310 e8bb c6f4 05bc db30 3abd 98b4 373c
00000080: e0bc 9bbc c88a 0d3c d165 573c 766c 793c
00000090: 81e9 af3d 61f6 acbc d0aa 123d 7629 85bc
000000a0: 28db cabc cb76 ebbc 8745 86bc 6027 823b
000000b0: 13dd dcbb adc3 473b 78cd 983b c56d b33b
0.08146017 -0.020094367 0.034071937 -0.015482212 -0.023561956 -0.027280543 -5.5166594e-05 7.099308e-05
-0.00011112987 6.3702246e-05 7.987944e-05 5.512733e-05 -0.020374466 0.005090719 -0.0086216 0.003932315
0.005965868 0.006864669 -0.026287988 0.0065418743 -0.011083109 0.00504915 0.0076674847 0.008840543
0.024381617 -0.006040889 0.0102406815 -0.004658755 -0.0070820614 -0.008176034 -0.04545675 0.0112124905
-0.019010961 0.008639045 0.0131468335 0.015223613 0.08589459 -0.021113576 0.03580743 -0.016255122
-0.024762705 -0.028743168 -0.016390575 0.003971979 -0.0067402213 0.0030481622 0.0046631657 0.005475732

exp_avg_sq f4 [8, 6]
00000000: aee3 fb40 7876 fa3c ba20 b33d f851 f23c
00000010: 2e2a 0e3d f8b1 4d3d a048 3b3c 305d e537
00000020: 779a ad38 57e0 e037 7b88 0038 4d41 1e38
00000030: ffde 0e3f cbdc fd3a ca74 b83b 23f6 f53a
00000040: 87fa 0f3b 2aed 3e3b 1036 7b3f 7b0e 5e3b
00000050: 058f 213c f42c 573b fbc3 7b3b 3d5b a43b
00000060: c056 513f 2f2f 523b 2b3e 163c d35f 4b3b
00000070: ef84 6e3b b434 b13b 54ba 0d40 509f 133c
00000080: a26a d23c 18b0 0e3c 7d01 283c f7b6 733c
00000090: 5261 ff40 0d7b 023d 5f17 ba3d c252 fc3c
000000a0: f04a 143d 4f98 563d 44fb 543e 05e0 633a
000000b0: 9779 223b fbc7 5b3a 9452 823a 1cc1 ab3a
7.871543 0.030574068 0.087464765 0.029580101 0.034708194 0.050218552 0.011430889 2.7342321e-05
8.278054e-05 2.6807347e-05 3.0644685e-05 3.773095e-05 0.55809015 0.001936817 0.0056291567 0.0018765371
0.0021969394 0.002913306 0.9812937 0.0033883143 0.009860759 0.003283319 0.0038416374 0.0050157593
0.81772995 0.003207158 0.009170095 0.0031032457 0.0036395153 0.005407894 2.2144976 0.009010151
0.025685612 0.008708976 0.010254261 0.014875165 7.98063 0.03185563 0.09086489 0.03080118
0.03620428 0.052391347 0.20798975 0.00086927443 0.0024791711 0.00083839864 0.0009942823 0.0013103816

exp_avg f4 [8]
00000000: 4b3b 173d d2c7 08b9 a140 19bc 3df0 44bc
00000010: 4cdb 353c a3c5 a8bc fae6 1e3d af25 efbb
0.03692178 -0.0001304441 -0.009353788 -0.012020168 0.011099648 -0.020602053 0.038794495 -0.0072981934

exp_avg_sq f4 [8]
00000000: c665 d33d 2197 c138 6b44 d63b 056c 3b3c
00000010: c266 313c da31 f93c 4342 dc3d 4a55 403b
0.10322146 9.231107e-05 0.006538918 0.011439328 0.010827722 0.030419279 0.10754826 0.0029347711

exp_avg f4 [8, 8]
00000000: 71b1 0d3a 8647 bd38 2799 0dba 38cd 82ba
00000010: 2f73 d539 6b40 0eba d45d 9e3a 2df2 58ba
00000020: 8087 8c3b 6275 373a 825e 8cbb 06f0 00bc
00000030: ad76 533b 62b6 8bbb f677 1b3c 97b7 d4bb
00000040: 41f6 5d3a 841f 0e39 5937 5bba c2d2 c7ba
00000050: 05f6 263a 372c 58ba a1d1 ef3a b92f a3ba
00000060: ad60 97bb 0e56 44ba 36f3 963b 9b5b 0a3c
00000070: 56c0 63bb e8c3 953b 0d95 26bc eeac e33b
00000080: 2012 673c f34e 133b f6bd 65bc d870 d1bc
00000090: e8bf 2d3c 76fd 61bc cd30 fb3c 473c abbc
000000a0: e340 f73a 1fdf a639 9f6c f8ba 6c9a 66bb
000000b0: 7034 ba3a e361 fbba fe0f 8c3b 8785 40bb
000000c0: cec5 20bb 53b3 d1b9 3e3f 203b 0518 933b
000000d0: dcef f1ba 7070 1f3b 7950 b1bb 586c 723b
000000e0: e5a3 a539 4920 6738 5df7 a8b9 1c23 1eba
000000f0: 900b 7a39 c223 acb9 90ef 403a 7222 05ba
0.0005405164 9.0255446e-05 -0.00054015446 -0.0009979373 0.00040712344 -0.0005426469 0.0012082406 -0.0008275833
0.004288614 0.00069983874 -0.004283727 -0.007869726 0.0032266781 -0.004263685 0.00948905 -0.006491612
0.00084671756 0.00013553916 -0.00083624345 -0.0015245306 0.0006369057 -0.00082463346 0.0018296727 -0.0012450136
-0.004619679 -0.000748963 0.0046066297 0.008444692 -0.0034752092 0.004570473 -0.010167372 0.006948105
0.014103442 0.0022477477 -0.014022341 -0.025566503 0.010604836 -0.01379334 0.030662918 -0.020902766
0.0018863942 0.00031828225 -0.001895327 -0.0035187257 0.0014206301 -0.0019178953 0.0042743674 -0.0029376463
-0.0024531963 -0.00039997193 0.0024451758 0.0044889473 -0.0018458324 0.0024328493 -0.0054112044 0.0036990847
0.00031593363 5.510476e-05 -0.00032227757 -0.00060324534 0.00023846165 -0.00032833038 0.00073599163 -0.000507868

exp_avg_sq f4 [8, 8]
00000000: 85a3 e938 0482 5537 2545 db38 e5d7 dc38
00000010: dd5e 8538 a769 d937 c2d2 ca37 080e f336
00000020: 858a 8c3c 57a3 e13a 1486 803c 8f0a 833c
00000030: b1c2 213c f62c 793b ddc5 7e3b e338 9a3a
00000040: 7251 b738 7129 9b37 2977 6539 21d7 6b39
00000050: 5023 4d38 a947 1438 ecfb 8d37 3e1e 7537
00000060: dd8a a23c ff23 ff3a eed9 913c 5ea0 943c
00000070: bc1f 3b3c bd9f 8e3b 736b 933b 250d b13a
00000080: 7f1c 513e d08b 953c ebec 323e 259f 363e
00000090: 0194 f03d d181 313d 24e5 3d3d c78a 583c
000000a0: 7383 403b 0133 c039 ae88 3e3b 474f 413b
000000b0: b608 de3a 36b8 353a 3102 2e3a 47c9 6739
000000c0: 59c0 9d3b 354f 063a e76e 8a3b c229 8c3b
000000d0: 6812 363b 92c9 8a3a 413d 8f3a 3469 b239
000000e0: 0be8 be38 299a 0f37 afdf 8838 7d78 8c38
000000f0: 58aa 5c38 19ef a037 ae23 ae37 27fa 4e36
0.00011140764 1.2726061e-05 0.00010455613 0.00010530631 6.359604e-05 2.5917614e-05 2.4178418e-05 7.243598e-06
0.017155895 0.0017214817 0.015688933 0.015996246 0.009873078 0.0038021184 0.003887526 0.0011766221
8.7412904e-05 1.8496738e-05 0.00021883532 0.00022491488 4.8908696e-05 3.535269e-05 1.692582e-05 1.4610179e-05
0.019841606 0.0019465684 0.017804112 0.018142875 0.01142114 0.0043525384 0.004498893 0.0013507946
0.20421027 0.018255144 0.1747319 0.17834146 0.117469795 0.043336693 0.046361104 0.013216681
0.0029375225 0.00036659095 0.0029073167 0.0029496716 0.0016939852 0.00069320516 0.00066379 0.00022104858
0.0048141894 0.0005123497 0.0042246464 0.004277439 0.0027781967 0.0010588637 0.0010928289 0.00034029188
9.1031274e-05 8.559357e-06 6.52665e-05 6.698163e-05 5.2610732e-05 1.9184825e-05 2.0759031e-05 3.0842e-06

exp_avg f4 [8]
00000000: c563 b2ba 2c5e 2ebc eb36 05bb f571 3a3c
00000010: eee7 0bbd 5381 9ebb 699d c63b 390b 5dba
-0.0013610056 -0.0106425695 -0.0020326923 0.011379709 -0.034156732 -0.004837194 0.006061245 -0.0008432153

exp_avg_sq f4 [8]
00000000: 4730 6a38 b689 0d3c a98a db38 a67b 223c
00000010: 7d0b c83d 3014 d13a 5dad 213b 2357 e037
5.583491e-05 0.00863879 0.00010468561 0.009917175 0.09767816 0.0015951451 0.0024669983 2.6743457e-05

exp_avg f4 [1, 8]
00000000: b651 afbb ae22 9dbd 8c49 48bc 4f74 af3d
00000010: 35ca 8fbd 314c 0bbd b209 5f3d e648 3cba
-0.005350317 -0.0767263 -0.012224566 0.08567106 -0.0702099 -0.03400821 0.054452606 -0.00071824936

exp_avg_sq f4 [1, 8]
00000000: 545d f33b 3c1e 1f40 1e2a fe3b 52c7 cc3f
00000010: dfa3 0d40 b28d 763e 44cc 8a3e ce01 cf3b
0.007426897 2.4862204 0.0077564856 1.5998328 2.213127 0.2407749 0.27108967 0.006317354
