trained_models/binaries/model_time.struct_time(tm_year=2023, tm_mon=3, tm_mday=22, tm_hour=22, tm_min=42, tm_sec=18, tm_wday=2, tm_yday=81, tm_isdst=0).pth (torch, 26043 bytes, 51 tensors)

l1_1.weight f4 [8, 6]
0	0x3e8a8a55	0.27058664
1	0xbe30a230	-0.1724937
2	0x3e1e2b71	0.15446259
3	0x3c805035	0.015663246
4	0xbf416908	-0.7555089
5	0xbdf063db	-0.11737796
6	0xbec44ce4	-0.38339913
7	0xbec8c029	-0.39209107
8	0xbe5ae97c	-0.2137813
9	0x3f40eb3a	0.7535893
10	0x3ec074b8	0.3758905
11	0x3e387d8d	0.18016644
12	0x3e39aaf4	0.1813162
13	0x3dec8277	0.11548322
14	0x3e555eee	0.20836994
15	0xbdbab184	-0.0911589
16	0x3fad3e07	1.3534554
17	0x3f0b64ea	0.5445086
18	0x3bc83e87	0.0061109695
19	0x3e68f4fe	0.22749707
20	0x3e31f6c5	0.17379291
21	0x3e20761f	0.1567006
22	0xbf82cc22	-1.0218546
23	0xbe16ba20	-0.14719439
24	0x3e882c1b	0.2659615
25	0x3d163c62	0.03667868
26	0xbd6bf1a2	-0.057603486
27	0x3d18c2a8	0.037295014
28	0xbfa211dd	-1.2661701
29	0x3ef22aa1	0.47298148
30	0x3ddce81d	0.107864596
31	0x3ea018fc	0.31269062
32	0xbe284336	-0.16431889
33	0x3e653779	0.22384442
34	0xbf976c48	-1.182992
35	0xbe943f66	-0.2895462
36	0x3e97ed71	0.2967334
37	0xbee0eb48	-0.43929505
38	0x3e30a985	0.17252167
39	0x3efae2f8	0.49001288
40	0x3fa65d58	1.2997236
41	0x3e8c032c	0.2734617
42	0xbb6b69d0	-0.0035921223
43	0x3e45d715	0.19320329
44	0xbe68a0b7	-0.22717558
45	0x3e7b9936	0.24570164
46	0xbfb59779	-1.4186851
47	0x3c4902ad	0.012268704

l1_1.bias f4 [8]
0	0xbeefb36a	-0.4681657
1	0x3ec66c80	0.38754654
2	0x3e851373	0.259914
3	0xbef3ed93	-0.47642192
4	0xbe877494	-0.2645613
5	0x3d6c4ccd	0.05769043
6	0x3f111d08	0.56684923
7	0xbde7b875	-0.11314479

l1_2.weight f4 [8, 8]
0	0x3d406f47	0.046981122
1	0x3e037c5a	0.12840405
2	0xbe34039a	-0.17579499
3	0xbf02a87f	-0.51038355
4	0x3e325a71	0.17417313
5	0xbe82341c	-0.2543038
6	0x3ea466d3	0.321097
7	0xbf1593bc	-0.5842855
8	0x3e893745	0.2679998
9	0xbe87d17e	-0.26527017
10	0xbef1d45b	-0.47232327
11	0x3d145877	0.03621718
12	0x3e028ead	0.12749739
13	0x3dc692d0	0.09695971
14	0xbd9cdcdf	-0.07659315
15	0x3d46e4be	0.04855799
16	0x3c544652	0.012956219
17	0x3df9d914	0.121996075
18	0xbbea7d44	-0.007156046
19	0xbecc3bfc	-0.39889514
20	0xba69397f	-0.0008896812
21	0xbea0ec8e	-0.31430477
22	0xbc83e5f3	-0.01610086
23	0xbeed0e0c	-0.4629978
24	0xbe3f5bf7	-0.18687426
25	0x3e98fa6c	0.29878557
26	0x3eba42fd	0.36379233
27	0xbeddcf99	-0.43322447
28	0xbce701df	-0.028199134
29	0xbdae390f	-0.08506977
30	0x3de1a55c	0.11017868
31	0xbf3785f9	-0.716888
32	0xbe80bb97	-0.2514312
33	0x3d12dc7a	0.035854794
34	0x3e922115	0.28540865
35	0xbe81a49e	-0.25320905
36	0xbe94b451	-0.2904382
37	0xbe66ae6d	-0.22527476
38	0x3f17b03b	0.5925328
39	0xbe5af0e9	-0.21380962
40	0xbef5c854	-0.480044
41	0x3d72b4e9	0.05925456
42	0xbe2f5b1b	-0.17124598
43	0xbe41efae	-0.18939087
44	0x3e88ebc7	0.26742384
45	0xbd85ddca	-0.065364435
46	0x3e9aeffd	0.30261222
47	0xbf02d32c	-0.5110347
48	0xbf02f0d4	-0.51148725
49	0xbd61bd99	-0.055112455
50	0x3e9a5361	0.30141738
51	0xbecc27e8	-0.39874196
52	0xbc6afba9	-0.014342227
53	0xbc95dfb5	-0.018295148
54	0x3ed62644	0.4182607
55	0xbf29c7ff	-0.66320795
56	0xbbbb368e	-0.0057132905
57	0xbdc0b525	-0.094095506
58	0xbe0eee04	-0.13957983
59	0x3e4f0218	0.20215642
60	0x3e9eb0f8	0.3099439
61	0x3e32c2d4	0.17457134
62	0xbecabc8c	-0.39596975
63	0x3e975112	0.2955404

l1_2.bias f4 [8]
0	0x3f03c067	0.5146546
1	0xbf13438a	-0.5752493
2	0x3efd59ec	0.49482667
3	0xbcf783e2	-0.030214254
4	0x3ef795a5	0.48356357
5	0xbbc61548	-0.0060450174
6	0x3ecea9a7	0.4036381
7	0xbf1fd320	-0.62431526

l1_3.weight f4 [8, 8]
0	0x3d5170b0	0.051132858
1	0xbe63a80d	-0.22232075
2	0xbeb25093	-0.34827098
3	0xbeb3ab20	-0.35091496
4	0x3eabd24d	0.33558884
5	0xbdbc317c	-0.09189126
6	0xbdeba9c6	-0.11506991
7	0xbea569dd	-0.3230733
8	0x3e04711e	0.12933776
9	0xbd420c30	-0.047374904
10	0x3d7627e8	0.06009665
11	0x3ea83ee9	0.32860497
12	0x3ea98841	0.33111766
13	0xbe49e9d0	-0.19718099
14	0x3e8358b7	0.25653622
15	0xbea30064	-0.31836236
16	0x3e82e9ab	0.255689
17	0x3de462e0	0.111516714
18	0xbdf48414	-0.119392544
19	0x3e2d915a	0.16949978
20	0xbe5c88f4	-0.21536618
21	0xbe65cba3	-0.22440962
22	0x3da044c8	0.07825619
23	0xbe298067	-0.16552888
24	0xbd5a08d0	-0.05323106
25	0xbea7883e	-0.32721132
26	0xbd9a7c48	-0.07543236
27	0xbbd003c0	-0.0063481033
28	0x3eb4ad0d	0.35288277
29	0x3c5ebb20	0.013594419
30	0x3dcae3f0	0.09906757
31	0xbaecc500	-0.0018064082
32	0xbe6bd978	-0.23032176
33	0xbeb0b510	-0.3451314
34	0xbda0224c	-0.078190416
35	0x3df935c4	0.12168458
36	0xbe9901e3	-0.29884252
37	0x3eb021db	0.3440083
38	0x3d333198	0.04374847
39	0x3e4d8a72	0.20072344
40	0xbe8c960b	-0.27458224
41	0x3e08ef2a	0.13372484
42	0x3d742390	0.059604228
43	0x3d5f0458	0.054447502
44	0xbd7c5ef8	-0.061614007
45	0x3e9505a1	0.29105857
46	0xbe27aa93	-0.16373663
47	0xbe5367cc	-0.20645064
48	0x3e2388ba	0.15970126
49	0xbeadb584	-0.33927548
50	0xbe2b1c01	-0.16709901
51	0xbd462268	-0.048372656
52	0x3e8beab5	0.27327505
53	0x3e2da20a	0.16956344
54	0x3dd1fd70	0.102534175
55	0xbe9f4278	-0.311054
56	0xbe2acb51	-0.16679122
57	0xbe073baf	-0.13206361
58	0xbe9ae89e	-0.30255598
59	0x3d23efd8	0.040023655
60	0x3db1af3c	0.086760014
61	0x3e4b56ca	0.19857326
62	0x3e921833	0.28534088
63	0xbea3f711	-0.32024434

l1_3.bias f4 [8]
0	0x3e23b7f6	0.15988144
1	0x3e7dfaa6	0.24802646
2	0x3e2d5bfa	0.16929618
3	0x3d97ed00	0.07418251
4	0xbe401273	-0.18757038
5	0x3d8c3604	0.0684624
6	0x3e49481e	0.19656417
7	0x3ea3984d	0.31952134

l1_4.weight f4 [1, 8]
0	0x3e709333	0.23493652
1	0xbe7e8877	-0.24856745
2	0x3dc784b4	0.09742108
3	0x3f0d4301	0.55180365
4	0x3f13ba6c	0.5770633
5	0x3e41a6cf	0.18911289
6	0x3ee2bce5	0.4428474
7	0xbecb8df0	-0.39756727

l2_1.weight f4 [8, 6]
0	0xbd6c659d	-0.057714093
1	0xbd38cf5c	-0.04511963
2	0xbdcaa28f	-0.09894287
3	0xbf5560d9	-0.833509
4	0x3e98e79b	0.298642
5	0x3f1503c2	0.5820886
6	0xbd9b8b6b	-0.07594951
7	0xbe928907	-0.2862017
8	0x3df50980	0.119647026
9	0x3e8b07a8	0.2715428
10	0xbe620553	-0.22072344
11	0xbe0abc78	-0.13548458
12	0x3e3daac1	0.18522169
13	0x3e96f331	0.29482415
14	0xbc8a37f6	-0.016872387
15	0xbf3022da	-0.6880318
16	0x3f740a71	0.9532843
17	0x3e4a21f3	0.19739513
18	0x3e96b66d	0.29436055
19	0x3e0fe4b5	0.14052089
20	0x3e82ef02	0.25572973
21	0xbf8d85c9	-1.1056453
22	0x3f45ff60	0.77342796
23	0x3df23e9d	0.11828349
24	0xbece8048	-0.40332246
25	0xbecbf595	-0.39835802
26	0x3e10f3c9	0.14155497
27	0xbf422a6b	-0.75845975
28	0x3f701c86	0.93793523
29	0x3e1c06af	0.15236925
30	0xbe0ed74e	-0.1394932
31	0xbe121c80	-0.14268684
32	0x3def3a64	0.11681059
33	0x3dfbdc61	0.12297893
34	0xbe9b5d46	-0.303446
35	0x3c00b662	0.007855983
36	0x3c407bd1	0.01174827
37	0xbe8e3c82	-0.2778054
38	0x3edd08df	0.4317083
39	0xbfb3fd02	-1.4061587
40	0x3f560f97	0.8361754
41	0xbe2e1d94	-0.1700347
42	0xbc8684b7	-0.016420705
43	0xbec47176	-0.38367814
44	0x3dd3f6db	0.10349818
45	0x3f982914	1.1887536
46	0xbf232c14	-0.6373913
47	0xbf01cb8c	-0.5070121

l2_1.bias f4 [8]
0	0xbedfb720	-0.436944
1	0x3e6b1343	0.22956567
2	0x3e17c10e	0.14819738
3	0xbed4c06d	-0.4155306
4	0xbdbe9037	-0.093048505
5	0xbe9fa7f9	-0.3118284
6	0xbe5e6707	-0.2171899
7	0xbe29663d	-0.16542907

l2_2.weight f4 [8, 8]
0	0xbe87ff6f	-0.26562068
1	0x3ecf914b	0.40540537
2	0xbeaf155f	-0.34195992
3	0xbf43c1fb	-0.76467866
4	0xbe979c34	-0.2961136
5	0x3e34a864	0.17642361
6	0xbe8e5294	-0.27797377
7	0x3f0054ae	0.5012921
8	0x3e8581ac	0.26075494
9	0xbe70b037	-0.2350472
10	0x3e5167d4	0.20449764
11	0x3f1cc507	0.6123814
12	0x3f3b92fa	0.73271143
13	0x3db472ba	0.08810945
14	0x3e7740c0	0.24145794
15	0xbbf30926	-0.007416862
16	0xbe23137b	-0.159254
17	0xbdd0aa7c	-0.10188767
18	0xbe3daf57	-0.18523918
19	0xbe0c769b	-0.1371712
20	0xbd9ebf22	-0.077512994
21	0xbc23e44a	-0.010003159
22	0xbe943d44	-0.28952992
23	0xbe3a0451	-0.18165709
24	0x3e1f15ed	0.15535708
25	0x3eacf2a5	0.33778873
26	0xbeea01c0	-0.4570446
27	0x3ceacfc7	0.02866353
28	0xbd774dc4	-0.060376897
29	0x3e2f6f03	0.17132191
30	0xbe9d9dbd	-0.30784407
31	0xbc7add54	-0.015311558
32	0x3e521d6b	0.20519035
33	0x3dbfed72	0.09371461
34	0x3d9e28ae	0.07722603
35	0x3ecdc98a	0.40192825
36	0x3f0aca5d	0.5421503
37	0xbe49f002	-0.19720462
38	0x3e3e828c	0.18604487
39	0xbea98c0a	-0.33114654
40	0xbdfbd2df	-0.1229608
41	0x3d98f766	0.074690625
42	0x3e943642	0.28947645
43	0x3e8ec7d4	0.27886832
44	0x3efb9ef6	0.49144715
45	0x3ec3273e	0.38115877
46	0x3edc068c	0.42973745
47	0x3cfe8525	0.031069348
48	0xbdc4ad47	-0.096033625
49	0x3e76991a	0.24081841
50	0xbd3e6fe6	-0.046493433
51	0x3f27d972	0.6556617
52	0x3f0c9c53	0.5492603
53	0x3e4fd7a6	0.20297107
54	0x3e313ad7	0.17307602
55	0xbe29fbdf	-0.16599987
56	0xbe222072	-0.1583269
57	0xbec22cb7	-0.3792474
58	0x3de5e865	0.11225966
59	0xbe9ceb1e	-0.3064813
60	0xbd3cded1	-0.04611093
61	0xbe7d7e4f	-0.24755214
62	0x3d1d723b	0.038439017
63	0xbdd236d8	-0.10264367

l2_2.bias f4 [8]
0	0xbe3536ed	-0.17696734
1	0xbda793f9	-0.081825204
2	0x3e38d213	0.18048887
3	0x3d92a762	0.07160832
4	0x3ea0fa15	0.31440797
5	0xbbee5ccb	-0.0072742454
6	0xbea640f2	-0.32471424
7	0xbdba365f	-0.09092402

l2_3.weight f4 [8, 8]
0	0xbe570a16	-0.20999941
1	0x3c7b65e0	0.015344113
2	0x3e935823	0.2877818
3	0xbe7fe01b	-0.24987833
4	0x3c9b0d00	0.018927097
5	0x3d09a838	0.03360769
6	0xbc2df4e0	-0.010617465
7	0x3d55ef28	0.05223003
8	0x3de277c0	0.11057997
9	0x3cbb8220	0.022889197
10	0x3e0ebedc	0.13939995
11	0xbe4b5684	-0.19857222
12	0x3e63396a	0.2218987
13	0x3ea7f073	0.32800636
14	0xbdf0f262	-0.11764981
15	0x3e2e9dee	0.17052433
16	0xbea56be5	-0.3230888
17	0x3e3217a2	0.17391828
18	0x3ddc49c8	0.1075626
19	0x3ea149e7	0.31501696
20	0x3dd66514	0.10468498
21	0x3eb4666f	0.352344
22	0xbd8608dc	-0.065446585
23	0xbea9fd21	-0.33200935
24	0x3e2b9e4e	0.16759607
25	0x3e91ce53	0.28477725
26	0x3e94c065	0.29053035
27	0x3e7104e2	0.23537019
28	0x3dd39290	0.10330689
29	0xbe8cdc6c	-0.2751192
30	0x3e19574a	0.14974704
31	0x3dde5148	0.10855347
32	0xbe8fab71	-0.28060487
33	0x3eb1911d	0.34681025
34	0xbe8aaa34	-0.2708298
35	0x3e78d27a	0.2429904
36	0x3ea30871	0.31842378
37	0xbe6d927a	-0.23200408
38	0x3d2973f0	0.041370332
39	0x3e7b4992	0.24539784
40	0xbdf1b2b8	-0.11801666
41	0xbcc541b0	-0.024079174
42	0x3e8e1e75	0.27757612
43	0xbe07be71	-0.13256241
44	0xbe720a70	-0.23636794
45	0xbd644f50	-0.0557397
46	0x3e6f5346	0.2337161
47	0x3e8207b9	0.25396517
48	0x3e47d366	0.19514236
49	0x3eabec05	0.33578506
50	0x3e46976a	0.19393697
51	0x3e1645b2	0.14675024
52	0xbe9205d6	-0.28520077
53	0xbdce1b78	-0.10063833
54	0xbe8da34c	-0.27663648
55	0xbb06eb80	-0.0020587146
56	0xbe2d1303	-0.16901784
57	0xbc223660	-0.009900659
58	0x3e658eb2	0.22417715
59	0xbd340b20	-0.043955922
60	0xbe5b9472	-0.21443346
61	0xbea0012a	-0.31250888
62	0x3c8978e0	0.01678127
63	0xbe7dff46	-0.2480441

l2_3.bias f4 [8]
0	0xbd2a4880	-0.041573048
1	0xbea65ad0	-0.3249116
2	0x3e7ce6ea	0.24697462
3	0x3e81bf0d	0.25341073
4	0xbeaa5560	-0.3326826
5	0x3e59c48e	0.21266386
6	0x3def54d0	0.116860986
7	0xbd904024	-0.07043484

l2_4.weight f4 [1, 8]
0	0x3efba790	0.49151278
1	0xbeef6d51	-0.4676309
2	0x3ca9762c	0.020686232
3	0xbbbab1d7	-0.0056974697
4	0xbeee84ab	-0.46585593
5	0xbe4459b4	-0.19174844
6	0xbef3534b	-0.47524485
7	0xbc7b855a	-0.015351618

l3_1.weight f4 [8, 6]
0	0x3e273d32	0.16331938
1	0x3efab117	0.48963234
2	0xbe5064ac	-0.20350903
3	0xbf43101e	-0.7619647
4	0xbe54bc6e	-0.20775005
5	0x3cbb5342	0.022866849
6	0xbe1cca92	-0.1531165
7	0x3d28cc2c	0.04121034
8	0xbeca9768	-0.3956864
9	0xbeb0965a	-0.3448971
10	0x3dbeeb70	0.0932225
11	0x3f17a77f	0.59239954
12	0xbdb6d600	-0.08927536
13	0x3e893978	0.26801658
14	0xbe2b8c32	-0.16752699
15	0xbee6e300	-0.45095062
16	0xbf0e2d22	-0.5553762
17	0x3e04c09a	0.12964097
18	0xbd5dd368	-0.05415669
19	0xbda90303	-0.082525276
20	0xbe9ccfe0	-0.30627346
21	0x3e51667c	0.20449251
22	0xbbe289ef	-0.0069134156
23	0x3c49c108	0.012314089
24	0x3ddc81f4	0.10766974
25	0x3e101feb	0.14074676
26	0xbe18267a	-0.14858428
27	0xbe26bae2	-0.16282228
28	0x3e55e630	0.20888591
29	0x3e29cfb3	0.16583137
30	0xbea6cca3	-0.32578
31	0x3eadc4de	0.3393926
32	0xbd95b8bf	-0.07310628
33	0xbdc5b367	-0.09653359
34	0x3e445e7c	0.19176668
35	0x3e9416bc	0.28923595
36	0x3d56d152	0.052445717
37	0xbe209bd3	-0.15684442
38	0x3d891c87	0.06694894
39	0xbec577a3	-0.38567838
40	0xbf059fcf	-0.52196974
41	0x3e2e8ffe	0.17047116
42	0xbdbb2c35	-0.09139291
43	0x3ea36201	0.3191071
44	0xbe8f1938	-0.27948928
45	0xbe155a60	-0.14585257
46	0xbe684406	-0.22682199
47	0x3f190f19	0.5978866

l3_1.bias f4 [8]
0	0xbee62c63	-0.4495574
1	0x3e9b84d8	0.3037479
2	0x3e19985c	0.14999527
3	0x3e90a0e4	0.2824775
4	0xbed070d9	-0.40711096
5	0x3dbedbd9	0.09319276
6	0xbe7a2023	-0.24426322
7	0xbede17b3	-0.43377456

l3_2.weight f4 [8, 8]
0	0x3dd1adf3	0.10238256
1	0x3e411ce7	0.18858682
2	0xbe0b3feb	-0.13598602
3	0xbe8c79e5	-0.27436748
4	0xbd8473b6	-0.064673826
5	0x3ea23bb9	0.3168619
6	0xbede6fda	-0.4344471
7	0x3bce8870	0.0063028857
8	0xbdb2385a	-0.087021545
9	0x3e8844ff	0.2661514
10	0xbed043d9	-0.40676764
11	0x3e942fe1	0.2894278
12	0x3e93c916	0.28864354
13	0xbe3e0499	-0.18556441
14	0x3e86c54f	0.2632241
15	0xbe66df60	-0.22546148
16	0x3bbe02d9	0.0057986793
17	0xbe9df49d	-0.30850688
18	0xbddb100c	-0.1069642
19	0x3bc9ee67	0.006162453
20	0xbdf7983e	-0.12089585
21	0x3d90a976	0.07063572
22	0xbe879cf3	-0.2648693
23	0xbdc7ff5b	-0.09765502
24	0xbd34dcb1	-0.04415578
25	0xbd9f62fc	-0.07782552
26	0x3eb55465	0.3541595
27	0x3e2fba39	0.17160882
28	0xbd322c58	-0.04349932
29	0x3ea1fd21	0.31638435
30	0xbe434a3e	-0.1907129
31	0xbd1221c6	-0.03567674
32	0x3dee1590	0.116252065
33	0x3ce5d561	0.028055849
34	0x3d6906e6	0.056891344
35	0x3e69a2c0	0.2281599
36	0x3c7bd1e6	0.015369868
37	0x3dee123a	0.1162457
38	0x3d5ccf85	0.053908844
39	0xbe850aa0	-0.2598467
40	0xbe8603cd	-0.26174775
41	0x3e1d7430	0.15376353
42	0xbd8c7fb5	-0.06860296
43	0x3e7b1cf2	0.2452276
44	0xbdf04920	-0.117326975
45	0xbe71a995	-0.23599847
46	0xbea49dd3	-0.3215166
47	0x3db6fdce	0.08935128
48	0x3e7ac81b	0.24490397
49	0xbe0f7d4d	-0.14012642
50	0xbe4a1b42	-0.1973696
51	0x3dffe03f	0.124939434
52	0xbdc1eab6	-0.09468596
53	0x3e69b10b	0.22821443
54	0xbe7d128d	-0.24714108
55	0xbe89beed	-0.26903477
56	0x3e85f12c	0.26160562
57	0x3b09528e	0.0020953747
58	0xbe93d804	-0.28875744
59	0x3e89ecde	0.26938528
60	0xbe67f1ae	-0.22650787
61	0xbcd5654a	-0.026049275
62	0xbe988f93	-0.29797038
63	0x3dc12cec	0.09432396

l3_2.bias f4 [8]
0	0xbe8e4891	-0.2778974
1	0xbeaea1a1	-0.34107688
2	0xbe56cbb3	-0.20976143
3	0x3e0136d4	0.12618572
4	0x3e8dae25	0.27671924
5	0xbc8cce97	-0.017188353
6	0x3e0dddcf	0.13854145
7	0x3e7d00a1	0.24707271

l3_3.weight f4 [8, 8]
0	0x3d9565cc	0.07294807
1	0xbcf55930	-0.029949754
2	0xbe65846e	-0.22413799
3	0x3dca1f38	0.09869236
4	0xbde62eb8	-0.1123938
5	0x3dbf6cf0	0.0934695
6	0xbda6b318	-0.08139628
7	0x3eb2b2df	0.34902093
8	0x3dacc724	0.084364206
9	0xbe2d501f	-0.16925095
10	0xbe967a67	-0.2939026
11	0xbe540a99	-0.20707168
12	0x3eab2aed	0.33431187
13	0xbd84a624	-0.06477001
14	0x3df1a12c	0.11798319
15	0xbe8d5c80	-0.27609634
16	0xbe79fc1a	-0.24412575
17	0xbe8d7dff	-0.2763519
18	0x3de16914	0.1100637
19	0x3ca2ffd0	0.019897372
20	0xbea4e99f	-0.3220949
21	0xbe66b0b2	-0.22528341
22	0xbe11a021	-0.1422124
23	0x3dab7e68	0.083737195
24	0x3e9d78e9	0.3075631
25	0x3de72628	0.112865746
26	0x3e784d4a	0.24248233
27	0x3eb42577	0.35184833
28	0x3c36fee0	0.011169165
29	0x3e74d6fa	0.23910132
30	0x3e807c71	0.2509494
31	0x3ea38871	0.31940034
32	0xbe952783	-0.29131708
33	0xbeae5fca	-0.34057456
34	0xbe48ba58	-0.19602334
35	0x3e9d7f23	0.3076106
36	0xbc569e80	-0.013099313
37	0xbe510076	-0.20410332
38	0xbe6b1a66	-0.22959289
39	0xbea6c439	-0.3257158
40	0xbeaff31c	-0.34365165
41	0x3eac8da7	0.33701822
42	0xbe19ea8d	-0.1503088
43	0xbdfb5d58	-0.12273663
44	0x3e34f8f2	0.1767309
45	0xbdd28990	-0.10280144
46	0x3d4917a8	0.049094826
47	0xbd11f9b8	-0.03563854
48	0x3d8a53f8	0.06754297
49	0xbe2b577d	-0.16732593
50	0x3c5aef40	0.013362706
51	0x3e60c9ae	0.21951935
52	0x3df659fc	0.12028882
53	0x3ea8efa7	0.3299534
54	0xbc308740	-0.010774434
55	0x3e348e4a	0.17632404
56	0x3e01d87c	0.12680238
57	0x3e24997e	0.16074178
58	0x3e3d64da	0.18495503
59	0xbdfafc4c	-0.12255153
60	0xbe252ea7	-0.16131078
61	0x3e61467a	0.21999541
62	0xbe39e652	-0.18154266
63	0x3e5daec2	0.21648696

l3_3.bias f4 [8]
0	0xbe5e1bf8	-0.21690357
1	0xbdbd8dd8	-0.0925557
2	0x3e9522e7	0.2912819
3	0xbe0a9d2e	-0.13536522
4	0x3e18d592	0.1492522
5	0x3e8096a7	0.2511494
6	0x3e803c13	0.25045833
7	0xbdd8b5f0	-0.10581577

l3_4.weight f4 [1, 8]
0	0xbd609088	-0.054825336
1	0xbca8710c	-0.020561717
2	0xbf05082d	-0.519656
3	0xb7d78728	-2.5692934e-05
4	0x3dbefa18	0.09325045
5	0xbe1205e6	-0.14260063
6	0xbddcefd6	-0.107879326
7	0x3da64036	0.08117716

exp_avg f4 [8, 6]
0	0xbe0a3be1	-0.13499404
1	0x3b89b8d5	0.004202942
2	0xbc803de8	-0.01565452
3	0x3c04fa25	0.00811628
4	0x3c1927a9	0.009347835
5	0xbd1c24aa	-0.038120903
6	0x3d8e0589	0.069346495
7	0xbb0cd362	-0.0021488299
8	0x3c037f67	0.008025981
9	0xbb885a08	-0.004161123
10	0xbb9d011f	-0.0047913934
11	0x3ca088c1	0.01959646
12	0x3e0625b0	0.13100314
13	0xbb894dd4	-0.004190186
14	0x3c7bab46	0.015360659
15	0xbc02544b	-0.007954667
16	0xbc16c4a1	-0.009202153
17	0x3d16e5a5	0.0368401
18	0xbe3dd3a4	-0.18537766
19	0x3bc1fb6f	0.005919866
20	0xbcb1f287	-0.021722091
21	0x3c385594	0.011250872
22	0x3c55259b	0.013009454
23	0xbd5599c8	-0.05214861
24	0xbd62ecb6	-0.055401526
25	0x3ae91c0d	0.0017784849
26	0xbbd52f0a	-0.0065058516
27	0x3b5cab0c	0.0033671288
28	0x3b7f9a43	0.003900186
29	0xbc7efbd9	-0.015562975
30	0xbdab06c5	-0.083509006
31	0x3b2bfa15	0.002624159
32	0xbc1f44cb	-0.009720991
33	0x3ba5228c	0.0050395187
34	0x3bbe5acc	0.0058091637
35	0xbcc0f570	-0.023554534
36	0x3e493087	0.19647418
37	0xbbcfa884	-0.0063372273
38	0x3cbd613d	0.023117656
39	0xbc44117e	-0.011967061
40	0xbc6322d5	-0.013863285
41	0x3d6201f9	0.055177663
42	0xbe88f66d	-0.26750508
43	0x3c09b1fb	0.00840425
44	0xbcff1380	-0.031137228
45	0x3c8435d9	0.016138958
46	0x3c986c1e	0.018606242
47	0xbd9a7a54	-0.075428635

exp_avg_sq f4 [8, 6]
0	0x3f2311cc	0.6369903
1	0x3cc1eed8	0.02367346
2	0x3d940a1f	0.07228493
3	0x3cb316f9	0.02186154
4	0x3cfedb33	0.031110382
5	0x413dba36	11.857962
6	0x3e0fd682	0.14046672
7	0x3ba6cfe6	0.0050907014
8	0x3c7e07ac	0.015504759
9	0x3b974aa6	0.004617053
10	0x3bdd5025	0.0067539387
11	0x400ad3f5	2.1691868
12	0x3f171eb6	0.59031236
13	0x3cb72547	0.022356642
14	0x3d8bcfb1	0.06826723
15	0x3ca9ddf2	0.020735715
16	0x3cf034fa	0.029322136
17	0x413a1828	11.6308975
18	0x3f9ac810	1.2092304
19	0x3d3aec2e	0.045635395
20	0x3e0ed05d	0.13946672
21	0x3d2da117	0.042389955
22	0x3d74f228	0.05980125
23	0x41bf8563	23.94013
24	0x3e39a167	0.18127976
25	0x3be3477b	0.0069360114
26	0x3cae435f	0.02127236
27	0x3bd9c4b1	0.006645762
28	0x3c125567	0.008931494
29	0x4093a8a0	4.614334
30	0x3e5d56ed	0.21615191
31	0x3c035493	0.0080157695
32	0x3cc880d3	0.02447549
33	0x3bf09297	0.0073416936
34	0x3c2d6817	0.010583899
35	0x406c65ff	3.6937253
36	0x3fae69ce	1.3626039
37	0x3d54d1da	0.051957943
38	0x3e228ca7	0.15873967
39	0x3d46814a	0.048463143
40	0x3d8b2624	0.06794384
41	0x41e29ce0	28.3266
42	0x404436fc	3.065856
43	0x3deeab09	0.11653716
44	0x3eb6b62d	0.35685864
45	0x3de0b3ec	0.109718174
46	0x3e1b351f	0.15156983
47	0x4287d5f3	67.91787

exp_avg f4 [8]
0	0xbc00d4b3	-0.007863211
1	0x3b83bbf6	0.0040202094
2	0x3c00709c	0.007839348
3	0xbc35758a	-0.011075387
4	0xbb5a0f87	-0.0033273415
5	0xbba0dfd2	-0.004909494
6	0x3c424078	0.011856191
7	0xbc80ce4a	-0.015723366

exp_avg_sq f4 [8]
0	0x3da9b36b	0.082861744
1	0x3c91f81a	0.0178185
2	0x3da042e3	0.07825258
3	0x3e23910f	0.15973304
4	0x3cc6e181	0.02427745
5	0x3ce5d75f	0.028056799
6	0x3e3a3a68	0.18186343
7	0x3ed0d8c4	0.4079038

exp_avg f4 [8, 8]
0	0x3c6cf6b4	0.0144631155
1	0xbca4350e	-0.02004483
2	0x3c70f51d	0.014706877
3	0x39b9b131	0.00035417968
4	0x3cc17b35	0.02361832
5	0x3b5d0a88	0.00337282
6	0x3c896814	0.016773261
7	0x3b0a4448	0.0021097828
8	0xbc7a740b	-0.015286456
9	0x3cad9563	0.021189397
10	0xbc7f094a	-0.0155661795
11	0xb9c20a58	-0.0003701027
12	0xbccc8e4e	-0.0249702
13	0xbb68edca	-0.0035542124
14	0xbc915332	-0.017739866
15	0xbb11b50b	-0.0022233154
16	0x3bc40064	0.005981492
17	0xbc07e63f	-0.008294641
18	0x3bc824de	0.0061079105
19	0x39138250	0.00014067558
20	0x3c2032ae	0.009777708
21	0x3ab53a0a	0.0013826501
22	0x3be3c7b3	0.0069512962
23	0x3a62c41a	0.0008650437
24	0x3d0ae7aa	0.03391234
25	0xbd409587	-0.0470176
26	0x3d0dad84	0.034589306
27	0x3a5432a2	0.0008094703
28	0x3d62f84b	0.055412572
29	0x3c00bd17	0.0078575825
30	0x3d21534d	0.039386082
31	0x3ba107f6	0.004914279
32	0x3d116211	0.035493914
33	0xbd498633	-0.049200248
34	0x3d140ae8	0.036143214
35	0x3a614a9b	0.0008594186
36	0x3d6d794b	0.057977002
37	0x3c0735a4	0.008252535
38	0x3d28b76e	0.041190557
39	0x3ba92254	0.005161563
40	0x3c3e3aad	0.011610669
41	0xbc83eb1b	-0.016103318
42	0x3c428e0c	0.011874687
43	0x398d9f66	0.00027012377
44	0x3c9b82c9	0.018983262
45	0x3b2f4b0d	0.0026747615
46	0x3c5d3a6d	0.013502699
47	0x3adb410d	0.0016727761
48	0x3cdf1b25	0.027234623
49	0xbd1aa3b6	-0.037753783
50	0x3ce34a39	0.027745353
51	0x3a2c2834	0.000656727
52	0x3d363b92	0.044490404
53	0x3bcf4c0b	0.0063262037
54	0x3d017c43	0.031612646
55	0x3b81a72b	0.0039566956
56	0xbcc871d5	-0.024468342
57	0x3d0ae886	0.033913158
58	0xbccbe182	-0.024887804
59	0xba1c8c41	-0.0005971827
60	0xbd23abec	-0.03995888
61	0xbbbadcac	-0.0057025757
62	0xbce87f7b	-0.0283811
63	0xbb69bcbf	-0.003566548

exp_avg_sq f4 [8, 8]
0	0x3c92a9ae	0.017903175
1	0x3d3442c5	0.04400899
2	0x3f0e9e1e	0.5571002
3	0x3cebdb9d	0.028791243
4	0x3f19ee70	0.6012945
5	0x3e03dc5d	0.1287703
6	0x3e1ad385	0.15119751
7	0x3bd076b7	0.006361808
8	0x3ca50fc1	0.020149114
9	0x3d4a1cf6	0.049344026
10	0x3f1e7bee	0.6190785
11	0x3d031001	0.031997684
12	0x3f2b24cd	0.6685303
13	0x3e129b97	0.14317165
14	0x3e2c44ba	0.16823092
15	0x3be909ad	0.007111749
16	0x3b24e4c6	0.0025160774
17	0x3bc2ed4c	0.005948698
18	0x3d8b2987	0.0679503
19	0x3b65f59c	0.0035089022
20	0x3d977fd5	0.07397429
21	0x3c81407f	0.015777824
22	0x3c99d79d	0.01877957
23	0x3a5ae931	0.0008350788
24	0x3de0b4cb	0.109719835
25	0x3e8b2081	0.27173236
26	0x405f5f30	3.4901848
27	0x3e3896b1	0.18026234
28	0x4070f627	3.765024
29	0x3f4e60a5	0.8061622
30	0x3f71d74d	0.9446915
31	0x3d21bf97	0.039489355
32	0x3df60ffb	0.12014767
33	0x3e98953b	0.29801354
34	0x4075da2a	3.8414407
35	0x3e4b2a36	0.19840321
36	0x40849278	4.1428795
37	0x3f631ae9	0.88712937
38	0x3f8504af	1.0392054
39	0x3d319131	0.043351356
40	0x3c3736cf	0.011182501
41	0x3cdf4267	0.027253343
42	0x3ead1013	0.33801326
43	0x3c8f1dae	0.017470207
44	0x3ebb113a	0.3653658
45	0x3da02b4c	0.07820758
46	0x3dbc8474	0.09204951
47	0x3b8057ae	0.0039167022
48	0x3d8d994e	0.06914006
49	0x3e2f3da8	0.17113364
50	0x400c9cc8	2.1970692
51	0x3de86fc3	0.11349442
52	0x4017ab82	2.369843
53	0x3f01eaef	0.50749105
54	0x3f184409	0.59478813
55	0x3ccbaa35	0.024861434
56	0x3d66d1b8	0.056352347
57	0x3e0fa5d8	0.14028108
58	0x3fe86e0c	1.8158584
59	0x3dbfdc81	0.0936823
60	0x3ffadaa6	1.9597976
61	0x3ed69b95	0.41915575
62	0x3efb5b54	0.49093115
63	0x3ca7d966	0.020489406

exp_avg f4 [8]
0	0x3b4d7daa	0.003135542
1	0xbb57f925	-0.0032954898
2	0x3aa7d802	0.0012805464
3	0x3bee11c9	0.0072653037
4	0x3bfaae2f	0.007650159
5	0x3b218750	0.0024647303
6	0x3bc00e3e	0.005861073
7	0xbbadb66e	-0.0053012883

exp_avg_sq f4 [8]
0	0x3c58aed6	0.013225278
1	0x3c7507ec	0.014955502
2	0x3b011de9	0.0019701666
3	0x3da385ca	0.079845026
4	0x3db29cd2	0.08721317
5	0x3c095082	0.008381011
6	0x3d4e7b72	0.050410695
7	0x3d26a94a	0.04068879

exp_avg f4 [1, 8]
0	0x3c9ca39f	0.01912099
1	0x3c2cce19	0.010547184
2	0xbc5a5bbd	-0.013327536
3	0xbc8e01ef	-0.017334906
4	0x3c638e2f	0.01388888
5	0xbb0c36d1	-0.0021394978
6	0x3ca0acac	0.019613586
7	0xbace796a	-0.0015752737

exp_avg_sq f4 [1, 8]
0	0x3fa05c71	1.2528211
1	0x40307d40	2.7576447
2	0x3e9cb52b	0.3060697
3	0x402d30ec	2.706111
4	0x4006a9e8	2.1041203
5	0x3f5c9189	0.8615957
6	0x4059b396	3.401586
7	0x3dfc8b29	0.1233123

exp_avg f4 [8, 6]
0	0xbd3de1f8	-0.04635808
1	0x3d10fbb4	0.035396293
2	0xbd6b3c2c	-0.05743043
3	0x3cf6b631	0.030116173
4	0x3d1944c3	0.037419092
5	0x3d520c5a	0.05128131
6	0x3cbd3709	0.023097532
7	0xbc8fd2ed	-0.017556632
8	0x3ce96650	0.02849117
9	0xbc74a194	-0.014931101
10	0xbc981bc9	-0.018567936
11	0xbcd049fb	-0.025425902
12	0xbd634e58	-0.055494636
13	0x3d2da129	0.042390022
14	0xbd8cda58	-0.06877583
15	0x3d13ba9b	0.036066633
16	0x3d378ddd	0.044813026
17	0x3d7b85b0	0.06140679
18	0xbe4ccec7	-0.20000754
19	0x3e1c91d8	0.1529001
20	0xbe7e04a1	-0.24806453
21	0x3e053a3d	0.13010497
22	0x3e258147	0.16162597
23	0x3e62c901	0.2214699
24	0xbe3a2c9f	-0.18181084
25	0x3e0dc355	0.13844045
26	0xbe660a9d	-0.22464986
27	0x3df12b8c	0.11775884
28	0x3e15e520	0.14638186
29	0x3e4d6c47	0.20060836
30	0xbbba9672	-0.005694204
31	0x3b801ebc	0.003909914
32	0xbbd10744	-0.00637904
33	0x3b57cb50	0.003292758
34	0x3b888841	0.0041666334
35	0x3bbb9d99	0.005725574
36	0xbdaa9d20	-0.083307505
37	0x3d82783e	0.063705906
38	0xbdd3abcb	-0.10335501
39	0x3d5e0add	0.05420958
40	0x3d89e950	0.06733954
41	0x3dbcfd16	0.0922796
42	0x3da078d0	0.07835543
43	0xbd7542b0	-0.05987805
44	0x3dc6f59a	0.097148135
45	0xbd50b119	-0.050950143
46	0xbd81a129	-0.06329567
47	0xbdb1a49a	-0.086739734

exp_avg_sq f4 [8, 6]
0	0x3e202233	0.15638046
1	0x3c6b3348	0.014355488
2	0x3d28ac2e	0.04117983
3	0x3c544230	0.012955233
4	0x3c901ac6	0.017590892
5	0x4108edf3	8.558093
6	0x3d1d4891	0.038399283
7	0x3b66846f	0.0035174151
8	0x3c25cbc8	0.010119386
9	0x3b511b8d	0.003190729
10	0x3b8d2d0a	0.0043083476
11	0x400ba7d3	2.1821182
12	0x3e9b0945	0.3028051
13	0x3ce46d13	0.027884042
14	0x3da51967	0.08061486
15	0x3cd422d2	0.02589551
16	0x3d0a7e73	0.033811998
17	0x419cc4fb	19.596182
18	0x40863084	4.1934223
19	0x3ec6aba2	0.3880282
20	0x3f8ffd73	1.1249222
21	0x3ebae72e	0.365045
22	0x3eefcaf7	0.46834537
23	0x43920248	292.01782
24	0x4061516c	3.5205946
25	0x3ea6b474	0.3255955
26	0x3f71a8ef	0.943984
27	0x3e9cfe21	0.30662635
28	0x3ec9187e	0.392765
29	0x4376370e	246.21506
30	0x3abfd8a9	0.0014636713
31	0x3912cb16	0.000139993
32	0x39d6f3bb	0.00040998854
33	0x390d62a3	0.00013483553
34	0x3930dd07	0.00016867007
35	0x3df88eb9	0.12136597
36	0x3f7befc0	0.98412704
37	0x3dbb39b0	0.091418624
38	0x3e8886ea	0.2666543
39	0x3db45b91	0.088065274
40	0x3ddfee0d	0.109340765
41	0x429a658c	77.19833
42	0x3f1729b7	0.59048027
43	0x3d5f2d78	0.05448672
44	0x3e2131d4	0.15741664
45	0x3d4f6bb0	0.05063981
46	0x3d874103	0.06604197
47	0x42199f18	38.405365

exp_avg f4 [8]
0	0xbd879f8e	-0.066222295
1	0x3d0689ef	0.032846387
2	0xbda26b93	-0.079306744
3	0xbe927636	-0.28605813
4	0xbe849c66	-0.25900573
5	0xbbefb292	-0.0073149884
6	0xbdf417ec	-0.11918625
7	0x3de56d3e	0.11202477

exp_avg_sq f4 [8]
0	0x3d4dcfeb	0.050247114
1	0x3c49b6d2	0.012311654
2	0x3dc7e260	0.097599745
3	0x3fadd8af	1.3581752
4	0x3f91e010	1.1396503
5	0x3a0073a3	0.0004900044
6	0x3ea3d4f1	0.319984
7	0x3e434aab	0.19071452

exp_avg f4 [8, 8]
0	0xbdbb2367	-0.09137612
1	0x3d823cef	0.063592784
2	0xbd05737c	-0.032580838
3	0xbc37a122	-0.011207851
4	0xbd25ffb7	-0.04052707
5	0xbc7da32f	-0.0154808005
6	0x3d8fc9db	0.07020923
7	0x3d206b85	0.03916504
8	0x3db22930	0.08699262
9	0xbd77ee3a	-0.060529925
10	0x3cfe0468	0.03100796
11	0x3c2e90d3	0.010654646
12	0x3d1e2c9a	0.038616754
13	0x3c719326	0.014744556
14	0xbd88da08	-0.06682211
15	0xbd18bf91	-0.037292067
16	0xbb816d0f	-0.0039497684
17	0x3b32d738	0.0027288925
18	0xbab6c50f	-0.0013944226
19	0xb9f278de	-0.0004624789
20	0xbaecc5dd	-0.0018064339
21	0xba31daf7	-0.00067846425
22	0x3b44a1ea	0.0030003735
23	0x3adf6095	0.0017042333
24	0x3a89d49a	0.0010515631
25	0xba3fad9e	-0.0007311943
26	0x39c3fefa	0.0003738327
27	0x3905d72e	0.00012764029
28	0x39f3dbf0	0.00046512438
29	0x393b0dcf	0.00017838854
30	0xba543e47	-0.0008096438
31	0xb9ec2961	-0.00045044257
32	0x3db16003	0.08660891
33	0xbd76df92	-0.060271807
34	0x3cfcf5d5	0.03087894
35	0x3c2e001d	0.010620144
36	0x3d1d5cc3	0.038418543
37	0x3c706bbf	0.014674126
38	0xbd88472f	-0.06654202
39	0xbd180efd	-0.03712367
40	0x3d123ccb	0.035702508
41	0xbccb65c6	-0.024828803
42	0x3c505ae3	0.012716982
43	0x3b8ed7f6	0.0043592406
44	0x3c821694	0.015879907
45	0x3bc67569	0.006056477
46	0xbce07d15	-0.027403394
47	0xbc7ae1fc	-0.015312668
48	0x3db56ca6	0.08858614
49	0xbd7c5027	-0.061599877
50	0x3d0136e4	0.03154649
51	0x3c310237	0.010803751
52	0x3d218077	0.039429154
53	0x3c764f80	0.015033603
54	0xbd8b3ada	-0.067983344
55	0xbd1ba122	-0.037995465
56	0x3b3c64b8	0.0028746556
57	0xbb030b5c	-0.0019995784
58	0x3a860bb0	0.0010226872
59	0x39b6a910	0.00034839706
60	0x3aa8537f	0.0012842267
61	0x3a003a1e	0.00048914726
62	0xbb109484	-0.0022061178
63	0xbaa16ffe	-0.0012316701

exp_avg_sq f4 [8, 8]
0	0x417b1a97	15.693992
1	0x3f0423ed	0.5161732
2	0x3fceb778	1.614974
3	0x3f20a2fb	0.6274869
4	0x3f2fb67c	0.68637824
5	0x3d8b3bbc	0.06798503
6	0x3fd0bb42	1.6307147
7	0x41488207	12.531745
8	0x41628414	14.157246
9	0x3eee7e54	0.46580756
10	0x3fba79e5	1.4568449
11	0x3f10eada	0.56608355
12	0x3f1e8d5c	0.6193445
13	0x3d7b7d58	0.061398834
14	0x3fbc4f27	1.4711655
15	0x4134dec1	11.304383
16	0x3b60f627	0.0034326406
17	0x39217af7	0.00015399964
18	0x39bc6333	0.00035932063
19	0x391fb55d	0.00015230985
20	0x3954b01b	0.000202835
21	0x3861eb7f	5.3863503e-05
22	0x39c85e49	0.0003821722
23	0x3b313288	0.0027038176
24	0x3d2b7927	0.041863587
25	0x3aa834fa	0.0012833171
26	0x3b8ce76f	0.00430005
27	0x3ad645f2	0.001634775
28	0x3ada0780	0.0016634315
29	0x3920dc01	0.00015340747
30	0x3b8bbc72	0.004264408
31	0x3d095635	0.03352948
32	0x41607458	14.028404
33	0x3eec7174	0.46180308
34	0x3fb8c8bf	1.4436263
35	0x3f0fa2f0	0.56108
36	0x3f1d40b8	0.6142688
37	0x3d7a03a3	0.061038624
38	0x3fba9e40	1.4579544
39	0x413338c2	11.201357
40	0x40667aee	3.601253
41	0x3df227b3	0.11823978
42	0x3ebd8ec1	0.37022975
43	0x3e1264a2	0.14296201
44	0x3e1e1dd5	0.15441068
45	0x3c802b81	0.015645744
46	0x3ebf637e	0.37380594
47	0x4038008d	2.8750336
48	0x4171d471	15.114366
49	0x3eff1de4	0.49827492
50	0x3fc70e1a	1.5551178
51	0x3f1a89c4	0.60366464
52	0x3f28cbc0	0.659359
53	0x3d879c2d	0.06621585
54	0x3fc918ba	1.5710671
55	0x414110f4	12.066639
56	0x3e1f7abc	0.15574163
57	0x3ba7b096	0.005117486
58	0x3c82da93	0.015973365
59	0x3bc6fdad	0.006072721
60	0x3bd02d62	0.0063530663
61	0x3a3b57e4	0.00071465806
62	0x3c843d3c	0.01614248
63	0x3dfe7047	0.12423759

exp_avg f4 [8]
0	0x3ded4c6e	0.115868434
1	0xbde1dfda	-0.110290244
2	0x3ba3005c	0.004974408
3	0xbaaea414	-0.0013324046
4	0xbde0e7d0	-0.10981715
5	0xbd394dab	-0.045240086
6	0xbde5e0e5	-0.11224536
7	0xbb6eec30	-0.0036456697

exp_avg_sq f4 [8]
0	0x3e73ffdf	0.23828076
1	0x3e5c7369	0.215284
2	0x39213e15	0.00015377284
3	0x39a9c13b	0.0003237816
4	0x3e5b6661	0.21425773
5	0x3d4cc47f	0.04999208
6	0x3e6921f8	0.22766864
7	0x3adcc284	0.0016842638

exp_avg f4 [1, 8]
0	0x3df5b6c6	0.11997752
1	0xbe1f5e5c	-0.15563339
2	0x3cdb51ca	0.026772399
3	0x3c7ec232	0.015549229
4	0xbba957d8	-0.0051679425
5	0x3c833e88	0.016021028
6	0xbda45d78	-0.0802564
7	0xbd068dad	-0.032849956

exp_avg_sq f4 [1, 8]
0	0x427ad11b	62.704205
1	0x4181317d	16.149164
2	0x3e67a6d7	0.22622238
3	0x3fedfe32	1.8593199
4	0x41b59e9d	22.702448
5	0x3fb556b4	1.4167085
6	0x3f0417ce	0.51598823
7	0x3fda26a5	1.7043043

exp_avg f4 [8, 6]
0	0x37329ddc	1.0646381e-05
1	0xba8c59fa	-0.0010707967
2	0x3ad04a50	0.0015891287
3	0xba79bcbd	-0.00095267204
4	0xba914593	-0.0011083357
5	0xbad9e2f5	-0.0016623425
6	0x36e5ebdd	6.85219e-06
7	0xbb88c6c5	-0.004174086
8	0x3bcaea57	0.0061924863
9	0xbb735a85	-0.0037132811
10	0xbb8d9272	-0.004320436
11	0xbbd428bd	-0.006474583
12	0x39190c5d	0.00014595823
13	0xbb27637d	-0.0025541477
14	0x3b791163	0.0038004748
15	0xbb14cd12	-0.002270524
16	0xbb2d6140	-0.002645567
17	0xbb81610e	-0.0039483374
18	0x3892085b	6.963379e-05
19	0xb8312f3f	-4.224409e-05
20	0x388edd20	6.8122754e-05
21	0xb819602e	-3.6567617e-05
22	0xb83b6d0f	-4.4685843e-05
23	0xb87efc9d	-6.0793584e-05
24	0x37f100fc	2.8729897e-05
25	0xbb095f13	-0.002096121
26	0x3b4bebf3	0.0031115978
27	0xbaf463e1	-0.0018645489
28	0xbb0e3428	-0.0021698568
29	0xbb54ffd5	-0.003250112
30	0xb953f29a	-0.00020212904
31	0x3a85a70f	0.0010196882
32	0xbac84f42	-0.001528241
33	0x3a6d3a5f	0.00090495305
34	0x3a8aa72b	0.0010578384
35	0x3acddb78	0.0015705666
36	0x39c5ec14	0.0003775066
37	0xbbcf5d32	-0.0063282484
38	0x3c1a495c	0.009416904
39	0xbbb85711	-0.0056256135
40	0xbbd6c85d	-0.006554647
41	0xbc206763	-0.009790274
42	0xb80fe8a6	-3.4310528e-05
43	0xbad3c62a	-0.001615708
44	0x3b1ce6d8	0.0023941305
45	0xbabc73d0	-0.0014377777
46	0xbadb23a1	-0.0016718992
47	0xbb245fb4	-0.0025081458

exp_avg_sq f4 [8, 6]
0	0x3a825832	0.0009944497
1	0x384de35d	4.9087557e-05
2	0x392f00cb	0.00016689596
3	0x3880b985	6.138071e-05
4	0x3859f43b	5.196429e-05
5	0x3daa300d	0.08309946
6	0x3c68c6c3	0.014207545
7	0x3a227d80	0.00061985105
8	0x3b09bbae	0.0021016407
9	0x3a47e18e	0.0007624858
10	0x3a2ce047	0.0006594699
11	0x3f7b26f6	0.98106325
12	0x3be1869f	0.006882503
13	0x399da2ad	0.00030066576
14	0x3a866a4a	0.0010255065
15	0x39c18767	0.0003691271
16	0x39a7be2b	0.00031994408
17	0x3eeceba2	0.46273524
18	0x39e9c4b7	0.00044587787
19	0x37bac8aa	2.226637e-05
20	0x389a6ebd	7.363919e-05
21	0x37ee03b1	2.837353e-05
22	0x37c3ddbe	2.3349068e-05
23	0x3d35faf8	0.044428796
24	0x3bb2ab85	0.0054525756
25	0x39813634	0.00024645182
26	0x3a59657d	0.0008293016
27	0x39a10f0e	0.0003071953
28	0x3988dda2	0.0002610507
29	0x3ed9bb52	0.42525727
30	0x38979fec	7.230029e-05
31	0x36928da6	4.367629e-06
32	0x377380ce	1.4513918e-05
33	0x36aad6f3	5.091418e-06
34	0x369ef169	4.736871e-06
35	0x3bb8a222	0.005634562
36	0x3cf16802	0.02946854
37	0x3aab3dbc	0.0013064663
38	0x3b917075	0.0044384548
39	0x3ad261d7	0.0016050887
40	0x3ab64bcf	0.0013908091
41	0x4002af54	2.0419512
42	0x3b582cf7	0.0032985786
43	0x3918064a	0.00014498192
44	0x3a009a4d	0.0004905805
45	0x393c0d53	0.00017934041
46	0x39215dea	0.00015389142
47	0x3e730782	0.23733333

exp_avg f4 [8]
0	0x3b034a61	0.0020033347
1	0x3bffe484	0.0078092236
2	0x3b9c950c	0.00477851
3	0x38a5bee9	7.903373e-05
4	0x3b8080ba	0.0039215954
5	0xbafa0c59	-0.0019077166
6	0x3c41fa14	0.011839408
7	0x3b461a2a	0.0030227997

exp_avg_sq f4 [8]
0	0x3934298d	0.00017181617
1	0x3b0e2fe4	0.0021696026
2	0x3a89f060	0.0010523908
3	0x38a37200	7.79368e-05
4	0x3a62223f	0.0008626319
5	0x37803dcb	1.5287564e-05
6	0x3b95d82e	0.00457289
7	0x3a05076f	0.0005074655

exp_avg f4 [8, 8]
0	0x3aa5f46e	0.0012661347
1	0x3ab62810	0.0013897438
2	0xba7739b7	-0.00094309024
3	0x38cdebf5	9.819112e-05
4	0x3b22d6a6	0.0024847179
5	0x3ae52ffa	0.0017485612
6	0xba553947	-0.000813384
7	0x3b744eeb	0.0037278484
8	0x39f76d29	0.00047192842
9	0x39fe7020	0.00048530195
10	0xb9b7353e	-0.00034944149
11	0x37e8418a	2.7687074e-05
12	0x3a6dbdb4	0.00090691005
13	0x3a1c4408	0.0005961065
14	0xb995d9e2	-0.0002858183
15	0x3aaf2930	0.0013363715
16	0x3c3fc3ca	0.011704395
17	0x3c3fae1f	0.011699229
18	0xbc0d715b	-0.008632983
19	0x3a194bb6	0.00058477686
20	0x3cb68995	0.022282401
21	0x3c67e7e8	0.014154412
22	0xbbe13cf4	-0.0068737213
23	0x3d056d8e	0.032575183
24	0x32dfffde	2.6076972e-08
25	0x374203d3	1.15641915e-05
26	0xb4ef02ef	-4.4519354e-07
27	0x36430e9b	2.9065766e-06
28	0x36db01b7	6.5269082e-06
29	0x379b2f0f	1.8499353e-05
30	0xb6b3dbca	-5.3602025e-06
31	0x37990d5b	1.824524e-05
32	0xbb0b0fd5	-0.0021219153
33	0xbb0f209c	-0.0021839505
34	0x3acdc8d6	0.0015700113
35	0xb901f8e2	-0.00012395115
36	0xbb859ccd	-0.00407753
37	0xbb2f7cbf	-0.0026777235
38	0x3aa815da	0.0012823895
39	0xbbc4eb62	-0.006009505
40	0x3b527cf3	0.0032117933
41	0x3b528cf2	0.0032127467
42	0xbb1b4535	-0.0023692374
43	0x39290639	0.00016119414
44	0x3bc868e0	0.0061160177
45	0x3b7ed52d	0.0038884387
46	0xbaf76cea	-0.0018877063
47	0x3c1285b0	0.008943006
48	0x3b1f313a	0.0024290816
49	0x3b1ef516	0.002425497
50	0xbaead52d	-0.0017916315
51	0x38fd48fb	0.00012077574
52	0x3b977d1a	0.0046230676
53	0x3b40428d	0.0029336542
54	0xbabad7bd	-0.0014254969
55	0x3bdd6759	0.0067567048
56	0xbaefe969	-0.0018303815
57	0xbaf0dd01	-0.0018376411
58	0x3ab0fbdc	0.0013502794
59	0xb8c3f972	-9.3447874e-05
60	0xbb64a824	-0.0034890259
61	0xbb11eb31	-0.002226543
62	0x3a8d615e	0.0010786464
63	0xbba756bc	-0.005106775

exp_avg_sq f4 [8, 8]
0	0x394c2e51	0.0001947221
1	0x3cc3b4e4	0.023889966
2	0x3af2b1bb	0.0018516103
3	0x3860141e	5.3424497e-05
4	0x3b094ded	0.0020950988
5	0x3b832df5	0.0040032812
6	0x3b4dcf8a	0.003140422
7	0x3cb87a62	0.022519294
8	0x38231743	3.8883893e-05
9	0x3b6c5040	0.0036058575
10	0x399d79d3	0.0003003614
11	0x37717ace	1.4393312e-05
12	0x39adc474	0.000331435
13	0x3a3ab2b2	0.00071219646
14	0x3a0237e5	0.00049674354
15	0x3b5ee02d	0.003400813
16	0x3ce1e5fa	0.027575482
17	0x40544919	3.3169615
18	0x3e840273	0.2578312
19	0x3c0491ed	0.008091432
20	0x3e95d795	0.2926604
21	0x3f10e92d	0.566058
22	0x3ede63e9	0.434356
23	0x404878ed	3.1323807
24	0x3888a352	6.515406e-05
25	0x3be9103d	0.0071125315
26	0x3a14db6e	0.00056784495
27	0x37d3435c	2.5184527e-05
28	0x3a28ba14	0.0006436419
29	0x3aae1b32	0.0013283251
30	0x3a758bfc	0.00093668676
31	0x3bdcf5cc	0.0067431685
32	0x3a07c8ee	0.0005179782
33	0x3d67bfc9	0.056579385
34	0x3b937f41	0.004501254
35	0x392f64f2	0.00016726906
36	0x3ba5aae5	0.0050557726
37	0x3c26ee9a	0.010188723
38	0x3bf775ce	0.007551885
39	0x3d5aa0a7	0.053375866
40	0x3b3135d3	0.0027040138
41	0x3ea4e896	0.322087
42	0x3ccda24d	0.025101805
43	0x3a548f97	0.0008108555
44	0x3ce97b88	0.028501287
45	0x3d631c75	0.05544706
46	0x3d2cc9d7	0.042184677
47	0x3e9bcee5	0.30431286
48	0x3ae20731	0.0017244575
49	0x3e539486	0.20662126
50	0x3c83b2fa	0.016076554
51	0x3a056edd	0.0005090067
52	0x3c95b495	0.018274585
53	0x3d11378f	0.035453375
54	0x3cdd5816	0.027019542
55	0x3e47eed2	0.19524696
56	0x39c0ef4b	0.0003679938
57	0x3d22d6f5	0.03975578
58	0x3b4f2a3e	0.0031610872
59	0x38dac245	0.000104312356
60	0x3b691c38	0.0035569798
61	0x3be9c581	0.00713414
62	0x3bae01ef	0.005310289
63	0x3d198e54	0.03748925

exp_avg f4 [8]
0	0xbb58a22c	-0.0033055646
1	0xba9c4209	-0.0011921535
2	0xbcee734a	-0.029107708
3	0xb75a7940	-1.3022043e-05
4	0x3baf8e92	0.005357572
5	0xbc02eb6f	-0.007990702
6	0xbbc5dcd8	-0.0060382895
7	0x3b957364	0.004560875

exp_avg_sq f4 [8]
0	0x393b01ee	0.00017834429
1	0x3816ed6b	3.59839e-05
2	0x3cae6f91	0.021293433
3	0x38239ca9	3.900813e-05
4	0x39f9293d	0.00047523706
5	0x3b02d835	0.0019965295
6	0x3aa2eac1	0.0012429581
7	0x39b21412	0.0003396576

exp_avg f4 [1, 8]
0	0xbd15163d	-0.03639816
1	0xbca5680e	-0.020191219
2	0xba8e1275	-0.0010839241
3	0x3c0aa8c4	0.008463088
4	0x3cd88e62	0.02643508
5	0x3abd2556	0.0014430683
6	0x3c5878a5	0.013212358
7	0x3b719858	0.0036864486

exp_avg_sq f4 [1, 8]
0	0x3cc622c2	0.024186496
1	0x3d4a9f95	0.049468596
2	0x409389ae	4.6105566
3	0x3e3817cb	0.17977826
4	0x3c98deb8	0.018660888
5	0x3e911fbb	0.2834452
6	0x405a230b	3.4083889
7	0x3d246b2a	0.040141262
