trained_models/binaries/model_down.pth (torch, 23501 bytes, 45 tensors)

l1_1.weight f4 [8, 6]
00000000: 4399 333e 232e 7fbe 25a4 223e 275e 9e3e
00000010: f9d4 343f dd9c 71be 559f f03c 681e 8a3e
00000020: ad25 11be cdb7 dabe d847 0ebf 5b2c ab3c
00000030: 93ae 12bd 7c84 053d 37d0 29be b2c5 773e
00000040: 6821 5bbf 2800 ab3e e925 65bd ebef b73d
00000050: e96e 9e3e 8912 99be a471 12bf 6d69 2bbd
00000060: 5687 b93b f85f b73e ab17 b33e d534 83be
00000070: 8fec f2bd 9641 243d 361c babb ec08 f2be
00000080: 0cec 683c 9c8b 3abe afa7 b03f 5d06 91be
00000090: 896b b4bd b9eb 03bf 541e b7be 41b2 ccbe
000000a0: 2151 963f 716d 323e e5dd 1bbd 0b47 01bf
000000b0: 1bcb 8c3e c49d a33c f837 043f 56de 29bd
0.17538933 -0.24919944 0.15882929 0.30931208 0.7063747 -0.23594995 0.02937285 0.26976323
-0.14174528 -0.42718354 -0.55578375 0.020895174 -0.03581102 0.03259705 -0.16583334 0.24196509
-0.8559785 0.33398557 -0.055944357 0.089813076 0.30943993 -0.29896954 -0.5720465 -0.04184859
0.0056618853 0.35815406 0.34978995 -0.25626245 -0.11861526 0.04010161 -0.0056796325 -0.47272432
0.014216434 -0.18217319 1.3801173 -0.28325167 -0.08809573 -0.5153156 -0.35765326 -0.39979747
1.1743509 0.17424561 -0.038053412 -0.5049903 0.27498707 0.01997269 0.516479 -0.0414718

l1_1.bias f4 [8]
00000000: f11c abbd bac4 bebe 190b 76bd c33b 1cbf
00000010: 750a c1be 4fec 7e3e eb6f 9ebd c09a f1bd
-0.083551295 -0.37259465 -0.060069177 -0.6102869 -0.3770329 0.24894832 -0.077361904 -0.11797094

l1_2.weight f4 [8, 8]
00000000: b262 61be 9cca 153f ccd7 553e ee0b 6fbe
00000010: c1b2 953e 68bf e83e b9ad e6bd 225a 1ebf
00000020: a886 b0be 7f2b 04be 5b87 ad3e c9cf 613e
00000030: 1995 82be c507 92bf 6cb4 c73d 2002 30be
00000040: ddb6 293e fbdb 203d 91f5 023e b9f0 dd3d
00000050: 92b0 833e b130 afbf 5fc3 dcbe 4077 d03d
00000060: a9b6 493d fceb 99be f1de 70be a184 503e
00000070: 155e 8fbe ed08 963f bb02 5c3e 49e4 efbd
00000080: 1260 5b3e 78f3 b3bd a52e 113e 4435 923e
00000090: c5f0 11be a2f3 793f 40a9 c43e e02e f43c
000000a0: fcf9 f5b9 e4e9 cbbe c933 81be 8540 843e
000000b0: 6dd7 68be fd15 93bf 25d2 63bb 98ae b63e
000000c0: bbe6 ac3d e405 0f3e 5510 c93e 05b5 b8bb
000000d0: 8d83 b6bc 94eb 42bf 8a72 60be e5d3 4abe
000000e0: 2e5c 37be 5a85 df3d 75ad 99be 6cb4 673e
000000f0: 6a1d 81be 5dd5 5bbf 4442 f7bd 4be9 02be
-0.22010306 0.5851228 0.20883101 -0.23344395 0.2923794 0.4545853 -0.11263604 -0.6185628
-0.34477735 -0.12907217 0.3389233 0.2205192 -0.25504377 -1.1408621 0.097512096 -0.1718831
0.16573663 0.03927229 0.12788989 0.1083693 0.2572065 -1.3686734 -0.43117806 0.10178995
0.049246464 -0.30062854 -0.23522545 0.20363094 -0.28001466 1.1721474 0.21485417 -0.11713464
0.21423367 -0.08786672 0.1417795 0.28556263 -0.14252003 0.9763738 0.38410378 0.029807508
-0.00046916294 -0.39826882 -0.2523482 0.25830474 -0.22738428 -1.1491085 -0.0034762707 0.3568008
0.08442446 0.13967091 0.39270273 -0.0056368136 -0.022279525 -0.76140714 -0.21918693 -0.19807394
-0.17906258 0.10914107 -0.3001515 0.22627419 -0.25217754 -0.8587244 -0.12073186 -0.12784307

l1_2.bias f4 [8]
00000000: ac68 423d 1c18 a5be 9c91 09be 449f 9f3e
00000010: e3e6 b1bd a07d b0be c177 593e 9da8 1abe
0.047463104 -0.32244956 -0.13434452 0.31176198 -0.08686616 -0.34470844 0.21237089 -0.15103383

l1_4.weight f4 [1, 8]
00000000: d354 0d3b e3f8 14bf fe23 d9be 08b5 a03e
00000010: 6e0e 123f def3 a3be 8e64 abbe e8e6 6abe
0.0021565452 -0.5819227 -0.42410272 0.31388116 0.5705327 -0.32021993 -0.33475155 -0.22939646

l2_1.weight f4 [8, 6]
00000000: eddb 363e b914 59bd c980 c7bd 2ea4 91bf
00000010: 9c77 163f 3ae6 23be 3a4c 1f3e cb24 3c3d
00000020: 79e9 9fbe 5ddb 443f 1a20 a3be 5137 e93e
00000030: 2912 00bd 96eb 663d 3f64 153e d75f 04bf
00000040: f361 9a3c 981b 17be ce35 803e e7b7 ba3d
00000050: 1c0f c2be c0de 993f d9bd a93e 9ff6 863e
00000060: 7c9f e3bd dd8a ca3e 228e 6cbd 2f01 40bf
00000070: b9f3 2dbe 0caf 083b 567b efbc e3d5 edbe
00000080: 342b 0c3e 0853 a43f 4d35 bebe 91ec 193f
00000090: a0ac ebbd 34d9 72be 122a 8bbd 27ba 8f3f
000000a0: 5fc0 0e3d 8fb1 d53e e681 803d a6dc 2d3f
000000b0: 3f27 14be 47c5 9ebf 5153 923c a0bc 0bbf
0.17857333 -0.05299828 -0.09741361 -1.1378229 0.5877626 -0.16005793 0.15556422 0.045933526
-0.31232813 0.7689722 -0.3186043 0.45550016 -0.03126732 0.056377016 0.14589022 -0.5170874
0.018845534 -0.1475662 0.2504105 0.09117108 -0.37902153 1.2021103 0.33152655 0.26360032
-0.111144036 0.3955907 -0.057752736 -0.75001806 -0.16987504 0.002085629 -0.029233616 -0.46452245
0.13688356 1.2837839 -0.3715004 0.60126597 -0.11507535 -0.23715669 -0.06795134 1.1228684
0.034851428 0.4173703 0.06274776 0.6791481 -0.14468096 -1.2403954 0.017861994 -0.54584694

l2_1.bias f4 [8]
00000000: 6b48 bdbe 3c71 033f 7220 93be f7b7 193f
00000010: caeb 05bf 12e9 833e 5f71 183e c68b 87be
-0.36969313 0.51344657 -0.2873569 0.60046333 -0.5231291 0.25763756 0.14886998 -0.26473826

l2_2.weight f4 [8, 8]
00000000: ca27 b0be 3dab 953e f590 50be f595 e43e
00000010: faa1 d3bb c836 453e a52f 963e ca8c 4bbf
00000020: d04f 08be 284e a73e 34cc 993b 660d 483e
00000030: 1b69 aebe f501 2d3f c687 913e 6ac9 35bf
00000040: 6bb9 8f3e 0ef2 40be e981 8bbe b35f 0cbf
00000050: a8e5 4c3c d561 14bf 11aa 41be ef71 313f
00000060: 9ca1 23bc 1dda 103e 4d5b 23bf 5ffa 68be
00000070: 464b 463e e094 133e 28e2 af3b ac27 dc3e
00000080: 0b6c bdbd 9bc1 a63e 0758 04bc b690 1ebe
00000090: dca5 923e 0366 7bbd e9f9 a8be cb85 77bd
000000a0: 30b0 063f dc95 b8be 773f 103d 1eea d8be
000000b0: 0df5 b53e 9250 5bbf 5c26 93be b383 ee3e
000000c0: 4a0a 453c 1b3b 0e3e ed0e a9be 3a7c a8bd
000000d0: a25a e63d 9e69 ddbc 1a3c 973d 755a 753e
000000e0: 53e1 3b3e aed4 7bbe d5ff c03e f981 7c3e
000000f0: 4c85 593d ec2a ad3d 60be b7bd af16 10bf
-0.34405357 0.29232207 -0.20367797 0.44645658 -0.006458518 0.19259179 0.29333225 -0.795117
-0.13311696 0.32676816 0.0046935324 0.19536361 -0.34064564 0.6758111 0.284239 -0.7101046
0.2807115 -0.18842337 -0.2724755 -0.54833525 0.012505926 -0.5796178 -0.18912531 0.69314474
-0.009987261 0.14145704 -0.6381119 -0.22751759 0.19364652 0.1441226 0.005367536 0.42999017
-0.09249123 0.32569584 -0.008077628 -0.1548489 0.28642166 -0.061376583 -0.33003166 -0.06043033
0.5261259 -0.36051834 0.035216775 -0.42366117 0.3553852 -0.85669816 -0.28740203 0.46584854
0.012026379 0.13889734 -0.330192 -0.08226819 0.112477556 -0.027027901 0.0738451 0.23960288
0.18347673 -0.2459285 0.37695184 0.24658956 0.053105637 0.08455452 -0.08971858 -0.5628461

l2_2.bias f4 [8]
00000000: 753e 263f 4790 853e ec7c c2be a1b5 6e3c
00000010: 9019 13be 22d5 04bf f8d1 653d a871 613c
0.6493905 0.26086637 -0.37985933 0.014569671 -0.1436522 -0.51887715 0.056108445 0.013760008

l2_4.weight f4 [1, 8]
00000000: de19 163f 7507 013f a0ee f0be 2a68 66bb
00000010: 7783 adb9 13b4 23bf 7659 4cbb 6765 d73b
0.5863322 0.50402004 -0.47057056 -0.0035157301 -0.0003309508 -0.63946646 -0.0031181253 0.0065733674

l3_1.weight f4 [8, 6]
00000000: 72aa 063d 7ac2 1a3f 306d 8f3e 2a21 413f
00000010: b460 0dbf 16b9 7bbf f27c 1dbd 5ddb 853d
00000020: 699c febd c5bc 81bf 23dd 863e 9f91 843f
00000030: 1477 943c 4bd5 203e 0ae6 03bf 0c62 50be
00000040: 03c8 a63e bd25 5d3f 36a3 cf3c 417a 073d
00000050: 1c50 71bf 77e4 65bf aa1d a33d 6520 df3e
00000060: 39f9 88bc 2ed3 e63e ae22 153f 1a42 633f
00000070: a46a cdbc fe05 9ebe 5703 edbb 8561 1a3e
00000080: b933 b13e 9ea3 903e 1740 0fbd 0e18 91bd
00000090: 2bb8 e33c d5f1 093e 1edc 873e 2686 143f
000000a0: 330b 12bf 2fb6 95bf fb99 9f3c 0e29 f2be
000000b0: d02f e2bd 0d91 fdbc 63c2 993e a05a 843d
0.032877393 0.60453 0.2801299 0.7544123 -0.5522568 -0.98329294 -0.038449235 0.06535981
-0.124321766 -1.0135733 0.2634059 1.035694 0.018123187 0.15706365 -0.51522887 -0.20349902
0.32574472 0.8638571 0.02534638 0.033075575 -0.9426286 -0.89801735 0.07964642 0.43579403
-0.016720401 0.45082992 0.5825604 0.8877274 -0.025075264 -0.30863947 -0.007233064 0.15076263
0.34609774 0.2824983 -0.03497323 -0.07084666 0.027797779 0.13471158 0.26535124 0.58017194
-0.5704834 -1.1696223 0.019482603 -0.47296947 -0.11044276 -0.030952955 0.30031118 0.06462598

l3_1.bias f4 [8]
00000000: ef42 07bf 2f56 c63e 886b d03e 2315 1b3e
00000010: 3735 623e fd55 a5bc 7f34 0fbf 24da bdbd
-0.5283651 0.38737628 0.4070704 0.15144782 0.22090612 -0.020182604 -0.5593948 -0.09270123

l3_2.weight f4 [8, 8]
00000000: 2023 b63e d64d 5d3d 76a1 2a3e 5c6d ea3d
00000010: c7ea 0c3e 190f 77bd 7129 febd 75d1 d83d
00000020: 8237 fa3e 9e13 5fbe 05ff ecbd f512 9bbe
00000030: 2718 c93d 0461 443e 7582 2b3d 94e5 26be
00000040: 56ea 9cbe e246 7a3e e409 09be 66e0 433f
00000050: 2162 9abe c873 f2bd d20a 82be 3ba3 d43d
00000060: f2f8 603c a483 7b3e 6aaa 2f3d 4b51 2b3d
00000070: e61a 89be a95e e13d 5c80 523e 707b ba3d
00000080: 2dfd 9f3d f4cd 41be 7a9b d9be d992 cabe
00000090: 9e41 10be 2db9 24be 5a5a ee3e a7f9 19be
000000a0: 27fd c7be 3750 aabe 3933 f0ba 775f 4b3f
000000b0: c4e5 203e 7765 53bd eb6f f0be 58a0 a63d
000000c0: e0a2 e13c 93d9 fe3c 7052 943e 4224 013f
000000d0: cd7c 17be 8852 1a3e 9800 ecbe 892f 8bbe
000000e0: c7d7 853c 503b 70be ab2e 80be ea6c 3bbf
000000f0: e193 1d3e ebb8 32be 900f 943e 7c7c a53e
0.35573673 0.05402931 0.16663155 0.1144664 0.13761435 -0.060317133 -0.12410248 0.10586826
0.48870474 -0.21784827 -0.115720786 -0.302879 0.0981906 0.19177634 0.04187246 -0.16298515
-0.30647534 0.24441102 -0.13382679 0.7651428 -0.3015299 -0.1183849 -0.2539888 0.10382696
0.013731228 0.24561936 0.04288713 0.041825574 -0.26778334 0.11004383 0.20556778 0.09105575
0.07811961 -0.18926221 -0.42501432 -0.3956516 -0.14087531 -0.16086264 0.46553308 -0.15036641
-0.39060327 -0.33264324 -0.0018325812 0.7944254 0.15712649 -0.051610436 -0.46960387 0.08136052
0.027543485 0.031109607 0.28969145 0.5044595 -0.14793701 0.15070546 -0.46094203 -0.27184704
0.016338242 -0.23460126 -0.25035605 -0.73213065 0.15388443 -0.17453353 0.28918123 0.32321537

l3_2.bias f4 [8]
00000000: 6323 3d3e 6a18 fdbd 6cee 2a3f 3f1a 6fbd
00000010: 7b2f 10bf 104e 0e3f 97dc a53e 6764 cdbe
0.1847053 -0.12358172 0.6677005 -0.05837464 -0.5632245 0.55587864 0.3239486 -0.40115663

l3_4.weight f4 [1, 8]
00000000: 42ce b13b 1a0f 8c3e 88e2 b6be 988a d43c
00000010: 7afa 383e 71b1 4cbe 2278 30be 3adb 8a3e
0.005426199 0.27355272 -0.35719705 0.025944993 0.18064299 -0.19989564 -0.17233327 0.27120382

exp_avg f4 [8, 6]
00000000: ee55 02bd a1c9 ec3b c02b 49bc f3b9 a13b
00000010: 6d4a 283c 69c6 253c 93f7 483b 44fd 27ba
00000020: 1009 8f3a fc25 d7b9 7028 82ba 8ee1 7eba
00000030: 1623 d33c 0901 bfbb c971 223c f295 82bb
00000040: 27b9 07bc 288a 05bc da63 163c 4be4 0abb
00000050: ef85 6b3b 7c66 beba ec1c 46bb 0d47 3fbb
00000060: 5885 81ba f295 a639 6cb1 05ba 9714 6e39
00000070: 1354 dd39 3624 c639 78b7 afbe eb2a 9e3d
00000080: 4eb0 06be 8980 583d 633d e03d ed8d dd3d
00000090: f5e6 74bd ebdb 5c3c f232 bcbc a8d9 173c
000000a0: f915 9c3c 9a59 993c 3080 ddba 9a4d bd39
000000b0: 3408 1eba c04b 6539 fc14 1c3a b7d1 123a
-0.03182023 0.0072261845 -0.012278497 0.004935497 0.010271651 0.010118105 0.0030665144 -0.0006408284
0.0010912735 -0.00041036296 -0.0009930264 -0.00097229413 0.025773566 -0.005828981 0.009914824 -0.00398516
-0.00828389 -0.008150615 0.00917908 -0.0021193202 0.0035937985 -0.0014526392 -0.003022964 -0.0029186637
-0.0009881658 0.00031773705 -0.0005099985 0.00022705119 0.00042215045 0.00037792482 -0.34319663 0.0772303
-0.13153192 0.052856956 0.109492086 0.10818086 -0.05979057 0.013480167 -0.022973511 0.009268202
0.019053446 0.018719483 -0.0016899165 0.00036106707 -0.0006028444 0.00021867361 0.00059540546 0.0005600708

exp_avg_sq f4 [8, 6]
00000000: 8534 f03d cc1e d83b 376e a33c 940b b63b
00000010: 3404 1f3c 17dd 963c 6548 953a 80b3 6c38
00000020: 6aac 3639 5f3a 4338 83c3 b038 434e 2c39
00000030: 665b a73d e033 973b 23bd 643c 4446 7f3b
00000040: 4166 dd3b 4d27 4e3c 4499 463c e6b5 373a
00000050: 8ab2 0c3b 71ce 183a 4a81 893a b6de 163b
00000060: 5db0 893a 55d8 9a38 5c9c 6939 5848 8038
00000070: a4ad df38 abb8 f738 fbbd 4441 bb84 2c3f
00000080: 34d3 0240 3c6b 113f a659 7e3f 26df fb3f
00000090: a7cb ba3e fb95 a23c f812 773d 98e9 883c
000000a0: 4134 f03c 9f80 743d f1a6 2b3a fa05 0638
000000b0: aeea d138 7d91 dc37 ff73 4d38 0ec4 fc38
0.11728767 0.006595468 0.019950015 0.0055555794 0.009705592 0.01841597 0.0011389373 5.6433957e-05
0.00017421102 4.6545985e-05 8.428751e-05 0.00016432353 0.0817173 0.0046143383 0.013961109 0.0038951794
0.0067565744 0.012582612 0.012121502 0.0007008001 0.0021468722 0.0005829102 0.0010490802 0.002302093
0.0010504831 7.383587e-05 0.0002227886 6.116991e-05 0.00010665812 0.00011812275 12.296382 0.6739003
2.0441408 0.5680425 0.9935554 1.9677474 0.364835 0.019846907 0.060320824 0.016712949
0.029321792 0.059692975 0.00065480085 3.1953656e-05 0.00010009609 2.6293792e-05 4.898384e-05 0.000120528144

exp_avg f4 [8]
00000000: 048a 59bc 5f55 9a3a 337a 2f3c d833 7f3b
00000010: 3f0b 19ba 694f 11be c9e7 cabc 26ea 2dba
-0.013277534 0.001177471 0.010710287 0.0038940813 -0.00058381626 -0.14190449 -0.024768727 -0.0006634317

exp_avg_sq f4 [8]
00000000: 6369 b63c 4fc8 4739 143d 7f3c a10e 1b3b
00000010: 9db1 8239 559c 1140 233a 893d 4d3d e238
0.02226705 0.0001905274 0.015578527 0.0023659843 0.00024927864 2.2751667 0.06700542 0.00010787938

exp_avg f4 [8, 8]
00000000: 0fe0 fcb7 dbee f136 4639 8537 1f55 11b6
00000010: 8627 1f37 13ba 1c37 cb49 0539 dcf4 dfb5
00000020: c8c8 6a3b 0e9a 0a39 5388 9539 d946 203b
00000030: 0dec 15bb b9ab 02bc 7295 0cbd d7f3 e5ba
00000040: 06d3 2b3b 8c32 c138 631c 5639 f4de e93a
00000050: 8dd3 daba 49d8 bebb 9790 cdbc 3331 a7ba
00000060: 9d5b fdba 39f0 97b8 40c7 24b9 903a adba
00000070: 40bb a13a a94a 8d3b a1e2 973c 317d 783a
00000080: 443c 67bb df56 ffb8 d30d 8eb9 aa30 1dbb
00000090: fd3b 133b 9642 003c 043d 0a3d a99d e03a
000000a0: efc8 003b a2c3 a138 2dbd 2b39 3eab b03a
000000b0: 7dcd a4ba 2dff 8fbb 4697 9abc 7733 7eba
000000c0: 6180 073b b623 9538 81d8 2939 fdc0 b83a
000000d0: 1aed acba 62c2 96bb 8b69 a2bc f0d4 83ba
000000e0: c229 b83a 2e2f 5d38 0a1c fd38 922b 7e3a
000000f0: 13f3 6cba 8339 4fbb bf70 5ebc 08d2 35ba
-3.0145076e-05 7.210166e-06 1.5881506e-05 -2.165623e-06 9.486341e-06 9.341648e-06 0.00012711358 -1.6686058e-06
0.0035825241 0.00013218095 0.00028521064 0.002445629 -0.0022876293 -0.007975512 -0.03432221 -0.0017543983
0.002621831 9.212372e-05 0.00020419205 0.0017842934 -0.0016695127 -0.005824123 -0.02509336 -0.0012755751
-0.0019329671 -7.244986e-05 -0.00015714485 -0.0013216306 0.001233913 0.0043118787 0.018540682 0.0009479104
-0.0035283724 -0.000121755285 -0.0002709465 -0.0023985305 0.0022466176 0.007828375 0.033749595 0.001713683
0.0019651016 7.713518e-05 0.00016378304 0.0013478769 -0.0012573447 -0.004394433 -0.01887096 -0.0009697
0.0020675885 7.111525e-05 0.0001619775 0.0014095601 -0.001319322 -0.004600809 -0.019825717 -0.0010057967
0.0014050531 5.2734445e-05 0.00012069203 0.00096958235 -0.00090389064 -0.0031619973 -0.013576685 -0.0006935899

exp_avg_sq f4 [8, 8]
00000000: 1991 b136 adc5 1734 5ecd 1636 df66 0035
00000010: 45d4 cb33 da48 6836 7982 9e37 84cb 2134
00000020: b862 8e3c 38a9 043a 92d8 693c 7ee1 b63a
00000030: 9540 013a 8b3b a13c 6c81 803d d835 fd39
00000040: 379d 163c 66f6 8b39 a3f4 f73b 2814 413a
00000050: 32de 8839 a7e3 2a3c 92ad 073d 3c92 8539
00000060: c3d2 a73b 4f76 1d39 efb3 893b 17a8 d739
00000070: 4327 1939 f0f4 bd3b 99ed 973c 73e4 1539
00000080: 41c0 873c 3151 fb39 13a6 5f3c acfc ad3a
00000090: abf2 f539 8514 9a3c 4024 743d 4b2e f039
000000a0: 5243 b03b 0fc5 2539 4a21 903b 052a e339
000000b0: fd69 2039 bbf8 c63b 1ae5 9f3c 28ec 1d39
000000c0: b63c bd3b ebe2 2f39 a98c 9b3b ead5 f239
000000d0: 9e9e 2b39 d369 d63b 3682 aa3c b0e9 2739
000000e0: 7092 343b 9379 a938 4eb9 143b 958d 6839
000000f0: f150 a438 c412 4d3b 0bc1 233c 599c a138
5.2919027e-06 1.4134885e-07 2.2471281e-06 4.7833413e-07 9.491536e-08 3.46131e-06 1.8895824e-05 1.5068332e-07
0.017381057 0.0005060616 0.014272826 0.00139527 0.0004930583 0.019681713 0.06274685 0.00048296037
0.009192756 0.00026695727 0.0075670048 0.0007365369 0.0002610549 0.010430253 0.033124514 0.0002547669
0.0051215603 0.0001501676 0.004202358 0.00041133232 0.00014605843 0.005797021 0.018545913 0.00014294851
0.016571166 0.00047934943 0.013650435 0.0013274155 0.00046910843 0.018808613 0.059604883 0.00045810858
0.005379119 0.00015809036 0.0043984996 0.0004332812 0.00015298273 0.0060721315 0.019518424 0.00015060662
0.0057750596 0.00016773834 0.0047469926 0.00046317215 0.0001636692 0.006543377 0.020814043 0.00016013416
0.0027553104 8.081193e-05 0.0022693458 0.00022177988 7.835206e-05 0.0031291703 0.0099947555 7.7062e-05

exp_avg f4 [8]
00000000: 0ccd f3b8 ee86 e13c e512 a53c 47b1 73bc
00000010: ce0c debc 74c8 773c 857d 823c 2d92 323c
-0.00011625336 0.02753016 0.020150611 -0.014873809 -0.027105715 0.015123475 0.015928993 0.010899109

exp_avg_sq f4 [8]
00000000: 81b2 c737 9023 ae3d e1dc 373d 2eed cd3c
00000010: ba67 a53d 8990 d83c f905 e73c 58df 5d3c
2.3805771e-05 0.08502877 0.04488838 0.02513751 0.08076425 0.026436107 0.02820109 0.013542019

exp_avg f4 [1, 8]
00000000: d8b2 98ba 14fe 983b 1125 1dbd a6c7 413c
00000010: 2f4b 193d c095 1fba 1ce2 0fbd de2c 57bc
-0.0011649979 0.0046689603 -0.038365427 0.011827385 0.037425216 -0.0006087683 -0.035127744 -0.013133256

exp_avg_sq f4 [1, 8]
00000000: 39a3 903a 81ad bb3d f2d5 373e 3afe a93d
00000010: aa98 233e b0ec 873c 37f6 2a3e 63db e63c
0.0011034972 0.091639526 0.17952707 0.08300443 0.15976205 0.016592354 0.16695486 0.028180784

exp_avg f4 [8, 6]
00000000: 71d5 b1bd 571b b33c 2598 03bd 887f 353c
00000010: 172a fb3c 4f1e 453d 3fa1 9f3d 72c3 a0bc
00000020: 5d48 ed3c cf21 25bc 2f04 e1bc 3386 2ebd
00000030: 4676 a1b9 388d 8838 3d86 4ab8 9761 d3b7
00000040: 1081 0239 b2fe b939 1740 d73d 6e6f d7bc
00000050: 8230 1e3d 4450 59bc 2f0a 17bd 9606 6fbd
00000060: 7f0a 4abd 6f0d 4c3c 72d6 96bc 01b0 d23b
00000070: 1770 8e3c 19c0 db3c 2dce 1a3e 8fbb 1bbd
00000080: c84d 653d d0b8 9ebc d528 5abd e589 aabd
00000090: 7f18 8c3d 6910 8cbc ace8 cc3c 419c 0bbc
000000a0: bbcf c4bc ba5f 1dbd 275e 30be a748 313d
000000b0: 5372 82bd 7f53 b43c 5e68 783d 479e c23d
-0.08683289 0.021863623 -0.03212752 0.011077769 0.030659718 0.048124608 0.07794427 -0.019624446
0.02896517 -0.010078861 -0.027467815 -0.04260845 -0.00030796434 6.5112894e-05 -4.8285572e-05 -2.5198604e-05
0.00012445846 0.00035475713 0.10510271 -0.026298251 0.03862048 -0.013263766 -0.036874946 -0.05835589
-0.049326416 0.012454375 -0.018412802 0.0064296727 0.017387433 0.026824998 0.15117712 -0.038020667
0.05598238 -0.019375235 -0.053261597 -0.083270825 0.0684061 -0.017097669 0.02501329 -0.008521141
-0.024024835 -0.03842137 -0.17223416 0.043282177 -0.06369462 0.02201247 0.060646407 0.09502845

exp_avg_sq f4 [8, 6]
00000000: 000d 783f dbfd 973d ec93 5b3e a5ee 803d
00000010: f4a5 c43d fb11 e23d 1f39 413f 02c0 6d3d
00000020: 42c6 2b3e 29fc 493d 20cb 993d fa77 b13d
00000030: b2ad 163a a97a 2738 1d19 f338 aa51 0d38
00000040: bc8f 5838 9e49 6838 0016 b13f 848c da3d
00000050: 37e3 9d3e df79 b93d 1966 0d3e 7940 233e
00000060: 3280 943e 94df b63c 6a35 843d 1739 9b3c
00000070: 83a1 ec3c c01e 083d 0206 3940 789c 633e
00000080: fe79 243f 2150 413e e13b 933e 22b5 a93e
00000090: a7dd 1f3f 0a04 453d 544d 0e3e b43a 273d
000000a0: aedf 7e3d 2e08 933d 6d91 7140 d3a1 943e
000000b0: 03ce 563f c36d 7c3e 8c4c c03e 8995 dd3e
0.96894836 0.07421466 0.21443146 0.06295518 0.096019655 0.11038586 0.75477785 0.05804444
0.16774848 0.049312744 0.07509446 0.08665462 0.00057479285 3.993014e-05 0.00011591821 3.3693075e-05
5.1632276e-05 5.538167e-05 1.3834839 0.106713325 0.30837414 0.09056448 0.13808478 0.15942563
0.29004055 0.022323407 0.064555004 0.018948121 0.028885609 0.03323245 2.8909917 0.22227657
0.64248645 0.18878223 0.2875662 0.33146006 0.6244759 0.048099555 0.13896686 0.040827468
0.062225036 0.071792945 3.774501 0.29029712 0.839081 0.24651246 0.375584 0.4327815

exp_avg f4 [8]
00000000: 148c 24bd ecb1 133d 1ce7 fab8 2bec 453d
00000010: 1277 bbbc b712 8f3d a0ad 003d 4fdf a2bd
-0.04017265 0.03605835 -0.000119639764 0.04832093 -0.022883926 0.069859914 0.03141558 -0.07952749

exp_avg_sq f4 [8]
00000000: 0e49 803e eeaa 483e 685b 0d39 2576 b83e
00000010: 9b59 9a3d 3c1c 403f 6349 263e 3be6 7a3f
0.25055736 0.19596455 0.0001348086 0.36027637 0.07536622 0.7504308 0.16238932 0.98007554

exp_avg f4 [8, 8]
00000000: 0663 0fb8 a63d 383b 482b 4e3a 0ad5 2dbb
00000010: 1b93 bcbc dbd3 d9bb e120 dbbc b11d 333c
00000020: 98d9 02b8 0a92 1e3b 8f16 313a 207a 15bb
00000030: 041b a2bc b11b bbbb 3c5c bcbc 54eb 193c
00000040: 95eb 0538 daed 13bb a70a 25ba be46 0b3b
00000050: 924c 973c 54b2 ae3b 2dc8 af3c f5ae 0fbc
00000060: b0f5 cdb6 1b4f 43b7 e19f 3fb6 0de3 65b6
00000070: 154d 0e39 c0cf 5838 cfc9 1f39 839c 98b8
00000080: 71db e137 89ae 7538 2f60 6637 d4c1 aab8
00000090: 698a 63b8 fee6 7938 d124 e0b8 0234 dab7
000000a0: 7209 1938 ced7 48bb 7edd 60ba a57c 3d3b
000000b0: 21a5 cd3c 5ba0 ed3b 34f8 ee3c 9c5d 43bc
000000c0: 4cc4 a736 3825 3db8 783a 90b6 1ff3 2138
000000d0: a6b5 3d39 8453 fd36 ab6b 5239 415e 3eb8
000000e0: fbd7 97b5 8d64 ee37 e75a c836 b9f5 61b7
000000f0: c133 78b9 1282 9db8 652a 8eb9 e263 f938
-3.418608e-05 0.0028112917 0.0007864726 -0.0026524686 -0.023019364 -0.0066475696 -0.026749076 0.010932372
-3.1197065e-05 0.0024195933 0.00067553757 -0.0022808388 -0.019788273 -0.005710088 -0.0229932 0.0093944855
3.1929074e-05 -0.002257219 -0.0006295838 0.0021251882 0.018469129 0.005331317 0.021457756 -0.00876974
-6.138078e-06 -1.1641324e-05 -2.855428e-06 -3.425582e-06 0.0001357089 5.1691895e-05 0.00015238601 -7.2770774e-05
2.6924276e-05 5.85751e-05 1.3731463e-05 -8.142335e-05 -5.4249922e-05 5.9581354e-05 -0.0001068801 -2.6011843e-05
3.648684e-05 -0.0030646208 -0.0008577927 0.0028913405 0.025103154 0.007251782 0.029171087 -0.011924174
4.99984e-06 -4.5095774e-05 -4.298341e-06 3.8611815e-05 0.00018092114 7.54971e-06 0.0002006727 -4.538731e-05
-1.1313235e-06 2.8418634e-05 5.971047e-06 -1.3468257e-05 -0.00023670403 -7.510571e-05 -0.00027115937 0.0001189185

exp_avg_sq f4 [8, 8]
00000000: 3937 763c 276c d83c cec0 e63a f2fa 103d
00000010: f661 1e3d 874f f63c cb99 5a3d 1ea9 ae3c
00000020: c2d4 363c 21a1 a03c 6f48 ab3a fc4c d73c
00000030: 9124 eb3c 8dd2 b63c 634c 223d fda8 813c
00000040: 3c22 1f3c 27d8 8b3c d228 953a 4268 bb3c
00000050: 25a0 cc3c e130 9f3c 6b3e 0d3d 62cf 613c
00000060: 3233 ac35 9eb5 1336 4cca 1e34 03f9 6e36
00000070: 83da 7f36 2471 1836 f08d b136 f423 d435
00000080: a26f 0136 9629 7e36 9221 7f34 9070 a136
00000090: 0150 b236 15cb 8836 696d ed36 a0e3 3c36
000000a0: e540 923c b091 003d 4b12 093b d440 2c3d
000000b0: f52c 3c3d 524e 123d f4d9 813d a17b cf3c
000000c0: ac15 e635 7176 8a36 ba56 8634 a910 9d36
000000d0: 5d47 c436 c053 8536 8d56 fe36 a1bc 2f36
000000e0: 0e6d 3337 8c9f a637 e748 b735 f52f e037
000000f0: c1d3 f037 5a57 bc37 b55f 2838 882e 8637
0.015027815 0.026418759 0.0017605068 0.03539557 0.03866764 0.030067218 0.053369325 0.021320876
0.011159124 0.019608082 0.0013067852 0.026281826 0.02870396 0.022317195 0.03962363 0.01582765
0.009712752 0.017070843 0.0011379963 0.022876862 0.024978707 0.019432487 0.034483355 0.013782354
1.2829898e-06 2.2010422e-06 1.4788492e-07 3.5609708e-06 3.8125152e-06 2.2715622e-06 5.2915348e-06 1.5805695e-06
1.9287477e-06 3.7873156e-06 2.3760938e-07 4.811278e-06 5.314127e-06 4.0767577e-06 7.0758874e-06 2.8146678e-06
0.01785321 0.03138894 0.0020915444 0.042054012 0.045941312 0.035719223 0.063403994 0.025327506
1.7142643e-06 4.126509e-06 2.5022547e-07 4.680904e-06 5.849563e-06 3.9734587e-06 7.5798657e-06 2.6186829e-06
1.0694623e-05 1.9863037e-05 1.365578e-06 2.6725213e-05 2.8708835e-05 2.2452023e-05 4.0143455e-05 1.5995713e-05

exp_avg f4 [8]
00000000: 8e33 033d 6396 e13c 2e82 d2bc fbd1 2fb9
00000010: e4ce 4139 e511 0fbd e558 96b9 2348 a439
0.03203159 0.02753753 -0.02569684 -0.00016767524 0.00018482987 -0.034929175 -0.0002867646 0.00031334264

exp_avg_sq f4 [8]
00000000: b58c 213e e2cd ef3d 24b1 d03d c632 7e37
00000010: 9c42 b137 b7ef 3f3e 8d61 b837 5e41 ec38
0.15776332 0.11709191 0.10190037 1.5151401e-05 2.1131062e-05 0.18743788 2.1979935e-05 0.000112655325

exp_avg f4 [1, 8]
00000000: 007e a63b a06a a1bb 380a f33b 60da d0b9
00000010: cca7 33bb 5085 36bc 09e7 df39 a267 26bc
0.0050809383 -0.004926041 0.0074169897 -0.00039835554 -0.0027413247 -0.011140183 0.0004270601 -0.010156544

exp_avg_sq f4 [1, 8]
00000000: d03e ad3e a9d0 b33e b9cc 823e 5176 5d3b
00000010: 0690 163a 3612 0a3f 7916 7a39 8dbd 1e3c
0.33836985 0.35120133 0.25546816 0.0033792446 0.0005743507 0.5393404 0.0002385023 0.009688747

exp_avg f4 [8, 6]
00000000: 6706 a0bd 9f6a 943c f351 03bd 1921 6f3c
00000010: f7e6 b73c d489 a73b b1ae 273d ef79 1bbc
00000020: 0192 893c e679 fabb 46aa 40bc 6187 2fbb
00000030: 92ff 253d c75f 19bc 40c7 873c bdc4 f6bb
00000040: 5736 3ebc 798c 2dbb da93 4d3e 7d52 3ebd
00000050: 0f71 a83d 8836 19bd cef2 6bbd 3e5c 57bc
00000060: c85a 02bd b35f f13b c09b 55bc 4a46 c23b
00000070: e5aa 153c b5fa 083b 131e 6cba 2d75 4d39
00000080: a422 b7b9 cf5c 1f39 1e83 8339 fee7 8d38
00000090: 8cc6 d1bd 595f c23c 9b01 2cbd c988 9c3c
000000a0: b0e4 f03c 9882 db3b bca8 46bb 9b4a 3f3a
000000b0: d558 a8ba f709 1c3a 263e 6b3a 3f57 5339
-0.07813721 0.018117247 -0.032060575 0.014595293 0.022449 0.005112866 0.040938083 -0.00948952
0.016793253 -0.007643926 -0.011759346 -0.0026783573 0.040526934 -0.009361214 0.016574502 -0.0075307772
-0.011609635 -0.0026481433 0.20075932 -0.046465386 0.08224689 -0.03740552 -0.057604603 -0.013144551
-0.031824857 0.0073661446 -0.013037622 0.0059287893 0.009134983 0.0020901386 -0.0009007167 0.00019593975
-0.0003493029 0.00015197996 0.00025083957 6.766616e-05 -0.10242948 0.023727106 -0.04199372 0.019108193
0.029405922 0.0066989176 -0.0030312976 0.0007297189 -0.0012843857 0.00059524126 0.00089737994 0.0002015503

exp_avg_sq f4 [8, 6]
00000000: 9128 2940 8048 823c f50b 343d cfd2 783c
00000010: 591c 953c 9252 d63c e465 683f 2b73 a23b
00000020: 24d4 623c 2736 9b3b f716 ba3b be24 0b3c
00000030: 917b 493f 8632 9f3b 66ec 5c3c 8a9d 973b
00000040: 8f25 b73b 3be2 0d3c c71b 8541 c3bd d83d
00000050: 6901 953e b4d7 ce3d 5e07 f83d 2499 343e
00000060: 3245 013f 3541 563b aaea 133c e0ed 4b3b
00000070: 3e95 763b a1e8 c43b 9413 f03b fc35 5238
00000080: 0082 1039 a4ff 4638 1965 7338 24aa ef38
00000090: e575 9140 6772 e23c 4073 9c3d a729 d83c
000000a0: afa5 013d 8f1c 3c3d c444 2e3c bba8 3c38
000000b0: 1783 0739 69a7 3538 ff3b 5738 14c3 9c38
2.643101 0.015903711 0.043956716 0.015186979 0.018201994 0.02616242 0.9078047 0.0049575767
0.013844524 0.00473668 0.005679007 0.008492647 0.7870417 0.004858318 0.013484096 0.0046269344
0.005589194 0.008659895 16.638563 0.10583069 0.29102638 0.10099736 0.1211078 0.17636544
0.5049621 0.0032692675 0.009028116 0.0031117126 0.0037625576 0.006009177 0.0073265526 5.011818e-05
0.00013781339 4.7444963e-05 5.802987e-05 0.00011428099 4.5456414 0.027642442 0.0763917 0.026387049
0.03165215 0.045925673 0.010636512 4.4979835e-05 0.00012923438 4.3309676e-05 5.131587e-05 7.474996e-05

exp_avg f4 [8]
00000000: 095a 08bd 6ed6 8e3c 06e8 8c3c d2d9 ae3d
00000010: a7c0 5dbc 8bc1 bcb9 6a92 32bd c7bd afba
-0.03328899 0.017436232 0.017200481 0.0853764 -0.013534701 -0.00036002355 -0.043596663 -0.0013407998

exp_avg_sq f4 [8]
00000000: dcec 5b3d b71c 893c e95d 863c 77ef b63e
00000010: 5ad6 343c 896c 3139 9920 bf3d ce3b 1f39
0.053692684 0.016737325 0.016402202 0.35729572 0.0110374335 0.00016920468 0.093323894 0.000151857

exp_avg f4 [8, 8]
00000000: 3bef 4f39 19ab 25b9 3e6b 6b39 2b82 8239
00000010: 5690 c2b8 697a 93b8 32fd 5337 d309 7338
00000020: 2833 0e3c 9ff1 dfbb 32e4 2b3c 7347 403c
00000030: 1daa 93bb ea56 5abb b427 4439 af16 2f3b
00000040: 9acc 39bc 584f 123c 348a 60bc ab2a 7bbc
00000050: 81de c03b 3a9a 8e3b 191e 81b9 b0b9 64bb
00000060: e15c 663a c73f 36ba 0552 873a 6ba6 973a
00000070: f9f3 e6b9 b241 acb9 8f04 1538 0a6e 8a39
00000080: 0045 bc3b 1848 94bb 6b46 e33b a940 fe3b
00000090: 6c2e 43bb 925b 10bb bd40 0739 dd8d e73a
000000a0: 1d56 d0bb 1016 a43b 7182 fbbb d9ab 0cbc
000000b0: f4f7 573b dcbb 1f3b f277 15b9 b61f 00bb
000000c0: 8739 b3bb 1322 8d3b 0594 d8bb 8a46 f2bb
000000d0: bf0b 3a3b b18e 093b 929f f9b8 469f dcba
000000e0: 1cf3 0c3c a0f8 ddbb 7c65 2a3c 349b 3e3c
000000f0: 5d62 92bb a970 58bb 4cd8 4139 6d90 2d3b
0.00019830179 -0.00015799365 0.00022451297 0.00024892515 -9.2775255e-05 -7.032307e-05 1.2635532e-05 5.7944864e-05
0.008679189 -0.0068342234 0.010491418 0.011735785 -0.004506363 -0.0033315965 0.00018706807 0.0026716401
-0.011340285 0.00893005 -0.013704825 -0.015329997 0.0058858995 0.0043518813 -0.00024627222 -0.0034900717
0.0008787644 -0.00069522526 0.0010324126 0.0011569982 -0.00044050792 -0.00032855343 3.5528614e-05 0.00026403397
0.00574553 -0.004525196 0.0069358847 0.007759173 -0.0029782308 -0.0022027236 0.0001289872 0.001766618
-0.0063579218 0.005007513 -0.007675462 -0.008585894 0.0032954188 0.0024373448 -0.0001425443 -0.0019550151
-0.0054695043 0.0043070405 -0.006609442 -0.007393663 0.002838835 0.0020989592 -0.000119029675 -0.0016832135
0.008602884 -0.006774023 0.010400172 0.011633683 -0.004467292 -0.0033026135 0.00018486491 0.002648379

exp_avg_sq f4 [8, 8]
00000000: 1442 2439 7cf4 2039 4843 4438 862a 6137
00000010: aabe 1d37 eaf3 8835 8cd0 1339 def6 cb35
00000020: f0c6 213d f001 1e3d 6663 4e3c cce3 8d3b
00000030: 1a9a 033b 7688 f639 8108 083d ada3 4f3a
00000040: 150b 873d d0cb 833d 23e8 ab3c 37fa ec3b
00000050: b923 5b3b 029d 4c3a 4fb8 623d 2f69 ab3a
00000060: cb7e 9838 81f9 8a38 b8a1 c237 4c1c 4137
00000070: 2168 4036 7a76 9b35 19bf 4938 f95c f235
00000080: 3d6c 8d3c 963f 8a3c 4437 b53b b128 f83a
00000090: 97de 663a 6e6d 5539 d564 6e3c 2f31 b539
000000a0: 8b1d ab3c 4333 a73c a91c db3b aa39 163b
000000b0: 7364 8b3a d6a1 8039 9616 903c 6022 d939
000000c0: 333a 823c ebb9 7e3c 3b5b a73b 4e84 e43a
000000d0: 06ce 543a 0b36 4339 77dc 5b3c 4e77 a639
000000e0: c57b 1d3d 81cf 193d 603c 493c a239 8a3b
000000f0: 181c 003b 1451 ed39 d277 043d 1f5d 483a
0.00015664875 0.00015349867 4.6792702e-05 1.3420946e-05 9.402322e-06 1.0203778e-06 0.00014096702 1.5196526e-06
0.039496362 0.038576066 0.012596941 0.004330134 0.0020080865 0.00047022448 0.033211235 0.0007920813
0.065939106 0.064353585 0.020984715 0.0072319764 0.003343804 0.00078053784 0.05535155 0.0013077612
7.271542e-05 6.6268265e-05 2.3201908e-05 1.1510285e-05 2.867084e-06 1.1582881e-06 4.8100108e-05 1.8057464e-06
0.017263526 0.016876023 0.00553027 0.0018933025 0.0008806972 0.00020354029 0.014550407 0.00034559655
0.02088811 0.020410186 0.006686766 0.0022922554 0.0010634795 0.0002453464 0.017588895 0.00041415077
0.015896892 0.015547256 0.005107311 0.0017434449 0.0008117858 0.00018616782 0.013419262 0.00031750876
0.038448114 0.037551407 0.012282461 0.004218296 0.0019547995 0.0004526457 0.032340832 0.00076432707

exp_avg f4 [8]
00000000: 0069 19ba 2442 dcbc a8de 0f3d c010 2fbb
00000010: f6ad 91bc d734 a13c e4c6 8a3c 2456 dabc
-0.0005852133 -0.026887007 0.03512445 -0.0026712865 -0.017783146 0.019678516 0.016940542 -0.026652403

exp_avg_sq f4 [8]
00000000: 5a82 c038 b84d 113d 6ff4 723d 6623 de38
00000010: c151 7d3c 674b 993c 733e 683c 6b2e 0d3d
9.179553e-05 0.03547451 0.05931514 0.000105923784 0.015461386 0.018712712 0.014175045 0.034468096

exp_avg f4 [1, 8]
00000000: a26c 2b3b 3a15 2a3c ba3c 3fbd e3bf 053c
00000010: be9d 053d ef5a d8bc 9e11 d3ba 51bf 023c
0.002615728 0.010381037 -0.046688773 0.008163425 0.032621138 -0.026410548 -0.0016103273 0.007980184

exp_avg_sq f4 [1, 8]
00000000: d7c9 923b 89df dc3e be1a 5f3f dab7 cc3a
00000010: ad53 413f 2e88 d63e f013 b53e 3606 f63e
0.0044796276 0.43139294 0.8715018 0.0015618757 0.75518304 0.41900772 0.35366774 0.48051614
