trained_models/binaries/model_up.pth (torch, 26043 bytes, 51 tensors)

l1_1.weight f4 [8, 6]
000000 02 85 5f be 90 73 13 bd f9 99 8c bd a8 66 fb 3e
       -0.21828082 -0.03599888 -0.068653055 0.49101758
000010 f5 2b a5 3f ba 43 13 3e ea 26 4b 3b 37 62 0a 3f
       1.290404 0.14381304 0.0030998536 0.54056114
000020 08 dd 2c 3e 69 be a9 3e 1d 98 65 bf d0 5c fe bc
       0.16881192 0.33153084 -0.8968523 -0.031050116
000030 45 07 ae 3b b8 9f a1 be da eb 55 3e 55 ac 65 3e
       0.005310925 -0.31567168 0.20890751 0.2242902
000040 6f e5 a5 3e 04 86 fe 3d 1d a3 2b 3e 1b 79 6f bd
       0.32401606 0.12427905 0.16761442 -0.058465105
000050 8c b2 bd 3e 13 e9 a5 bd 12 63 b4 3f ec 76 4d 3e
       0.37050283 -0.08101096 1.4092734 0.20064896
000060 c2 f9 97 bc 7f f4 ba 3e cf a8 c1 be 1b 82 a8 be
       -0.018551711 0.3651466 -0.37824103 -0.32911763
000070 ba 1c 7c bf 3b fa f8 bb 59 6a d8 bb ee ef 04 3f
       -0.98481333 -0.007598189 -0.0066044745 0.51928604
000080 f0 83 4c be 03 e6 6f 3e 64 36 44 bf 90 dd aa bc
       -0.19972205 0.23427586 -0.76645494 -0.020857602
000090 17 b1 93 bc 20 93 dc 3e ea 99 07 3e c7 03 f3 3d
       -0.018028779 0.43080997 0.13242307 0.11865955
0000a0 fd 51 56 bf c8 bc f4 bd 15 1d a0 bd c5 4a 17 3e
       -0.83718854 -0.1195007 -0.07818047 0.14774616
0000b0 3d 7a 1e bd c4 57 3a bc b2 8f 78 bf e3 dc 96 bd
       -0.038690794 -0.011373464 -0.9709426 -0.073663495

l1_1.bias f4 [8]
000000 89 5f ac 3d df b0 8e be 75 cc ae bd f3 bc 21 3f
       0.084166594 -0.27869317 -0.08535091 0.6317894
000010 dc 2f 76 be 7d ed 95 3d 50 ad 7f be 00 ac d9 be
       -0.24041694 0.07320688 -0.24968457 -0.42514038

l1_2.weight f4 [8, 8]
000000 b9 e1 cf 3e ba a9 10 3e 25 1e 8b be 82 5a b9 3d
       0.406019 0.14127246 -0.27171436 0.09050466
000010 56 5e 96 3e 4d f4 63 bc f1 69 8d bd f2 2b 4d be
       0.29368848 -0.013913226 -0.06904972 -0.20036295
000020 86 3a 34 bf c6 a0 f0 bb 17 68 cd bd c3 78 1d bf
       -0.704018 -0.0073433844 -0.10029619 -0.6151239
000030 4a fd b1 3e 8d 7c 60 3d 4a 5c bf 3e b1 c2 08 3f
       0.34763557 0.05480628 0.37375098 0.53422076
000040 a1 ad bc 3e 74 4b ef bd 27 69 16 be 7f 5f 58 3d
       0.36851218 -0.116843134 -0.1468855 0.052825447
000050 fe 15 5b bd f8 ac bc 3e 4c 33 eb be e2 31 b3 be
       -0.05348777 0.36850715 -0.45937574 -0.34998995
000060 68 c8 cf bd d3 24 a3 3d 0b c3 5b 3b bc d2 6c ba
       -0.10145646 0.07966008 0.0033533003 -0.00090340874
000070 9a ec 4f 3e 9f d6 96 3c 9a 64 da bd 40 24 f0 bd
       0.203051 0.018412886 -0.106637195 -0.11725664
000080 e6 78 e9 3e 6a 09 53 be 61 c4 c5 bd 85 3f d9 3e
       0.4560005 -0.2060906 -0.09656597 0.42431274
000090 b2 85 45 3e fb 55 6b 3d 6a f0 80 be bf 09 07 be
       0.19289282 0.057455044 -0.2518342 -0.13187312
0000a0 c1 0c f1 be 52 27 8f 3d 7d b7 89 3e 62 0c 15 bf
       -0.47080043 0.06989922 0.26897803 -0.5822202
0000b0 aa bd 80 be 6c 7d 2b be 0f 64 9e 3e 9a 6a 07 3f
       -0.25144702 -0.16747063 0.30935714 0.52897036
0000c0 9e 3b 56 3f b6 00 b5 3e 86 52 a2 3e 7d 2b d0 39
       0.8368472 0.35352105 0.31703585 0.00039705253
0000d0 d9 f1 1f 3e 2f d8 7c be 76 ec a5 be 68 72 17 bf
       0.15619601 -0.24691842 -0.32406968 -0.59158945
0000e0 d8 17 8b be 0b cc 59 3e b6 75 85 3e e2 8f 02 bf
       -0.2716663 0.21269242 0.2606637 -0.510008
0000f0 0d ff c0 3e 94 43 56 bd 3b db a7 3e 19 77 09 3f
       0.37694588 -0.05231054 0.32784447 0.53697354

l1_2.bias f4 [8]
000000 06 92 b3 3e bf ff 15 bf 7c be ec 3e 59 cd f0 bd
       0.35072345 -0.5859336 0.46239078 -0.11757917
000010 af f1 bd 3e ec 21 20 be 17 7b 25 3e 4a 5d 67 bd
       0.37098452 -0.1563794 0.16160236 -0.05648545

l1_3.weight f4 [8, 8]
000000 36 87 7b 3e 20 f9 b0 3d 3f 3c a9 3e 30 b7 aa be
       0.24563298 0.08641267 0.33053777 -0.33342886
000010 e5 1c 02 be 60 ce 71 bc 6e bb 2d 3e 22 d6 6d be
       -0.12706335 -0.014758676 0.1696603 -0.23226216
000020 2b 6e a1 3e b3 57 2d be e3 1c aa be 91 a7 97 3e
       0.31529364 -0.16927986 -0.33225164 0.2962003
000030 f4 8d cb 3d f2 01 03 3e 50 6d 54 bd 5a 86 ad be
       0.09939185 0.12793711 -0.05186206 -0.33891565
000040 0e 5b 57 3e 80 5d 2d 3c 26 53 2a 3e 08 29 1e bd
       0.21030828 0.010581374 0.16633281 -0.03861335
000050 e7 e3 8d 3e d2 d9 9f be a8 1e a4 3d 96 4d 5d 3e
       0.27712938 -0.3122087 0.0801366 0.21611628
000060 0e e3 2c 3e c0 59 41 bd bc 49 68 be b2 83 19 3e
       0.1688349 -0.047204733 -0.22684377 0.14991644
000070 d0 37 18 3d 36 82 57 3e a4 9a ec 3d 68 5a 51 be
       0.037162602 0.21045765 0.11552933 -0.20444643
000080 da ed 6f 3e c0 e6 bb bb 0a 0c 0e be 82 e7 33 3e
       0.23430577 -0.0057342947 -0.1387178 0.17568782
000090 af af 88 3e b8 6e 96 be 30 f5 84 be 25 13 27 be
       0.26696536 -0.29381347 -0.25968313 -0.16315897
0000a0 d1 d8 a7 3e 10 ef ac bc 22 36 30 3e 61 2d 04 be
       0.32782605 -0.021110088 0.1720815 -0.12907936
0000b0 ec 12 ea 3d ff 41 b4 be 89 20 82 3e 14 cf 75 be
       0.1142939 -0.352066 0.25415447 -0.24004775
0000c0 88 31 93 be d0 43 e7 3d 00 76 16 bd fa 4f a7 be
       -0.28748727 0.11292231 -0.036733627 -0.32678205
0000d0 65 8f b3 3e 18 0c 89 bd 8d eb 91 3e d0 0c a8 3c
       0.3507034 -0.0669176 0.28500023 0.020513922
0000e0 bb 41 1d be de 47 37 3e 3f 87 8d be 20 0f 53 bc
       -0.15357105 0.17898509 -0.27642247 -0.012882024
0000f0 e4 d9 d8 bd dc 91 a0 bd 80 58 e8 3c 1e f8 82 be
       -0.10588434 -0.078403205 0.028362513 -0.25579923

l1_3.bias f4 [8]
000000 f7 fc 46 be a0 8f e0 3d ee 67 0b 3e f2 ca b2 be
       -0.19432436 0.10964894 0.13613865 -0.3492046
000010 40 c2 a4 3d c2 7b a1 be 20 a2 2c 3d 14 47 aa 3d
       0.08044863 -0.31539732 0.042146802 0.08314338

l1_4.weight f4 [1, 8]
000000 01 b4 e2 3d 75 21 79 bf 8f 37 4b 3e de 75 32 39
       0.11069489 -0.97316676 0.19845413 0.00017019312
000010 7d c9 e5 3e 43 1d ae be e7 11 d6 3e fe 28 5f be
       0.44880286 -0.340067 0.41810533 -0.21792981

l2_1.weight f4 [8, 6]
000000 45 cc ca bc 69 dc ae be f7 f0 e1 be 99 cd 43 3f
       -0.024755606 -0.34152535 -0.44129154 0.7648559
000010 50 79 1d bf a6 b8 27 3e 1c 06 8c bd 89 be 05 3e
       -0.61513233 0.16379032 -0.06837103 0.13060965
000020 59 e4 05 3f 80 fb 99 bf 85 30 15 3f 1c 92 8f 3e
       0.52301556 -1.2029877 0.5827716 0.2804116
000030 bf 97 b5 bd a5 bf 8a 3e ec 92 90 3e 86 17 95 bf
       -0.08866834 0.27099338 0.28237092 -1.1647804
000040 a5 a8 8f 3f 7f 33 23 3e 2d 5d c7 3d c7 d5 f0 3c
       1.1223341 0.15937613 0.09734569 0.029398812
000050 98 ab 6e 3c 4b 63 84 bf 91 d2 1e 3f 34 01 07 bd
       0.014567278 -1.0342802 0.6204005 -0.03296013
000060 c2 79 81 bd 56 cc 0f 3d 41 e0 82 3c fe b2 60 3f
       -0.063220516 0.03510698 0.015976073 0.8777312
000070 7c b9 3a bf 34 87 75 be 62 6b 64 3d 34 cd e2 bd
       -0.72939277 -0.23977357 0.05576647 -0.11074296
000080 21 d4 11 be 64 b0 b2 3e 45 9c a2 be 3e 75 5e bd
       -0.14241077 0.349002 -0.3175985 -0.05431103
000090 1f b9 64 be 61 f0 98 3e 2b 5e 48 3e 76 dd ec 3e
       -0.22336243 0.29870895 0.19567172 0.4626271
0000a0 6f 54 d1 be 06 0a b4 3e 47 b0 21 bd 27 bd 24 3d
       -0.4088473 0.35163897 -0.03947475 0.040219452
0000b0 72 f7 53 bc 1c 08 8c 3f 00 92 55 bf a0 db 1e be
       -0.0129374135 1.0939975 -0.83425903 -0.15513468

l2_1.bias f4 [8]
000000 ba 98 02 3e 8a d2 d9 be c6 85 40 3e 0a 4a 4c be
       0.12753573 -0.4254344 0.1880103 -0.19950119
000010 49 9d b4 3e 8f 4c 77 3e 62 2e 82 3b 0e e2 90 bd
       0.3527625 0.24150299 0.0039728144 -0.070743665

l2_2.weight f4 [8, 8]
000000 05 8c 16 3d 5d cc 1d 3e 55 a9 e6 3e fc d1 ac be
       0.036754627 0.1540999 0.45051065 -0.33753955
000010 fd b3 84 3c 5c c1 b2 3e e3 e2 55 be 71 ef dd 3d
       0.016199106 0.34913146 -0.20887332 0.108366854
000020 33 70 35 3e 7e 54 c4 be 24 f4 63 be 54 6d cd 3d
       0.17718582 -0.38345712 -0.22261101 0.10030618
000030 80 6e b8 3e dc 87 64 3d 29 26 29 bd ac d4 9b 3e
       0.36021805 0.055793628 -0.041296158 0.30435693
000040 6b 9e 86 3e 5d de dd 3e 14 33 1c 3e 6e d9 0d 3e
       0.26292738 0.43333712 0.1525386 0.13852474
000050 a3 f2 e2 3d 99 9b 69 3d 2f fc 8d bd 67 d2 b4 be
       0.110814355 0.057033155 -0.06932866 -0.35316774
000060 4a ad 2b 3e e7 e1 8f be 7b 19 56 bf 5d 02 d8 bd
       0.16765323 -0.28102037 -0.8363263 -0.10547326
000070 d7 0b aa 3e 9a 92 32 be a1 1d 06 bd e1 46 a0 3e
       0.33212158 -0.17438737 -0.0327431 0.31304076
000080 0f 3f 19 be e1 dc d8 bc c3 6c 8b 3d 62 92 da 3b
       -0.14965461 -0.02647251 0.06807854 0.006670282
000090 b2 f4 cd be 51 48 51 3e 7f 0b fc bd f9 f9 80 be
       -0.4022575 0.20437743 -0.1230688 -0.25190714
0000a0 49 dc ae 3d 1b 76 f6 be 43 1c 16 bf 4b 5b 63 3e
       0.0853811 -0.48136982 -0.58636874 0.22202794
0000b0 0e f7 02 3f b2 5c 4b 3e 79 03 52 3e aa 67 ca 3e
       0.51158226 0.19859579 0.20509137 0.39532214
0000c0 f8 fc 1f 3e d4 ff 17 3f d2 f0 27 3f 67 19 28 3e
       0.15623844 0.5937474 0.6560184 0.1641594
0000d0 db e3 f2 bc af 77 5d 3a c1 47 08 be 11 61 df be
       -0.029649666 0.0008448315 -0.13308622 -0.43628743
0000e0 d7 b3 66 be 5b 33 ff 3e 2e df 24 3f 4f 22 c4 3d
       -0.22529541 0.4984387 0.64403045 0.09576856
0000f0 3f 59 9c be e8 8c 3a be 1a 97 9f 3e d8 7f 16 bd
       -0.3053684 -0.18217814 0.3116997 -0.036743015

l2_2.bias f4 [8]
000000 74 cf 5a be df 25 f4 3e 72 f1 e1 bc a2 12 ad 3e
       -0.213682 0.47685143 -0.02758095 0.33803278
000010 d3 ee 1d be cf 22 b7 3e 55 2c 86 bd f0 bf cd be
       -0.15423135 0.35768744 -0.065514244 -0.401855

l2_3.weight f4 [8, 8]
000000 87 46 0a be 48 5d 0f bd 1d 1c 8d be e5 22 1f be
       -0.13503467 -0.03500107 -0.2756051 -0.15540655
000010 ca fb 0c 3e 06 c7 73 3e c2 ee 55 be 50 51 a6 bd
       0.13767925 0.2380639 -0.2089186 -0.08120978
000020 b8 9d 54 be e0 cc 7c bd a2 e8 54 3e a4 6d 89 3d
       -0.2076329 -0.06171882 0.20791867 0.067103654
000030 64 c2 b5 bd 80 7f 07 3e d6 d7 1b 3e 00 8d 16 3c
       -0.08874968 0.13232231 0.15219054 0.00918889
000040 40 9e a6 bd c7 c2 98 3e 61 fb 41 be 85 87 05 be
       -0.081356525 0.29836103 -0.1894355 -0.13039978
000050 48 48 87 3d b0 9d e5 bc 97 61 8c 3e cd 9f 9b 3e
       0.066055834 -0.028029293 0.27418205 0.30395356
000060 8b e0 8d 3e 00 98 85 bb d7 ee 8a be 58 9b 64 bd
       0.27710375 -0.0040769577 -0.27135345 -0.05581221
000070 0a a9 30 3e 2d 12 86 3e 07 47 25 be f5 a2 3b be
       0.17251983 0.26185742 -0.16140376 -0.18323882
000080 be a7 2e be 2c 17 e0 3d 80 5d a2 bb 80 34 f1 3b
       -0.17056176 0.1094192 -0.0049549937 0.007360995
000090 9a 70 87 be 10 ff 30 bd 00 80 6b 3d 30 f9 f8 3d
       -0.26453096 -0.043211997 0.057495117 0.12156904
0000a0 a5 ad 1d be db 2c 9b 3e 20 26 a3 3c bc 91 b3 be
       -0.15398271 0.3030766 0.01991564 -0.35072124
0000b0 43 7d 4b be 50 83 fa bc 34 56 ce bd 64 26 bb bd
       -0.19872002 -0.030580193 -0.10075036 -0.09138182
0000c0 17 da 9c 3e ce 7a 49 3e e8 e2 13 be 94 9b 84 3d
       0.3063514 0.19675753 -0.14442027 0.06474987
0000d0 cc 4b c6 bd 38 3e 5a 3d 8f 73 13 be 13 bf 52 be
       -0.09682426 0.053281993 -0.14399551 -0.20580702
0000e0 29 78 8e 3e e8 0e 52 3d fc b1 b7 bd 94 1f 0f 3e
       0.2782605 0.051283747 -0.08969495 0.1397689
0000f0 38 fc 47 be 80 06 67 bb 2b 83 88 be fc fe 8f 3d
       -0.19529808 -0.0035251677 -0.26662573 0.07031056

l2_3.bias f4 [8]
000000 20 65 cb bc 51 24 a0 3e 48 ba a7 be 5f 5f ae 3e
       -0.024828494 0.31277707 -0.3275931 0.34057137
000010 38 3d c7 3d 80 79 3e bd aa 7c 5b 3e 92 ac 00 be
       0.097284734 -0.04650259 0.21434274 -0.1256583

l2_4.weight f4 [1, 8]
000000 73 af 38 3c 3d 46 72 3e 63 ff 9e bd 15 d8 b7 3e
       0.011272299 0.23659606 -0.07763555 0.35907045
000010 81 5d 80 bc f5 07 09 3f 80 1a d4 be 2a 8e 9f be
       -0.015669586 0.53527766 -0.41426468 -0.3116315

l3_1.weight f4 [8, 6]
000000 16 85 25 bd 74 4a d8 3d 96 92 ad be e0 8a 08 bf
       -0.040410124 0.10561076 -0.339009 -0.53336906
000010 d2 4a 7c ba 95 56 bf 3e d1 b6 dd 3d 1e ac a1 bd
       -0.0009624186 0.37370744 0.10825885 -0.07894157
000020 b2 55 56 3e 72 96 14 3f c2 3f 2a 3f d7 cd c6 be
       0.20931128 0.5804206 0.66503537 -0.38828918
000030 d6 88 5f 3c 4e 9d 75 3e 14 c8 51 3e 8d 2f 79 3d
       0.013643464 0.23985788 0.2048648 0.060836364
000040 7d 02 00 3e 17 fd ad be 66 03 10 be cb bd 5a be
       0.12500949 -0.33982155 -0.14063796 -0.21361463
000050 61 3e 77 3e d8 65 26 3f b5 23 e9 3e 0d d7 e2 be
       0.2414489 0.6499915 0.45535055 -0.44304696
000060 d0 b6 63 3d d8 74 e0 3e fd 79 05 be 07 ff 64 bf
       0.055594265 0.43839145 -0.13034816 -0.8945164
000070 04 5d 64 be 45 6b 1f bd 3f fc 48 bd be d2 84 bc
       -0.22301108 -0.03892066 -0.049068686 -0.016213771
000080 f3 38 fc 3d 5c 9d 60 3f 37 78 e2 3e 3b c8 c6 3d
       0.1231555 0.8774011 0.44232342 0.0970616
000090 20 2b 38 3d c3 f5 8f 3e b0 32 e5 3d 15 69 50 be
       0.044963002 0.2811719 0.111913085 -0.20352586
0000a0 82 19 fa bd a6 cb be 39 76 17 12 3d fc fe 97 3e
       -0.122118965 0.00036391354 0.035666905 0.29686725
0000b0 93 d7 b8 be 34 99 39 bf 94 97 4e bf 1c 96 43 bc
       -0.3610197 -0.72499394 -0.8070004 -0.011937644

l3_1.bias f4 [8]
000000 72 89 83 be 74 ef 64 3d 46 66 e0 3c 10 9d e7 3e
       -0.256908 0.055892423 0.027392518 0.45237017
000010 68 89 6f 3e 67 2d 8a bc c2 10 e7 bc 70 1d cf be
       0.2339226 -0.016867353 -0.028206233 -0.40452147

l3_2.weight f4 [8, 8]
000000 dc 09 0e 3e 11 4b 33 be d9 63 08 3e 3a 19 1c be
       0.13870949 -0.17509104 0.13319339 -0.15243998
000010 fc 20 3e 3e 2b bd e0 be c6 a4 9b be 8d 89 22 3d
       0.1856727 -0.43894324 -0.3039915 0.03968196
000020 df 13 ff bd e2 ce ae be 69 06 c6 3e 05 7c 75 be
       -0.12454962 -0.34142214 0.38676766 -0.23973091
000030 54 f0 95 3d 02 da 4c bd e7 e8 38 3e 14 27 9a bd
       0.073212296 -0.050012596 0.18057595 -0.07526985
000040 a3 81 7b 3e 7f e7 d0 be 42 0e a2 bd 10 6c d3 3d
       0.24561171 -0.40801618 -0.07912876 0.10323346
000050 23 fc b5 3d bd 42 cc be e0 5e de 3d 4c 3c 52 3d
       0.08885982 -0.39894667 0.1085794 0.051327035
000060 94 af d8 3d ea e6 9f 3e e0 fd a0 bd 6d 7c 30 bd
       0.10580364 0.3123086 -0.07860923 -0.04308741
000070 1d 69 15 bf 0b 38 c2 3e 28 1c 70 be 88 d4 9a be
       -0.58363515 0.37933382 -0.23448241 -0.30240273
000080 ff d1 d4 3c 6b 05 82 be c3 60 1e be ea cb 64 3e
       0.02597904 -0.2539476 -0.15466599 0.22343412
000090 f6 b0 a6 3e 36 ed da bc 80 7b a2 3e 0f 66 aa 3e
       0.32556885 -0.02672444 0.31734848 0.3328099
0000a0 49 b1 9d bd 44 d0 37 3e b2 8e 9b 3b bb 37 88 3e
       -0.0769983 0.17950541 0.004747235 0.2660502
0000b0 da 6e 57 be 81 ac b7 be f3 29 14 bd 8b d7 36 bd
       -0.2103838 -0.35873798 -0.03617282 -0.04463915
0000c0 c8 5a b4 3e 10 40 c4 bd 2f 47 ef 3e f5 e9 93 3e
       0.3522551 -0.095825315 0.46733996 0.28889433
0000d0 fc b6 0f bf 13 3c 8a 3e 3b 13 6c 3e f4 36 64 be
       -0.56138587 0.26998958 0.23054211 -0.22286588
0000e0 d3 9f b0 bd 18 4e 8c 3e 4d 9a 68 be de a6 e1 bd
       -0.08624234 0.2740333 -0.22715111 -0.110181555
0000f0 84 7c 89 3d 0e f6 22 be ce d8 ae 3e ee 33 2d 3e
       0.067132026 -0.15914175 0.34149784 0.16914341

l3_2.bias f4 [8]
000000 6f 5d 58 be e9 18 ce bd 75 fa 87 3e 6a fe 51 be
       -0.21129392 -0.10063345 0.2655827 -0.20507208
000010 65 47 34 be 09 cc 13 be 40 55 06 3e 01 19 8c be
       -0.1760536 -0.14433302 0.13118458 -0.27362826

l3_3.weight f4 [8, 8]
000000 d0 2c 74 3d b4 66 b5 3d e1 8b 25 be 08 da 92 bd
       0.05961305 0.0885748 -0.16166641 -0.071704924
000010 8f 1e 86 3e 97 1d 8d 3e 6b 30 a1 3e 64 0e 9c 3d
       0.2619519 0.27561638 0.31482252 0.07619932
000020 80 0b 76 bb b0 83 91 bc b5 51 5a be b6 9d 06 3e
       -0.0037543476 -0.017762989 -0.21320231 0.131461
000030 b0 bb 8a be 1c 7c 6b be 78 99 ac be d6 98 77 3e
       -0.2709632 -0.22996563 -0.33710837 0.24179396
000040 53 49 0a be e4 f7 d6 3d 6e f1 a9 be 00 3f cb bd
       -0.13504533 0.104965 -0.3319201 -0.09924126
000050 90 e1 05 bd d8 54 23 3d 6d 96 95 3e 3c 99 c0 3d
       -0.032685816 0.039875835 0.29216328 0.09404227
000060 4c 22 e8 3d 0b e5 89 3e d6 64 5e be 04 ff bb 3d
       0.113346666 0.26932558 -0.21718153 0.091795
000070 90 f3 89 bd 47 d1 8c 3e f5 b3 a4 3e 10 88 c3 3c
       -0.06735909 0.27503416 0.32168546 0.02386859
000080 7d 7c b2 3e a7 f6 95 3e 4e 78 61 3e f9 3b 85 3e
       0.34860602 0.29289743 0.22018549 0.26022318
000090 8a a2 5e 3e 30 0b bc bc eb ca a8 be f3 7a 8b 3e
       0.21741691 -0.022954553 -0.32967314 0.2724224
0000a0 6a 8d 1b 3e f8 0c ac be 3e 4c 6c 3e 12 de 6e 3e
       0.15190664 -0.33603644 0.23075959 0.233269
0000b0 90 54 88 3d ce 0c 46 3e 40 21 9f 3b f5 a5 98 3e
       0.06656754 0.19340822 0.0048562586 0.29814115
0000c0 c6 64 3d 3e f6 3a 12 3e 4a e9 60 3e 80 c1 18 be
       0.18495473 0.14280304 0.21963993 -0.14917564
0000d0 14 37 84 bd 25 32 94 3e 9c 29 e8 bd ff 49 8f 3e
       -0.06455818 0.28944507 -0.11336061 0.27986142
0000e0 25 05 b2 3e 67 95 98 be 64 04 73 be 96 a4 24 3e
       0.3476955 -0.29801485 -0.23732144 0.1607841
0000f0 30 7e 01 bd 9b 48 9c 3e 18 39 5d 3d f0 b4 c8 bd
       -0.031614482 0.30524144 0.054009527 -0.09800136

l3_3.bias f4 [8]
000000 8e 68 64 3e 5a 3d 15 3e c1 e3 af 3e 9b 99 85 be
       0.2230551 0.14574185 0.3435345 -0.26093754
000010 60 41 15 be e3 1f 54 be 08 82 23 bd a8 9e 88 bd
       -0.1457572 -0.20715289 -0.03991893 -0.06670886

l3_4.weight f4 [1, 8]
000000 91 87 da 3d b6 37 14 3c 83 12 9a 3e 19 33 b6 bd
       0.106703885 0.009046486 0.30092248 -0.08896465
000010 22 7e c8 3c ca b5 4c be a5 a0 06 be 05 a9 54 bc
       0.024474207 -0.19991222 -0.13147219 -0.0129797505

exp_avg f4 [8, 6]
000000 0b b6 03 3d 46 3f 00 be 47 d9 3d 3e d7 78 ca bd
       0.03215603 -0.12524137 0.18539916 -0.098863296
000010 a1 5b 16 be 7f 0c 92 3b 89 c4 73 b8 c5 0e 9e 3a
       -0.14683391 0.004457056 -5.8118752e-05 0.0012058845
000020 51 d8 e7 ba 3f a9 7d 3a 76 46 b8 3a d2 29 03 b9
       -0.0017688369 0.0009676404 0.0014059085 -0.00012508713
000030 62 f0 dc b9 2f c2 d8 3a dd 72 20 bb d1 3a ab 3a
       -0.0004214077 0.0016537363 -0.0024482526 0.0013063793
000040 02 14 fe 3a 48 3a 76 b8 f9 df c2 3c 7d 73 b6 bd
       0.0019384625 -5.870525e-05 0.02378844 -0.089087464
000050 f0 1f 07 3e 7f fe 8f bd 34 e9 d5 bd 5b f6 43 3b
       0.13195777 -0.07030963 -0.104448706 0.0029901478
000060 2a d7 85 bb 62 d5 53 3c c1 51 9d bc 90 f8 26 3c
       -0.0040844874 0.012929292 -0.019204022 0.010191098
000070 27 59 78 3c 16 7c a1 b9 33 01 15 39 79 ea 3a ba
       0.015157974 -0.00030800764 0.00014210194 -0.0007130276
000080 fa 66 89 3a fb 89 11 ba 1e e9 5c ba c0 b1 cb 36
       0.001048296 -0.0005551872 -0.0008427071 6.0705643e-06
000090 ea 61 96 bc 29 88 90 3d fc ff d5 bd b0 2d 64 3d
       -0.018357236 0.070572205 -0.10449216 0.055707633
0000a0 9d 72 a9 3d 2f 40 22 bb 9d 49 d1 bc 0f f0 c5 3d
       0.08273814 -0.0024757495 -0.025547797 0.09664928
0000b0 21 92 12 be f9 38 9c 3d f6 10 e8 3d ad 12 58 bb
       -0.14313556 0.07628054 0.1133136 -0.0032970116

exp_avg_sq f4 [8, 6]
000000 e6 3d 3e 40 79 b7 26 3e 1b 98 ea 3e ae 89 01 3e
       2.972528 0.16280927 0.45819172 0.12650177
000010 68 14 6c 3e d4 e6 3c 41 1c 5c 3d 3b 64 b9 35 39
       0.2305466 11.8063545 0.0028894013 0.00017330569
000020 50 72 fe 39 2f 7d 0d 39 c0 7a 7f 39 f5 e1 f9 3b
       0.00048531825 0.00013493442 0.00024364423 0.007625813
000030 ea 53 a4 3a 20 fd a6 38 02 50 71 39 a3 40 8e 38
       0.0012537215 7.962645e-05 0.00023013356 6.783127e-05
000040 68 d4 e5 38 df b5 fa 3c b3 17 c4 3f 67 5e ab 3d
       0.00010959135 0.030604301 1.5319732 0.08367615
000050 94 21 71 3e df 23 85 3d 26 a1 f2 3d 55 a5 bd 40
       0.23547965 0.065009825 0.11847143 5.926432
000060 12 42 1b 3d 76 30 04 3b 74 d9 ba 3b ae 40 d1 3a
       0.037904806 0.0020170487 0.005702192 0.0015964711
000070 dd ae 39 3b de 63 82 3e f1 92 94 39 fc 42 b2 37
       0.0028332986 0.25466818 0.0002833824 2.1250446e-05
000080 2c 57 7c 38 e4 ce 8b 37 ff 15 fa 37 fa 57 25 3b
       6.0162667e-05 1.6666432e-05 2.9812565e-05 0.002522944
000090 85 a2 80 3f 81 68 60 3d 71 e0 1d 3e 94 55 2e 3d
       1.0049597 0.054787163 0.15417649 0.042562082
0000a0 0f dc 9e 3d 0f 8b 74 40 83 76 ec 3f e4 51 ce 3d
       0.077568166 3.8209875 1.8473667 0.10074213
0000b0 e6 2d 91 3e 58 5b a0 3d a7 07 12 3e 23 1a e7 40
       0.2835533 0.078299224 0.14260732 7.2219405

exp_avg f4 [8]
000000 d7 a4 6b 3e 8d 35 11 bb 62 23 47 bb a2 9e 27 3e
       0.230121 -0.0022157163 -0.003038608 0.16369107
000010 11 9d c2 bc b5 b8 ab 3a 6b c8 04 be ec d8 35 be
       -0.023756536 0.0013101312 -0.12967078 -0.1775853

exp_avg_sq f4 [8]
000000 94 b6 0c 3f 4f 61 19 3a 72 f1 8c 39 c9 a3 90 3e
       0.5496609 0.0005850987 0.00026882772 0.28249958
000010 8d 24 df 3b 48 75 96 38 44 68 3d 3e c3 23 ae 3e
       0.006809777 7.174403e-05 0.18496805 0.3401166

exp_avg f4 [8, 8]
000000 40 a6 84 bc f1 16 22 b9 0d 10 4d ba 70 4c 08 3b
       -0.016192555 -0.0001545807 -0.0007822521 0.0020797513
000010 49 66 9d 39 9b dc a5 39 6b d8 c8 3a a1 bd 94 3a
       0.00030021582 0.00031635616 0.0015323287 0.0011348018
000020 c0 10 13 3e 49 39 a7 3a da 76 e2 3b c6 df 98 bc
       0.14361858 0.0012758161 0.006911141 -0.018661391
000030 fe 9b 27 bb 97 02 36 bb c6 09 5f bc 63 6c 22 bc
       -0.0025575156 -0.002777254 -0.01361317 -0.009913537
000040 d5 a1 ef bc 52 d0 8a b9 01 96 b8 ba 07 ae 78 3b
       -0.029251972 -0.00026476622 -0.0014082791 0.0037945525
000050 67 80 09 3a db 52 14 3a 01 95 35 3b 35 a9 04 3b
       0.00052452687 0.00056580984 0.0027707221 0.0020242457
000060 cc 81 3b b8 3c 38 8c 36 0c 8a ba b5 e1 0d 46 37
       -4.4705157e-05 4.1788717e-06 -1.3898257e-06 1.1804951e-05
000070 e2 c8 22 b6 c2 e2 73 35 eb be c6 36 1a 7d d2 b5
       -2.425681e-06 9.085453e-07 5.9230856e-06 -1.5682629e-06
000080 d6 95 87 bd c5 ef 1a ba f7 d0 50 bb fc dd 0c 3c
       -0.06620376 -0.0005910362 -0.0031862834 0.008597847
000090 31 d8 9a 3a e1 d7 a7 3a 90 97 cd 3b 60 db 95 3b
       0.0011813698 0.0012805426 0.006274171 0.0045732707
0000a0 aa 58 4d 3d 0f ec ea 39 e8 25 1e 3b df 41 d5 bb
       0.050133385 0.00044807835 0.002413148 -0.0065080966
0000b0 01 d1 6a ba 3b 63 7e ba 72 b0 9b bb 23 13 63 bb
       -0.00089575356 -0.00097041175 -0.0047512585 -0.0034648858
0000c0 39 25 7c bd 4e 04 11 ba ba 51 42 bb 44 b5 02 3c
       -0.061558936 -0.00055319525 -0.0029650764 0.007977787
0000d0 b0 ee 90 3a 5a 8b 9c 3a 30 30 bf 3b 3f b2 8b 3b
       0.0011057463 0.0011943385 0.005834602 0.004263192
0000e0 36 a4 03 3d 8a 63 96 39 35 ae ca 3a fb d7 88 bb
       0.032139026 0.00028684392 0.0015463295 -0.0041761375
0000f0 7e 18 16 ba 29 d8 22 ba 6e 95 47 bb 8e 69 11 bb
       -0.00057256955 -0.000621202 -0.0030454057 -0.002218816

exp_avg_sq f4 [8, 8]
000000 a3 ae db 3b 2a 36 19 39 71 32 cd 3a 35 3f 84 3b
       0.006704168 0.00014611395 0.0015655291 0.004035855
000010 fd 5c 6c 38 79 85 50 38 a9 8f 79 3a 48 cc ee 39
       5.6353387e-05 4.971537e-05 0.0009520003 0.000455471
000020 ae 00 d3 3e e8 01 19 3c 43 37 c9 3d 56 86 83 3e
       0.41211456 0.009338833 0.098249935 0.25688428
000030 ca 87 5c 3b a6 ed 42 3b 65 07 7b 3d 4e fd ee 3c
       0.0033650273 0.00297437 0.06128635 0.02917352
000040 4a d1 9b 3c 90 bd d8 39 e0 50 8d 3b 1f 19 3a 3c
       0.019020695 0.00041339966 0.0043126196 0.011358528
000050 0b c5 23 39 5c 56 0e 39 69 0c 30 3b 3e 57 a9 3a
       0.00015618296 0.00013574347 0.0026862866 0.0012919677
000060 31 47 b9 37 33 2c 0e 36 0a 57 e6 37 03 48 5a 38
       2.208687e-05 2.1185376e-06 2.7458667e-05 5.2042316e-05
000070 70 91 52 34 fb 74 5b 35 ed 65 5e 37 24 69 ab 36
       1.9610684e-07 8.1754087e-07 1.3255963e-05 5.108437e-06
000080 b1 ff b7 3d dd 18 03 3b e1 50 ab 3c 41 44 61 3d
       0.08984316 0.0020003833 0.02091259 0.054996733
000090 0e 3c 40 3a 27 26 28 3a 82 57 56 3c d3 05 cd 3b
       0.00073331676 0.00064143765 0.013082387 0.006256798
0000a0 08 d8 56 3d 94 5c 97 3a fc 29 45 3c 91 0c 02 3d
       0.052452117 0.0011547976 0.012033936 0.031750266
0000b0 7c a3 e0 39 ce 3a c3 39 44 ea f6 3b 35 f8 6c 3b
       0.00042846415 0.0003723711 0.007535251 0.0036158685
0000c0 3c 0e 9d 3d d4 5c dd 3a 25 72 8f 3c 96 1a 3e 3d
       0.076687306 0.0016888627 0.017510483 0.046412073
0000d0 4d 4c 23 3a 1f 33 0d 3a 03 c0 34 3c bd 83 ad 3b
       0.0006229326 0.0005386341 0.011032107 0.0052952454
0000e0 17 81 b8 3c 36 40 00 3a a4 43 a7 3b b9 94 5c 3c
       0.022522492 0.00048923807 0.005104499 0.013463193
0000f0 9e 10 42 39 1c ee 27 39 78 97 50 3b 7b e3 c8 3a
       0.00018507472 0.00016015064 0.0031828564 0.0015326584

exp_avg f4 [8]
000000 f2 f4 83 3c 70 ba 11 be 78 a4 ed 3c 62 4a c5 37
       0.01610801 -0.14231277 0.029009089 2.3518867e-05
000010 f5 61 86 3d 01 8c 4b bd 23 0a 7a 3d 0d 77 02 bd
       0.065616526 -0.049694065 0.061044823 -0.031851817

exp_avg_sq f4 [8]
000000 5a 9b 58 3b 8d 7c 4f 3e 65 a8 19 3c 61 c9 17 37
       0.003305158 0.20262356 0.009378527 9.0471885e-06
000010 f2 21 35 3d a4 8d d3 3c 77 a8 1a 3d 47 c3 35 3c
       0.044221826 0.025824375 0.037758317 0.011093921

exp_avg f4 [1, 8]
000000 a6 e9 e7 bb 51 81 97 3c 92 a6 dc 3b 7a f2 92 bb
       -0.0070774136 0.01849428 0.006733724 -0.004484472
000010 86 68 fe bb b8 93 2a 3d d1 8b e7 bd 7a 6a f9 3c
       -0.007763925 0.04164478 -0.11305965 0.03044628

exp_avg_sq f4 [1, 8]
000000 c7 55 91 3c 78 71 f0 3e 26 62 86 3d 04 60 52 3b
       0.017741097 0.4696157 0.06561689 0.0032100687
000010 19 7b 18 3e 76 29 66 3e 22 4a c6 3e 44 bf 30 3e
       0.14890708 0.22476754 0.38728434 0.17260462

exp_avg f4 [8, 6]
000000 64 9f 7b bd 16 55 1d 3d 95 b1 7f bd ca be fb 3c
       -0.061431304 0.038411222 -0.062425215 0.030730624
000010 cd f6 39 3d bd a8 9e ba 15 86 cc 3e dc d5 7f be
       0.045401383 -0.0012104731 0.39946046 -0.24983925
000020 ba e2 cf 3e 3b af 4c be 2c 32 97 be da d0 01 3c
       0.40602666 -0.1998872 -0.29530466 0.007923329
000030 93 f6 04 3f df 55 a6 be d2 28 07 3f a5 14 85 be
       0.5193874 -0.3248739 0.5279666 -0.25992313
000040 a8 9a c4 be 19 10 29 3c 11 e0 6b 3b cc 88 15 bb
       -0.38399243 0.010318779 0.0035991708 -0.0022817133
000050 da cd 73 3b 2d ee f5 ba 54 21 2f bb 90 63 85 39
       0.0037201555 -0.0018762999 -0.0026722746 0.00025441917
000060 49 2b 87 be fa 11 29 3e 3f 61 89 be dc 3f 07 3e
       -0.2640021 0.16510764 -0.26832005 0.13207954
000070 b8 d8 47 3e 62 8c aa bb d0 9f 48 bd 07 88 fb 3c
       0.19516265 -0.005204723 -0.048980534 0.030704511
000080 7c 53 4c bd b0 20 c9 3c ca af 14 3d d3 26 80 ba
       -0.049884304 0.02455172 0.036300458 -0.0009777196
000090 08 98 be bc 63 e5 6d 3c 40 55 c1 bc e2 43 3e 3c
       -0.023265854 0.014520022 -0.02360022 0.011612864
0000a0 53 9b 8c 3c e6 ee e4 b9 a6 fa 8f be d6 1c 34 3e
       0.017163908 -0.00043665542 -0.28120917 0.17589125
0000b0 58 5b 92 be c2 1d 10 3e ce e1 54 3e 5c 65 b8 bb
       -0.28585315 0.14073852 0.20789263 -0.0056273174

exp_avg_sq f4 [8, 6]
000000 be 36 56 3d 8e a2 ae 3b d0 e1 77 3c fc c2 92 3b
       0.0522983 0.0053294366 0.0151295215 0.0044788104
000010 51 43 dc 3b ca 79 fc 3f a3 59 0b 40 48 c6 66 3e
       0.006721892 1.9724667 2.177346 0.22536576
000020 67 d6 20 3f 5e 81 3a 3e a9 27 93 3e 5a 8e 48 42
       0.6282715 0.18213412 0.28741196 50.139015
000030 69 73 6b 40 0a ca c2 3e 36 e4 87 3f d7 be 9d 3e
       3.678919 0.3804477 1.061652 0.30809662
000040 e5 45 f8 3e 74 10 af 42 ee c2 2d 3a 9d e8 96 38
       0.48490825 87.532135 0.0006628473 7.195885e-05
000050 c4 39 55 39 a6 4a 7f 38 e1 4e be 38 38 2c e1 3c
       0.00020334782 6.086626e-05 9.074598e-05 0.027486905
000060 ea 73 7a 3f 88 53 cf 3d 0d 53 90 3e 7a 19 a7 3d
       0.9783312 0.10123354 0.28188363 0.08159156
000070 5d 49 04 3e 74 99 ab 41 45 24 2b 3d fc ac 8c 3b
       0.12918611 21.449928 0.041782636 0.0042930823
000080 9e 9e 42 3c 56 39 5f 3b 58 07 b4 3b ed 3e 24 3f
       0.011878638 0.0034061274 0.0054940395 0.6415852
000090 3b 74 11 3c 38 1c 68 3a 15 44 29 3b a9 32 50 3a
       0.008877809 0.00088543026 0.0025827934 0.0007942119
0000a0 49 5d 8f 3a 49 2f 0c 3f 11 77 8d 3f 72 54 ea 3d
       0.0010937835 0.5475965 1.1051961 0.11441888
0000b0 1f 2a a3 3e 94 fe bc 3d 64 7b 15 3e 8b 3a c4 41
       0.31868073 0.092282444 0.14597851 24.528585

exp_avg f4 [8]
000000 f5 8a 90 bd dc 09 eb 3e 64 d0 18 3f f3 60 89 3b
       -0.07057754 0.4590596 0.5969298 0.0041924655
000010 96 53 9b be 98 15 67 bd b6 8e da bc a4 78 a5 be
       -0.30337209 -0.056417078 -0.026679378 -0.32318604

exp_avg_sq f4 [8]
000000 84 65 93 3c b4 c7 42 3f 4c 68 a4 3f 08 be 7e 39
       0.017992742 0.7608597 1.2844329 0.0002429412
000010 2e fd ae 3e e6 77 6d 3c 3f e8 43 3b e1 c7 c5 3e
       0.34177536 0.014493918 0.0029893068 0.38629058

exp_avg f4 [8, 8]
000000 11 99 72 39 b1 9b c4 b9 fb af b4 b7 ce 05 c8 39
       0.0002313594 -0.00037500032 -2.153962e-05 0.00038151297
000010 ea 99 11 bb 31 14 d5 ba eb 88 3c 3a e4 5d 04 3a
       -0.0022216984 -0.0016256628 0.0007192033 0.0005049391
000020 0d db 99 3b 34 ee 03 bc 10 f4 47 ba d6 07 01 3c
       0.0046953023 -0.0080523975 -0.00076276157 0.007875403
000030 9d ad 3a bd f4 95 08 bd 97 16 6c 3c 27 1b 2d 3c
       -0.045575727 -0.03334613 0.014409683 0.010565556
000040 c1 87 cb ba d7 ba 2f 3b b4 2f 93 39 ca 03 29 bb
       -0.0015528129 0.0026814246 0.00028073567 -0.0025789612
000050 4d 5c 75 3c e2 9e 33 3c 06 0d 9b bb db 65 65 bb
       0.0149756195 0.010963174 -0.004731777 -0.0035003338
000060 27 f2 e9 3b 11 91 48 bc 91 36 99 ba b7 d8 43 3c
       0.0071394625 -0.012241618 -0.0011689236 0.011953524
000070 3e c2 8d bd f5 73 4f bd 88 58 b3 3c 14 8d 83 3c
       -0.069218144 -0.050647695 0.0218928 0.016058482
000080 e5 16 9f b9 c5 f8 0c 3a fc 62 7f 38 33 3f 06 ba
       -0.000303439 0.0005377646 6.0888924e-05 -0.0005121112
000090 8d ff 41 3b b8 18 0e 3b 9c c0 72 ba 3c 7b 36 ba
       0.0029601783 0.0021682214 -0.00092602684 -0.00069611124
0000a0 42 55 2e 3c 73 54 95 bc d6 f5 e1 ba 57 04 92 3c
       0.010640444 -0.018228745 -0.0017239403 0.017824335
0000b0 27 58 d3 bd 28 a3 9a bd 44 b8 05 3d f0 fd c3 3c
       -0.10319548 -0.07550651 0.032646433 0.023924798
0000c0 d7 15 07 bc ab 94 67 3c 43 77 b1 3a ca f8 61 bc
       -0.008244953 0.014134566 0.0013539571 -0.013792226
0000d0 11 9d a3 3d 8b 71 6f 3d 6c 0a cf bc e2 e1 97 bc
       0.079889424 0.058457892 -0.025273524 -0.018540327
0000e0 80 e9 ca bb 6f ed 2d 3c 6b 2d 84 3a db fd 29 bc
       -0.006192386 0.010615691 0.0010084336 -0.010375465
0000f0 82 06 76 3d 43 03 34 3d 22 9e 9b bc f6 34 64 bc
       0.0600648 0.043948423 -0.018996302 -0.0139286425

exp_avg_sq f4 [8, 8]
000000 d3 6e c8 39 1f 4d 5a 3a b3 f8 83 39 cc 40 5c 37
       0.00038229543 0.0008327532 0.00025171562 1.3128109e-05
000010 d7 0b 0d 3a 0c b5 c9 37 28 67 d2 3a 30 c0 86 39
       0.00053804874 2.4045374e-05 0.0016052471 0.00025701663
000020 8e 16 e0 3d 06 d4 95 3e 46 2f c0 3d 4a c0 29 3b
       0.10941802 0.29263324 0.09384017 0.0025901967
000030 18 17 45 3e 1e dd 22 3c 0d d9 f8 3e cb d6 c0 3d
       0.19247091 0.009940414 0.48603097 0.094159685
000040 42 7c 22 3c 05 a9 db 3c 6d 59 0e 3c aa 7e 89 39
       0.009917321 0.026813993 0.008688313 0.00026225048
000050 64 4d 91 3c 03 58 85 3a 14 5b 35 3d d2 43 0e 3c
       0.017737098 0.0010173324 0.044276312 0.008683162
000060 3e ca 84 3e 19 60 31 3f 16 29 63 3e 0c 72 c4 3b
       0.2593555 0.6928726 0.22183642 0.0059950408
000070 4a 1a e9 3e c6 05 bd 3c e7 5e 93 3f 73 14 64 3e
       0.4552787 0.023074042 1.1513337 0.22273426
000080 6e e5 da 39 6a 43 8e 3a ee 7c c1 39 a7 09 cd 37
       0.0004175114 0.0010853831 0.00036904908 2.4442399e-05
000090 b3 a1 43 3a fb a3 99 38 c9 f9 f4 3a 63 ad bd 39
       0.0007462755 7.326152e-05 0.0018690164 0.00036178072
0000a0 c6 ee 16 3f f3 63 c9 3f e7 d3 00 3f 6c d0 5c 3c
       0.5895809 1.5733627 0.5032334 0.013477426
0000b0 72 41 84 3f 39 24 54 3d cd 6c 27 40 5d 66 01 3f
       1.0332472 0.051792357 2.6160157 0.5054682
0000c0 fa 24 b2 3e 3b ef 6d 3f 89 4c 98 3e b7 c4 02 3c
       0.34793836 0.9294316 0.29745892 0.007981471
0000d0 5b 4d 1c 3f 94 24 fc 3c 12 af c5 3f bd f0 98 3e
       0.61055535 0.03077916 1.5444052 0.2987117
0000e0 13 4c 43 3e 8d 9f 02 3f 9a 6c 27 3e 58 23 91 3b
       0.19071989 0.51024705 0.16350022 0.004429262
0000f0 8e bb ab 3e f3 46 8c 3c 32 db 58 3f a2 0c 28 3e
       0.3354153 0.017123675 0.84709466 0.16411069

exp_avg f4 [8]
000000 14 bd c3 bb 02 e3 fb bd ef c8 25 3d 37 4d 3f be
       -0.0059734676 -0.12299158 0.04047483 -0.18681799
000010 18 45 03 3c cd 95 8e be a4 ce 5c 3e 84 fd 25 3e
       0.008012079 -0.27848664 0.21563202 0.1620999

exp_avg_sq f4 [8]
000000 3f 0d ef 38 81 de 5f 3d 62 a7 d0 3b ff 0c fd 3d
       0.00011398875 0.054655556 0.00636761 0.123559944
000010 22 89 2c 3a 0d bc 8b 3e f0 7d 27 3e ec c1 bd 3d
       0.00065817137 0.2729191 0.16356635 0.09265503

exp_avg f4 [1, 8]
000000 a1 02 0e 3d f3 f1 95 be 2e 8f 29 bd 26 f5 42 be
       0.034670476 -0.29286155 -0.041396312 -0.19038829
000010 ef 2e dc 3d d9 3c 82 be c0 93 28 bb a2 69 94 3e
       0.107511394 -0.25437048 -0.0025722831 0.2898684

exp_avg_sq f4 [1, 8]
000000 b7 44 9e 3d 39 82 77 40 44 16 16 40 db 66 b7 40
       0.0772795 3.8673232 2.345109 5.7313056
000010 cb 25 ae 3e 66 c2 cc 40 7b 97 d3 40 01 10 1c 41
       0.3401321 6.3987303 6.6122413 9.753907

exp_avg f4 [8, 6]
000000 ea 3c ab 38 10 8b cc 3a 8b aa 21 bb 05 dd cb 3a
       8.1652615e-05 0.0015605409 -0.0024668302 0.001555354
000010 60 eb e2 3a 26 14 8a ba a0 3f fc b9 34 33 d4 bb
       0.0017312579 -0.0010534569 -0.0004811259 -0.0064758305
000020 89 83 27 3c 45 8c d3 bb f8 72 eb bb fd 5b 90 3b
       0.0102242315 -0.0064559304 -0.007185336 0.004405497
000030 bb a6 1a b9 95 61 01 bb 78 4c 4c 3b 7b 09 01 bb
       -0.00014748696 -0.0019742001 0.0031173509 -0.0019689489
000040 f6 84 0f bb 7a 23 b0 3a 97 f4 2b b9 a1 b3 0c bb
       -0.002189932 0.0013438307 -0.00016398948 -0.0021469372
000050 32 25 5e 3b 04 4f 0c bb 6c 13 1c bb c5 49 bf 3a
       0.0033896682 -0.0021409402 -0.0023815287 0.0014594129
000060 61 d8 22 3a 7b 01 e4 3b dc d5 33 bc c6 4f e3 3b
       0.00062120525 0.0069581843 -0.010976281 0.006937
000070 df 02 fd 3b 91 ac 9b bb 2d 5a ef b9 ed ed a7 bb
       0.0077212895 -0.004750796 -0.00045652819 -0.0051247985
000080 6b 76 04 3c c0 75 a7 bb 52 56 ba bb cd c1 65 3b
       0.008084874 -0.0051104724 -0.0056865597 0.0035058141
000090 41 5f 56 38 c4 23 a5 38 2f 1d fc b8 de a8 a4 38
       5.1110288e-05 7.874475e-05 -0.00012021732 7.851583e-05
0000a0 14 70 b7 38 ea c2 74 b8 2a 24 66 39 e1 2b 3a 3b
       8.746996e-05 -5.835566e-05 0.00021947981 0.0028407502
0000b0 65 e9 92 bb ab 6c 39 3b c7 8c 4e 3b 00 a7 fa ba
       -0.004483389 0.002829353 0.0031517015 -0.0019123256

exp_avg_sq f4 [8, 6]
000000 25 68 da 39 47 47 b9 37 28 11 8b 38 67 8b b0 37
       0.00041657794 2.208691e-05 6.631232e-05 2.104575e-05
000010 dd a1 d2 37 ab 2c 16 3c 32 32 07 3c 60 80 d6 39
       2.5109324e-05 0.009165923 0.008251714 0.00040912908
000020 5e 13 a0 3a ff df c8 39 90 a6 f4 39 cc e7 08 3e
       0.0012212803 0.00038313863 0.00046663405 0.13369673
000030 4e ee 3b 3a 39 7c 22 38 f7 03 f4 38 3c 36 1b 38
       0.0007168994 3.87395e-05 0.00011635565 3.700539e-05
000040 46 68 38 38 02 d1 87 3c 45 55 39 3a 86 a4 25 38
       4.396613e-05 0.016579155 0.0007069896 3.949229e-05
000050 d9 59 f9 38 0c ec 1e 38 a9 df 3b 38 a2 c3 91 3c
       0.00011889981 3.788997e-05 4.4792574e-05 0.01779348
000060 87 3f 25 3c 6c 77 fc 39 8c af bb 3a fd d2 e9 39
       0.010085947 0.00048154162 0.0014319285 0.00044598422
000070 90 44 10 3a 23 e3 05 3e d7 19 bf 3b 7d e7 8e 39
       0.00055033807 0.13074927 0.005831938 0.00027256823
000080 c7 c9 53 3a 03 5d 83 39 2a 92 a3 39 31 ce 82 3d
       0.00080790784 0.00025055566 0.00031198683 0.06386984
000090 19 3b be 37 af 1f b6 35 4e b4 8c 36 8d 7b b6 35
       2.2677285e-05 1.3569278e-06 4.1933154e-06 1.3596015e-06
0000a0 b5 f2 ca 35 d8 c4 7c 3a 94 ef ac 3a a4 cb 81 38
       1.512081e-06 0.0009642369 0.0013193958 6.18913e-05
0000b0 77 0f 40 39 24 5b 6f 38 48 7f 94 38 21 1f 74 3c
       0.00018316308 5.706692e-05 7.080898e-05 0.0149

exp_avg f4 [8]
000000 76 ea 3b bb 43 f3 42 3c 40 ba 6d 3b 97 43 81 3b
       -0.0028673685 0.011898818 0.0036274344 0.003944825
000010 9e 78 51 bc 46 47 1a 3c 2a b7 17 b9 9a 09 ab bb
       -0.012785105 0.009416407 -0.00014468716 -0.0052196505

exp_avg_sq f4 [8]
000000 64 61 9c 38 98 0b b5 3a 61 24 09 39 99 ce 0b 39
       7.4568e-05 0.0013812659 0.0001307889 0.00013333037
000010 b3 16 d5 3a 25 3b 71 3a a3 b7 99 36 36 1a 5b 39
       0.0016257375 0.00092022336 4.5811335e-06 0.00020895232

exp_avg f4 [8, 8]
000000 72 ad 94 3a d8 3c 6b 3b 55 ff 7b 3a 00 62 86 37
       0.0011343195 0.003589442 0.00096129376 1.601968e-05
000010 6b 0a 43 bb 41 2a 74 3b 0f 29 1c ba d6 94 6f 38
       -0.0029760848 0.003725663 -0.0005957046 5.7120655e-05
000020 af 23 c8 38 23 a3 9b 39 c8 f8 a4 38 2c 0b 00 b6
       9.54339e-05 0.0002968545 7.8664685e-05 -1.907999e-06
000030 87 f5 80 b9 5f c0 a1 39 4b 6d 4c b8 94 3d a7 36
       -0.00024596995 0.0003085164 -4.8739177e-05 4.9841565e-06
000040 c7 07 51 3b 30 17 26 3c d7 39 32 3b 82 92 68 38
       0.0031895505 0.010137364 0.002719512 5.5449556e-05
000050 a4 93 09 bc ee 32 2c 3c 65 4c dc ba 97 d7 27 39
       -0.008397017 0.010510189 -0.0016807435 0.00016006675
000060 b7 7a 72 ba 77 4e 42 bb aa cc 50 ba 2e 17 36 b7
       -0.00092498533 -0.002964882 -0.00079650676 -1.0853442e-05
000070 87 38 20 3b 4f a1 48 bb e6 1a ff 39 82 82 43 b8
       0.0024447755 -0.0030613726 0.0004865743 -4.6613168e-05
000080 21 55 89 39 8e c4 54 3a 55 27 62 39 64 65 c5 b4
       0.00026194102 0.0008116447 0.00021567692 -3.676788e-07
000090 a9 22 31 ba 46 f7 5d 3a 7d cc 0d b9 64 81 5f 37
       -0.0006757179 0.00084673276 -0.00013522986 1.3321962e-05
0000a0 15 20 0b bb d2 db dc bb c3 ea ec ba f6 b4 19 b8
       -0.002122884 -0.006740072 -0.0018075336 -3.6646576e-05
0000b0 94 04 b7 3b b4 12 e5 bb 66 94 92 3a af 8e df b8
       0.0055852626 -0.006990755 0.0011183142 -0.000106600455
0000c0 38 f0 b5 ba a6 e8 90 bb da 86 9b ba a9 d8 b2 b7
       -0.0013880795 -0.004422265 -0.001186575 -2.1320144e-05
0000d0 5c c5 6f 3b 45 12 96 bb 54 a3 3f 3a 68 9a 92 b8
       0.0036586141 -0.0045798146 0.00073104096 -6.990583e-05
0000e0 20 6b 0f b9 ba 21 db b9 f4 ee e8 b8 73 93 3a b5
       -0.0001367745 -0.00041796063 -0.000111071306 -6.9504966e-07
0000f0 56 14 b7 39 e5 84 e5 b9 35 84 93 38 d1 84 de b6
       0.0003491963 -0.00043777298 7.034132e-05 -6.6315774e-06

exp_avg_sq f4 [8, 8]
000000 3b 43 a5 3b a3 59 c3 3b 2e 36 92 3b 43 e2 f9 3b
       0.005043415 0.0059616133 0.004462025 0.0076258495
000010 5c 17 b8 38 36 60 91 39 d5 52 b6 38 56 b9 b7 36
       8.778155e-05 0.00027728238 8.693865e-05 5.475401e-06
000020 20 47 2f 39 34 bb 4f 39 cd 46 1c 39 29 a5 85 39
       0.00016715797 0.00019810797 0.00014903695 0.0002549079
000030 f4 00 27 35 09 f6 ae 36 b1 62 a0 35 3a 58 a6 33
       6.2213735e-07 5.2142464e-06 1.1949652e-06 7.746026e-08
000040 a6 45 10 3d 71 a6 2a 3d 6f 96 fe 3c 72 bd 59 3d
       0.035222672 0.041662637 0.031077592 0.053159185
000050 de 2b 40 3a 77 eb 0b 3b 61 5e 27 3a 52 98 33 38
       0.00073307555 0.0021350065 0.0006384608 4.2818785e-05
000060 8b 07 52 3b 13 0d 78 3b 22 3e 39 3b 68 4e 9e 3b
       0.0032047953 0.003784959 0.0028265794 0.004831124
000070 fc 8f 8b 38 5b af 49 39 28 df 75 38 25 10 7a 36
       6.654856e-05 0.00019234179 5.8620382e-05 3.72623e-06
000080 0c 9a 37 3a 58 85 58 3a b5 b0 23 3a 6e 77 8b 3a
       0.0007003851 0.0008259616 0.0006244288 0.0010640451
000090 d0 77 b4 36 35 18 e3 37 9e 6f 31 37 eb 26 04 35
       5.378366e-06 2.7071781e-05 1.057601e-05 4.9230465e-07
0000a0 6f e1 83 3c 3a ff 9b 3c 21 f4 68 3c da 35 c7 3c
       0.016098706 0.0190426 0.014218361 0.02431767
0000b0 49 64 a5 39 11 9e 77 3a ce 94 95 39 86 d5 9e 37
       0.0003154597 0.0009445856 0.00028530363 1.8934497e-05
0000c0 36 da ee 3b f5 2e 0d 3c 18 27 d3 3b 1a 75 34 3c
       0.0072891964 0.008617152 0.0064438693 0.011014247
0000d0 1f 13 0d 39 9b ac d8 39 61 97 06 39 9e 7a 09 37
       0.00013453931 0.00041327332 0.00012835629 8.194385e-06
0000e0 90 0c d4 38 2c ba fa 38 cb 9f bb 38 6d bd 20 39
       0.00010111288 0.00011955606 8.9466186e-05 0.00015329356
0000f0 01 86 c3 35 d8 d0 a9 36 b6 db c9 35 f1 8f d3 33
       1.4567632e-06 5.060905e-06 1.5039611e-06 9.851636e-08

exp_avg f4 [8]
000000 52 2c cb bb cb d3 06 ba 40 4a 8f bc 78 20 a7 3b
       -0.0062003518 -0.0005143254 -0.01749146 0.005100306
000010 b8 bc b8 ba 24 9a 3e 3c d4 d2 f9 3b 96 fc 3e 3a
       -0.0014094329 0.01163343 0.0076240096 0.0007285563

exp_avg_sq f4 [8]
000000 d8 60 c6 39 69 1b 79 36 30 fe 4b 3b 72 dd 93 39
       0.00037837657 3.7119846e-06 0.003112685 0.00028203015
000010 e2 cc d9 37 d7 64 b0 3a 66 3b 17 3a 9a df d1 36
       2.5963822e-05 0.0013457787 0.0005769044 6.254716e-06

exp_avg f4 [1, 8]
000000 1d 2c 1d bc ce da 06 bc 97 d2 34 bd 18 d3 5a 3d
       -0.009593037 -0.008230878 -0.044146147 0.05342397
000010 be 48 32 bc 7d 43 e7 3b fe 7f a9 3c 6e e3 50 3c
       -0.010881601 0.007057606 0.020690914 0.012749536

exp_avg_sq f4 [1, 8]
000000 04 a0 29 3d fb 7a fa 3c ad f7 21 3e 6b f6 ed 3c
       0.04141237 0.03057622 0.15817137 0.029048165
000010 19 ae a9 3c 94 4a 41 3e c5 b7 26 3d 46 6b d6 3b
       0.020712899 0.18876106 0.0407026 0.0065435497
